best_total_time_series1.pt (torch, 463569 bytes, 114 tensors)

vae_encoder1.batch_norm.weight f4 [16]
0.96851224 0.9626173 0.9744535 0.94277567 0.97140276 0.9559125 0.9901039 1.0076473
1.037368 1.0303105 0.95654356 0.9984298 0.95144856 0.95855767 0.9719805 1.0267591
00000000: 6bf0 773f 166e 763f c975 793f bf59 713f
00000010: daad 783f aeb6 743f 7377 7d3f 96fa 803f
00000020: 7ac8 843f 37e1 833f 0ae0 743f 1899 7f3f
00000030: 2292 733f 0964 753f b7d3 783f d86c 833f

vae_encoder1.batch_norm.bias f4 [16]
0.091197535 -0.08431817 -0.10698682 -0.010938677 0.056716766 -0.01990289 -0.02691268 0.042386375
-0.043191742 -0.11264172 -0.10985721 -0.038311172 -0.05931133 -0.036169846 -0.103727534 -0.054583605
00000000: c6c5 ba3d 01af acbd e81b dbbd 2338 33bc
00000010: d74f 683d 630b a3bc fb77 dcbc 569d 2d3d
00000020: d3e9 30bd b4b0 e6bd d1fc e0bd 2dec 1cbd
00000030: 70f0 72bd d526 14bd 1a6f d4bd 0f93 5fbd

vae_encoder1.batch_norm.running_mean f4 [16]
0.42829058 1.7708715 0.53245664 0.30230236 0.2656785 3.6006541 -0.022880284 3.704557
0.86586195 -0.019179413 0.033569027 -0.005339762 3.1438446 1.6292632 0.9747211 -0.02113387
00000000: e748 db3e ebab e23f 144f 083f 60c7 9a3e
00000010: 0307 883e 1e71 6640 6f6f bbbc 7617 6d40
00000020: 21a9 5d3f 251e 9dbc ad7f 093d 2cf9 aebb
00000030: c034 4940 b28b d03f 5287 793f f020 adbc

vae_encoder1.batch_norm.running_var f4 [16]
0.009502274 0.03411939 0.013744714 0.046987027 0.023458838 0.11554289 4.5581287e-06 0.12739192
0.016658608 3.8104897e-06 0.016014768 4.8687957e-07 0.09063378 0.028049007 0.03481733 1.07166225e-05
00000000: 6daf 1b3c c6c0 0b3d 8231 613c 7875 403d
00000010: c02c c03c c0a1 ec3d 07f2 9836 0773 023e
00000020: a277 883c b7b7 7f36 6731 833c 1cb2 0235
00000030: 349e b93d 08c7 e53c 9e9c 0e3d 8bcb 3337

vae_encoder1.encoder1.0.0.weight f4 [16, 906]
-0.0120693715 -0.013504439 -0.02535086 0.011823117 0.03225241 -0.062098686 -0.024469225 0.010870455
-0.032754865 0.019585744 0.037640207 -0.040127512 -0.02361728 0.014525213 0.018058764 0.09870468
0.027393661 -0.01373233 0.015342289 0.026226126 -0.010686145 0.018420054 0.065029755 0.0023894655
0.02560263 -0.083920926 0.050253354 0.055066373 -0.05696923 -0.009837661 -0.03416699 0.008917147
0.020813875 -0.08056553 0.042311843 0.0030487743 0.018529646 0.00572133 0.018446177 -0.020265725
0.002298966 0.029288715 0.07632742 0.06469541 -0.0031153876 0.05301843 0.027031897 0.017198028
0.052444644 0.02275017 -0.051580444 0.050028738 0.027839871 0.028247233 0.024300039 0.023403345
0.052538592 0.020793065 0.059180483 -0.076841876 -0.013494195 0.019279277 0.014563205 0.024335828
-0.020182027 0.06368021 -0.024748856 0.06422685 -0.0300956 0.021002557 -0.021360189 0.0075772014
-0.014764567 -0.0056382027 0.02453498 -0.023105303 0.036706444 0.06975519 0.03254073 -0.062065575
0.016026754 0.0040106303 -0.009264976 -0.02789306 0.023882814 -0.08890248 0.0038320823 -0.0017553848
0.0022724406 0.0041996506 0.000102696984 0.043594643 0.08461015 -0.014564702 0.013517199 0.0064144973
-0.008892631 0.02063497 -0.019760994 0.024875624 -0.028701015 0.016511396 -0.0019086543 0.037569616
0.031901628 -0.0048297406 -0.010779398 0.06451125 -0.002282416 0.014490974 -0.012870079 0.020267526
-0.038114667 0.054979376 0.005643966 -0.005124414 0.03788993 -0.029873068 0.01512895 -0.023354964
0.008058045 -0.02934581 0.012754448 0.08627729 -0.022505784 -0.0039830767 0.004618438 0.0076138047
-0.021705145 0.02428889 -0.011073171 0.0047565205 0.023171837 -0.023254132 -0.035075378 0.043121967
0.049887877 -0.069885164 -0.00499281 0.0168982 0.022830864 0.032584418 -0.020382449 -0.0046203756
-0.023953905 0.0352286 0.02290275 0.05205467 0.023433171 -0.01540396 0.012529043 0.040048696
-0.012075152 -0.019910673 -0.0427024 0.0076824334 0.02734275 -0.0018844478 -0.0022813226 -0.022366412
-0.004466676 0.013329043 -0.019597305 0.008191916 0.033123408 0.01111981 0.01700517 0.03298206
0.010448282 0.010445298 0.014408101 0.03244211 -0.009583704 -0.02043239 0.026369607 0.031118846
-0.0041432153 0.021996278 0.02185193 0.006624996 0.02254929 0.026893843 -0.00085917563 -0.017834881
-0.020145433 0.023290012 -0.023094555 -0.0033140893 0.012031987 0.0152884945 -0.016853254 0.026222602
-0.013273063 -0.012821265 -0.029231884 0.029380852 -0.02850471 -0.025350444 -0.020516952 0.018407088
0.010087248 -0.030508868 -0.016925162 0.018880295 -0.026999315 0.0056503094 -0.023597023 0.030552644
-0.030113779 0.023207078 -0.017945895 -0.010030613 0.0063275155 0.019128164 -0.013557156 -0.022285992
-0.009344138 0.027951667 -0.020998472 0.007479735 0.02193253 0.007541168 0.026982892 0.0031142829
0.0060598683 -0.006293808 -0.005477209 -0.014943808 -0.0043994817 0.019066004 -0.024387699 0.0066729845
-0.008781361 0.0092589995 -0.026984928 -0.01442741 -0.01615423 0.006109413 -0.00016185094 -0.012532019
0.0035286755 -0.033568233 -0.0173348 -0.02514158 0.028944325 -0.01607026 -0.01795778 0.009968412
-0.018450916 0.01550696 0.01211753 0.020925768 0.007151528 -0.025893709 -0.0038303402 0.025735302
00000000: 9dbe 45bc b941 5dbc 9bac cfbc bfb5 413c
00000010: 1a1b 043d 315b 7ebd af73 c8bc fe19 323c
00000020: f729 06bd 4872 a03c 9e2c 1a3d bf5c 24bd
00000030: 0779 c1bc 29fb 6d3c f9ef 933c ae25 ca3d
00000040: ac68 e03c 91fd 60bc 395e 7b3c 2cd8 d63c
00000050: f114 2fbc a7e5 963c 522e 853d 9498 1c3b
00000060: 9bbc d13c bcde abbd 76d6 4d3d 478d 613d
00000070: 9158 69bd 242e 21bc b0f2 0bbd 3a19 123c
00000080: dc81 aa3c 8aff a4bd 2f4f 2d3d f2cd 473b
00000090: 7ccb 973c ff79 bb3b 701c 973c 4e04 a6bc
000000a0: 40aa 163b e3ee ef3c 8d51 9c3d 077f 843d
000000b0: 882b 4cbb da29 593d ff71 dd3c e1e2 8c3c
000000c0: 32d0 563d 915e ba3c 0446 53bd efea 4c3d
000000d0: 7110 e43c be66 e73c e010 c73c 5fb8 bf3c
000000e0: b532 573d 3856 aa3c 3c67 723d 465f 9dbd
000000f0: c216 5dbc 93ef 9d3c 829a 6e3c ee5b c73c
00000100: c754 a5bc c56a 823d 1dbe cabc 5e89 833d
00000110: 0c8b f6bc 8e0d ac3c 90fb aebc 2c4a f83b
00000120: 15e7 71bc acc0 b8bb 95fd c83c 5547 bdbc
00000130: 7f59 163d cfdb 8e3d 6e49 053d 7938 7ebd
00000140: 8a4a 833c 9b6b 833b 20cc 17bc fd7f e4bc
00000150: e4a5 c33c 8112 b6bd ac23 7b3b f114 e6ba
00000160: 3aed 143b 399d 893b 065f d738 4c90 323d
00000170: 1648 ad3d caa0 6ebc 3e77 5d3c b430 d23b
00000180: 66b2 11bc ab0a a93c cfe1 a1bc f7c7 cb3c
00000190: 641e ebbc e842 873c d02b faba 99e2 193d
000001a0: 48ab 023d cd42 9ebb 129c 30bc 791e 843d
000001b0: 9694 15bb 8d6b 6d3c 06dd 52bc 1508 a63c
000001c0: 201e 1cbd 0e32 613d 05f1 b83b b3ea a7bb
000001d0: 7932 1b3d 5db8 f4bc 6adf 773c e952 bfbc
000001e0: e405 043c a066 f0bc 08f8 503c 26b2 b03d
000001f0: 0d5e b8bc 7884 82bb 4456 973b 397d f93b
00000200: fdce b1bc 7ff9 c63c 3f6c 35bc 96dc 9b3b
00000210: ddd2 bd3c 737f bebc 33ab 0fbd a9a0 303d
00000220: 3b57 4c3d f41f 8fbd ba9a a3bb 186e 8a3c
00000230: cb07 bb3c 3d77 053d 18f9 a6bc 8566 97bb
00000240: fb3a c4bc dd4b 103d 8c9e bb3c 4737 553d
00000250: ecf6 bf3c e460 7cbc 9d46 4d3c 1a0a 243d
00000260: dcd6 45bc b51b a3bc b6e8 2ebd ecbc fb3b
00000270: e7fd df3c 93ff f6ba 3e82 15bb c439 b7bc
00000280: 325d 92bb 0f62 5a3c 878a a0bc 6337 063c
00000290: 69ac 073d dd2f 363c 6d4e 8b3c 3218 073d
000002a0: 452f 2b3c c122 2b3c f50f 6c3c 05e2 043d
000002b0: f804 1dbc d461 a7bc 1305 d83c f3ec fe3c
000002c0: cfc3 87bb 8a31 b43c d202 b33c 7f16 d93b
000002d0: 4ab9 b83c 7a50 dc3c 4d3a 61ba 751a 92bc
000002e0: 0908 a5bc b2ca be3c cb30 bdbc 3131 59bb
000002f0: d021 453c 987c 7a3c d60f 8abc c8d0 d63c
00000300: 4377 59bc 4810 52bc b477 efbc 1db0 f03c
00000310: b682 e9bc bcab cfbc 2b13 a8bc 76ca 963c
00000320: fc44 253c bced f9bc a3a6 8abc d9aa 9a3c
00000330: ab2d ddbc 3b26 b93b 8b4e c1bc 8a49 fa3c
00000340: 2cb1 f6bc c51c be3c 4503 93bc 7157 24bc
00000350: 0c57 cf3b abb2 9c3c d51e 5ebc 1d91 b6bc
00000360: 2818 19bc e5fa e43c fd04 acbc 9118 f53b
00000370: d9ab b33c e71b f73b 3a0b dd3c ff18 4c3b
00000380: dc91 c63b 4a3c cebb 297a b3bb e0d6 74bc
00000390: 8729 90bb 4f30 9c3c b6c8 c7bc 0da9 da3b
000003a0: b3df 0fbc 0fb3 173c 7f0f ddbc f260 6cbc
000003b0: e055 84bc 7931 c83b 88b6 29b9 1953 4dbc
000003c0: 5a41 673b d87e 09bd b601 8ebc b7f5 cdbc
000003d0: a61c ed3c c7a5 83bc 321c 93bc 8d52 233c
000003e0: 6026 97bc e810 7e3c 9b88 463c 846c ab3c
000003f0: 5d57 ea3b 0b1f d4bc 7206 7bbb d7d2 d23c

vae_encoder1.encoder1.0.0.bias f4 [16]
0.07022397 -0.008661176 0.014379545 0.0568598 0.08080392 -0.023818113 0.019110862 -0.032084312
0.01781653 -0.013310688 0.022297313 -0.007888261 -0.026558965 -0.018592523 -0.020772174 0.01918266
00000000: 96d1 8f3d 9be7 0dbc 2f98 6b3c d2e5 683d
00000010: 877c a53d 341e c3bc 628e 9c3c d76a 03bd
00000020: f9f3 913c 1215 5abc dba8 b63c c43d 01bc
00000030: 3092 d9bc 594f 98bc 682a aabc f424 9d3c

vae_encoder1.encoder2.0.0.weight f4 [32, 16]
0.1751917 -0.012311462 -0.097376734 0.101418436 -0.07812374 -0.021802628 0.22550681 -0.18913582
0.07584934 0.16495736 0.18421909 0.13489187 0.21102925 0.056352533 0.1958073 0.015753292
0.051159687 -0.23665518 0.16993774 0.16447575 0.022351509 -0.0033796404 0.1547654 0.18264943
0.15732151 -0.12819304 -0.08252553 -0.17641813 -0.18937743 -0.026938591 -0.12693702 -0.13026494
-0.18889773 0.087274686 0.22737567 -0.029873941 -0.20618783 -0.23295963 -0.18540591 0.15426241
-0.07243042 0.12391901 0.0933779 0.1580344 -0.07180862 0.07971285 -0.12715721 -0.0889592
-0.151421 -0.11690299 -0.23214197 -0.0010376634 -0.17111854 0.05618238 -0.1399286 0.041231215
0.18542811 -0.10491102 0.037498515 0.24766263 -0.24692832 0.15547833 0.006459209 -0.10734627
0.10262862 0.08562082 0.20532113 -0.18582031 0.11801365 0.19866598 0.069536574 -0.14248331
-0.039903827 0.15027638 0.16416681 0.14399922 0.1148302 -0.27614143 -0.049017023 0.01913467
-0.0025181833 -0.21919744 0.024266712 -0.042954624 0.08228809 -0.009309614 0.015180705 0.08347075
-0.06637129 -0.13443671 0.058765404 -0.21923143 0.044592828 -0.022980157 0.21242894 0.04905769
-0.164105 -0.19229256 -0.22599936 -0.16690756 -0.04219605 0.19605349 -0.19552025 -0.16738859
0.06574112 0.13837944 -0.23293726 -0.043181416 0.25669357 -0.061723463 0.22366543 0.16029206
-0.06922745 -0.14562622 0.16360608 -0.18798909 0.21009138 0.23599155 0.07681686 -0.10938785
0.022407722 -0.23412961 0.0069337543 -0.16955024 -0.07597282 -0.05901166 -0.11095456 -0.052873317
0.0054915138 0.13127863 0.088867925 0.009382745 0.101168506 -0.07367438 0.07186761 -0.12847446
-0.04057781 0.045094237 0.16698459 -0.13558903 -0.20582135 0.07360178 0.24025725 -0.12945436
0.21889606 -0.21407077 -0.117296256 0.19036913 0.029314997 0.06363673 -0.1276294 -0.081149384
-0.010938692 -0.048026215 -0.039126348 0.10588361 -0.07945058 0.22199923 0.21652824 0.25234506
-0.09361339 0.2283562 0.18132472 -0.048769217 0.109950066 -0.070160516 -0.14009006 -0.18427396
-0.03746092 0.16015925 -0.07398415 -0.197338 0.20052767 -0.09158938 -0.025551006 0.2338193
-0.12349239 0.15606768 0.082476154 0.14770526 -0.17768908 -0.086336955 -0.123626396 -0.1397506
-0.11093176 0.049839746 0.13084657 -0.17261896 0.09443869 0.15705088 0.027429847 -0.054341283
0.0029785612 0.117254764 0.1371 0.11055001 -0.22204585 0.059817035 -0.18399258 0.21790987
-0.196328 0.031553015 -0.01529026 0.20984292 -0.16306609 -0.21860637 0.112696566 0.09801786
-0.0712787 0.034394916 -0.030275797 0.08037131 -0.05247751 -0.121984445 0.09361849 0.19324304
0.0077274577 -0.2117497 -0.074375406 0.015379976 -0.21669498 0.14663379 -0.1312405 -0.08729817
0.1556682 -0.16568086 -0.0771129 -0.11155411 0.20960778 -0.17760871 -0.014878737 0.17852728
-0.030133687 -0.17349684 -0.10040515 0.030105224 -0.18164024 0.23038861 0.109541774 0.19604328
-0.11209363 0.011259055 0.086653605 -0.11806351 0.10046606 0.0101680355 0.23354927 0.1232525
0.18482496 -0.014948787 0.026093926 0.22186846 0.021489039 -0.15156533 -0.05923751 -0.06946709
00000000: 7465 333e 04b6 49bc 746d c7bd 78b4 cf3d
00000010: 57ff 9fbd 6d9b b2bc 42eb 663e d2ac 41be
00000020: e656 9b3d 95ea 283e eea3 3c3e 1821 0a3e
00000030: 0d18 583e ead1 663d b581 483e 0c0d 813c
00000040: d28c 513d bc55 72be 2904 2e3e 556c 283e
00000050: 831a b73c f57c 5dbb d27a 1e3e 7408 3b3e
00000060: e418 213e 0945 03be 2503 a9bd f4a6 34be
00000070: 28ec 41be 52ae dcbc c7fb 01be 2c64 05be
00000080: 686e 41be 12bd b23d 2bd5 683e 32ba f4bc
00000090: e722 53be f88c 6ebe 0cdb 3dbe f7f6 1d3e
000000a0: 6656 94bd 40c9 fd3d ea3c bf3d c5d3 213e
000000b0: 6610 93bd 7e40 a33d 8035 02be 3e30 b6bd
000000c0: 1b0e 1bbe d66a efbd a0b6 6dbe 3502 88ba
000000d0: b339 2fbe 7f1f 663d 7149 0fbe 10e2 283d
000000e0: dee0 3d3e 97db d6bd 0b98 193d 469b 7d3e
000000f0: c7da 7cbe b635 1f3e c6a7 d33b 5cd8 dbbd
00000100: f42e d23d f859 af3d b43f 523e ae47 3ebe
00000110: 24b1 f13d 186f 4b3e 3169 8e3d 25e7 11be
00000120: 3272 23bd 0de2 193e 581b 283e 8874 133e
00000130: 192c eb3d 6962 8dbe 13c6 48bd 50c0 9c3c
00000140: 1b08 25bb 4b75 60be fcca c63c 30f1 2fbd
00000150: a886 a83d 5a87 18bc 7eb8 783c b6f2 aa3d
00000160: aced 87bd c7a9 09be feb3 703d 347e 60be
00000170: f8a6 363d e240 bcbc f986 593e b7f0 483d
00000180: 240b 28be 57e8 44be 606c 67be d1e9 2abe
00000190: c4d5 2cbd 3fc2 483e 7636 48be ea67 2bbe
000001a0: 48a3 863d 57b3 0d3e 1b87 6ebe ffde 30bd
000001b0: 576d 833e bed1 7cbd 8d08 653e 9a23 243e
000001c0: 1fc7 8dbd 0a1f 15be 5a88 273e 3680 40be
000001d0: 3222 573e c5a7 713e 2852 9d3d bd06 e0bd
000001e0: 6690 b73c acbf 6fbe 8c34 e33b 949e 2dbe
000001f0: a397 9bbd 36b6 71bd 253c e3bd b191 58bd
00000200: 28f2 b33b e86d 063e 6300 b63d 16ba 193c
00000210: 6f31 cf3d 98e2 96bd 532f 933d cf8e 03be
00000220: eb34 26bd bcb4 383d 02fe 2a3e dad7 0abe
00000230: d5c2 52be 88bc 963d ff05 763e af8f 04be
00000240: 4a26 603e 5e35 5bbe 0539 f0bd 20f0 423e
00000250: 0126 f03c f953 823d 48b1 02be a631 a6bd
00000260: 3338 33bc 23b7 44bd f342 20bd 82d9 d83d
00000270: fcb6 a2bd c453 633e 94b9 5d3e 5f33 813e
00000280: 61b8 bfbd 35d6 693e 30ad 393e 3bc2 47bd
00000290: 802d e13d 51b0 8fbd c573 0fbe 50b2 3cbe
000002a0: 9f70 19bd c900 243e 0185 97bd f912 4abe
000002b0: 2057 4d3e 3693 bbbd 5850 d1bc 546e 6f3e
000002c0: 94e9 fcbd 35d0 1f3e 42e9 a83d 0c40 173e
000002d0: 20f4 35be 6ed1 b0bd d62f fdbd c81a 0fbe
000002e0: 3130 e3bd c324 4c3d a5fc 053e 06c3 30be
000002f0: 1269 c13d f2d1 203e 8fb4 e03c f794 5ebd
00000300: f733 433b 4423 f03d f163 0c3e 0b68 e23d
00000310: fd5f 63be b502 753d 8d68 3cbe c423 5f3e
00000320: 350a 49be bc3d 013d 0084 7abc 10e1 563e
00000330: ccfa 26be 59da 5fbe 75cd e63d 96bd c83d
00000340: 91fa 91bd afe1 0c3d f304 f8bc b799 a43d
00000350: a8f2 56bd fbd2 f9bd 0dbb bf3d 81e1 453e
00000360: 9d36 fd3b ead4 58be 2252 98bd 4bfc 7b3c
00000370: 4ae5 5dbe 2b27 163e e963 06be 62c9 b2bd
00000380: 7c67 1f3e 3ea8 29be 5eed 9dbd 7b76 e4bd
00000390: 6ca3 563e 0fdf 35be f2c5 73bc dbcf 363e
000003a0: ecda f6bc 28a9 31be 37a1 cdbd 3b9f f63c
000003b0: e6ff 39be feea 6b3e 7057 e03d 92bf 483e
000003c0: 5891 e5bd e677 383c 7277 b13d 48cb f1bd
000003d0: 26c1 cd3d d597 263c 8a27 6f3e cf6b fc3d
000003e0: c142 3d3e c2eb 74bc eec2 d53c 7c31 633e
000003f0: c809 b03c f133 1bbe 08a3 72bd c344 8ebd

vae_encoder1.encoder2.0.0.bias f4 [32]
-0.005541213 -0.19606477 0.11453066 -0.03945094 -0.055862643 0.10669057 -0.01417665 -0.21851166
-0.1452222 -0.1578244 0.14103687 -0.10804229 -0.04387159 0.08331206 0.011481671 0.04182718
-0.018845111 -0.009315865 0.067925975 -0.18570063 -0.020165062 0.07208176 -0.2803205 -0.07939844
-0.21100718 -0.019058052 -0.11811082 0.069267996 0.07634335 -0.15849815 0.19822843 0.110149525
00000000: 1093 b5bb 34c5 48be 0d8f ea3d 4f97 21bd
00000010: 3ad0 64bd 9680 da3d 2e45 68bc 85c1 5fbe
00000020: 21b5 14be b89c 21be f86b 103e 4745 ddbd
00000030: b2b2 33bd 839f aa3d 9e1d 3c3c fa52 2b3d
00000040: 1061 9abc 92a1 18bc c61c 8b3d 4e28 3ebe
00000050: 3331 a5bc 9a9f 933d 2b86 8fbe a69b a2bd
00000060: 4412 58be a21f 9cbc 16e4 f1bd 61dc 8d3d
00000070: e759 9c3d 574d 22be 65fc 4a3e 1396 e13d

vae_encoder1.encoder2.1.0.weight f4 [64, 32]
0.054272674 0.0075105117 -0.07280682 -0.085509546 0.10658594 -0.05832052 -0.0039413376 -0.12700707
0.0896024 -0.15200599 -0.0537151 -0.11161658 0.01685186 0.073786564 -0.15594608 -0.17982167
0.051557053 -0.04188709 0.032491677 0.106481135 -0.15643483 0.0007404923 0.0007719386 0.0015048044
0.0832131 -0.11634576 0.116937675 -0.09762481 -0.0019775764 0.15370844 -0.13006537 -0.16086961
0.014550823 -0.09692071 -0.07754582 -0.03586085 0.058841456 -0.05042318 0.008559958 -0.005605476
0.06983477 -0.096489936 -0.042877495 -0.094043635 -0.10568251 -0.061179556 0.005528512 -0.1025992
-0.013300512 0.005871203 -0.08134483 -0.11226892 0.020050952 0.032537706 -0.0041214447 -0.09841277
-0.021559734 0.050616715 0.020892512 -0.024107516 -0.011378757 0.023996992 0.027166246 -0.055922262
-0.07829286 -0.13858572 -0.046220664 0.09652876 -0.11072288 -0.1555186 0.13335244 0.004198537
0.04485 0.023939233 -0.01908511 -0.058262233 0.05171799 0.0230622 0.10349585 -0.09777841
-0.13715214 0.035985485 -0.104192965 0.0018547735 -0.0453103 0.045972407 -0.117249675 0.030088542
-0.107366554 -0.015700916 0.09933653 -0.11353964 0.01856791 0.11897311 -0.031611655 -0.07969257
-0.13883515 0.024830997 0.03018659 0.0716199 -0.07545224 -0.049584355 -0.17765553 0.123594046
0.06343149 -0.025242245 0.06768285 -0.031530876 -0.10741709 -0.070014454 -0.13696177 0.10023431
0.049742486 -0.023612801 -0.092819065 0.081002384 0.0075497096 -0.017232662 -0.14228824 -0.040343683
0.12333043 0.05959653 0.002117878 0.10307622 -0.114920616 0.08082402 -0.16471292 0.013306179
-0.0071430597 0.0646454 -0.10781345 0.07977103 -0.045431055 -0.11000687 -0.11121115 -0.10760955
-0.09425953 -0.08783763 -0.04615906 -0.02758396 -0.056151245 -0.085469246 -0.06360288 -0.130446
-0.0072377613 -0.0029463097 0.008446255 -0.11311262 0.07544283 0.04358652 0.17962459 -0.09399184
-0.054611597 -0.12974767 -0.12113215 -0.14814943 0.0687746 -0.05876775 -0.015052256 0.03957896
0.04605806 -0.07023385 -0.036401954 -0.14599006 -0.18648185 0.030405374 0.08610501 0.09908971
-0.051708765 -0.0056179133 -0.13563552 -0.10052358 -0.13774644 -0.03506626 -0.16417272 -0.0045798863
-0.11050028 0.04329824 -0.11808081 -0.08582664 -0.029084086 0.060818277 -0.05112984 0.02841738
-0.049199335 -0.06621552 0.032674532 0.12408204 -0.10107609 -0.15278326 0.08313506 0.05926099
-0.19556159 -0.049906477 -0.0294192 -0.06899211 0.115634106 -0.08293076 -0.15791488 -0.15541212
0.13340984 -0.036798306 -0.17706744 0.027576959 -0.0033048606 -0.20980604 -0.055507734 -0.14442453
-0.018525759 -0.16162331 -0.09367068 0.13904862 -0.13356957 0.124306746 -0.09005135 -0.14772746
-0.03951188 -0.02013307 0.09270709 -0.033899225 -0.01800784 0.14682613 -0.18293628 -0.22688276
0.015944153 -0.0006458537 -0.032823976 -0.15178385 -0.04307872 -0.09548286 -0.10347501 0.0054394607
-0.10321471 -0.09372879 0.0100567695 0.07549868 0.023052076 0.024498874 0.17913924 -0.018646045
-0.105570145 0.071102224 -0.03600333 0.18586008 0.07989356 -0.0475053 -0.13258953 -0.15977699
0.072517686 -0.0755345 -0.11138748 0.07440676 -0.026248565 0.11648799 0.05950707 -0.06413188
00000000: 064d 5e3d bd1a f63b be1b 95bd a11f afbd
00000010: bb49 da3d 7fe1 6ebd 5626 81bb 240e 02be
00000020: 7781 b73d 75a7 1bbe 5d04 5cbd 3c97 e4bd
00000030: e90c 8a3c 691d 973d 54b0 1fbe 2c23 38be
00000040: 7d2d 533d cc91 2bbd fe15 053d c812 da3d
00000050: 7430 20be 991d 423a ec5b 4a3a db3c c53a
00000060: a16b aa3d b046 eebd 057d ef3d 84ef c7bd
00000070: 3a9a 01bb bf65 1d3e db2f 05be 01bb 24be
00000080: 9366 6e3c 5d7e c6bd 58d0 9ebd d4e2 12bd
00000090: bd03 713d 8988 4ebd 113f 0c3c 24ae b7bb
000000a0: 8805 8f3d 849c c5bd 50a0 2fbd f399 c0bd
000000b0: 1270 d8bd 6a97 7abd 8528 b53b 881f d2bd
000000c0: 64ea 59bc 3863 c03b 1e98 a6bd 3fed e5bd
000000d0: e541 a43c 4246 053d 2f0d 87bb a28c c9bd
000000e0: 0a9e b0bc 7953 4f3d c626 ab3c 207d c5bc
000000f0: f76d 3abc 5795 c43c bf8b de3c be0e 65bd
00000100: 0258 a0bd 6ae9 0dbe e151 3dbd dfb0 c53d
00000110: adc2 e2bd 4540 1fbe 8b8d 083e e293 893b
00000120: a2b4 373d 361c c43c 6058 9cbc 61a4 6ebd
00000130: 3ed6 533d f0ec bc3c a2f5 d33d 0c40 c8bd
00000140: 9c71 0cbe 8465 133d 1f63 d5bd df1b f33a
00000150: 4b97 39bd 904d 3c3d 9920 f0bd 3f7c f63c
00000160: ffe2 dbbd 359f 80bc f370 cb3d 7987 e8bd
00000170: bb1b 983c 2da8 f33d 397b 01bd dc35 a3bd
00000180: cd2a 0ebe 606a cb3c de49 f73c 74ad 923d
00000190: b486 9abd f718 4bbd 55eb 35be e01e fd3d
000001a0: 5ee8 813d d3c8 cebc 4e9d 8a3d 8526 01bd
000001b0: 7efd dbbd bd63 8fbd b53f 0cbe a547 cd3d
000001c0: c7be 4b3d a26f c1bc ec17 bebd 94e4 a53d
000001d0: 8e63 f73b 832b 8dbc 02b4 11be 6b3f 25bd
000001e0: aa94 fc3d 7e1b 743d 19cc 0a3b a019 d33d
000001f0: 805b ebbd 1087 a53d 81aa 28be 2902 5a3c
00000200: 5410 eabb cf64 843d 4ccd dcbd fe5e a33d
00000210: ea15 3abd 484b e1bd acc2 e3bd 6562 dcbd
00000220: 240b c1bd 37e4 b3bd 4811 3dbd c2f7 e1bc
00000230: d9fe 65bd 800a afbd 3a42 82bd a393 05be
00000240: be2a edbb e016 41bb 2962 0a3c 97a7 e7bd
00000250: c581 9a3d c787 323d 82ef 373e cb7e c0bd
00000260: 69b0 5fbd 93dc 04be 2214 f8bd 7cb4 17be
00000270: b3d9 8c3d 74b6 70bd bd9d 76bc 8c1d 223d
00000280: 60a7 3c3d c4d6 8fbd 371a 15bd 6b7e 15be
00000290: 19f5 3ebe b114 f93c d357 b03d 8cef ca3d
000002a0: 92cc 53bd 7916 b8bb 0ae4 0abe 4fdf cdbd
000002b0: 670d 0dbe a3a1 0fbd e51c 28be df12 96bb
000002c0: f94d e2bd 7f59 313d 5ad4 f1bd e1c5 afbd
000002d0: c041 eebc 961c 793d 866d 51bd 91cb e83c
000002e0: 3e85 49bd 019c 87bd bbd5 053d b91e fe3d
000002f0: fb00 cfbd 3773 1cbe b742 aa3d a7bb 723d
00000300: 4c41 48be bc6a 4cbd 8900 f1bc bc4b 8dbd
00000310: 93d1 ec3d 9ad7 a9bd 70b4 21be 5b24 1fbe
00000320: 979c 083e d2b9 16bd 2b51 35be 13e9 e13c
00000330: 5c96 58bb 65d7 56be 145c 63bd 06e4 13be
00000340: 55c3 97bc 9580 25be 6ad6 bfbd c362 0e3e
00000350: 76c6 08be 8994 fe3d d86c b8bd de45 17be
00000360: 36d7 21bd 1cee a4bc 37dd bd3d ead9 0abd
00000370: 2d85 93bc 9759 163e a653 3bbe f453 68be
00000380: 509d 823c 824e 29ba 6f72 06bd 3a6d 1bbe
00000390: 5073 30bd 858c c3bd b5ea d3bd 813d b23b
000003a0: 3c62 d3bd e1f4 bfbd 26c5 243c 0d9f 9a3d
000003b0: b5d7 bc3c ddb1 c83c 4770 373e 97bf 98bc
000003c0: 2935 d8bd 0b9e 913d 3a78 13bd 1b52 3e3e
000003d0: 3c9f a33d eb94 42bd 8dc5 07be 949c 23be
000003e0: 2784 943d d5b1 9abd 1e1f e4bd 9262 983d
000003f0: 3b07 d7bc 4191 ee3d afbd 733d 9357 83bd

vae_encoder1.encoder2.1.0.bias f4 [64]
-0.036022652 -0.0055455114 -0.05999459 -0.028797178 0.00054459035 -0.08108589 -0.047653582 -0.14434165
0.008167434 -0.08935171 -0.10280556 -0.16625139 -0.1963928 -0.10798295 -0.11752614 -0.0869545
-0.12722088 -0.005415724 -0.09424325 -0.0048782 -0.1030728 -0.12228975 -0.07387272 0.051776167
-0.18049435 -0.15519969 -0.0029828455 -0.13006672 -0.07517809 -0.18777423 -0.005009263 -0.13953325
-0.03861282 -0.12212977 -0.09540665 -0.045574814 -0.014177251 -0.061553434 -0.044662084 -0.039655395
-0.18178362 -0.107324146 -0.1880459 -0.14779298 -0.10535411 -0.1526777 -0.06448977 -0.074062526
-0.07016258 0.008397359 0.0011815081 -0.021572342 -0.10230976 -0.009963885 0.039087486 -0.02024097
0.010761444 -0.081507444 -0.17301603 -0.013328986 -0.09518046 0.03258075 -0.024181882 0.026034474
00000000: 7d8c 13bd 1fb7 b5bb e3bc 75bd 0fe8 ebbc
00000010: d7c2 0e3a 5c10 a6bd 6730 43bd 4cce 13be
00000020: b3d0 053c 08fe b6bd b98b d2bd ce3d 2abe
00000030: 321b 49be 2a26 ddbd 8bb1 f0bd 3315 b2bd
00000040: 3146 02be 6376 b1bb 9b02 c1bd 4fd9 9fbb
00000050: d517 d3bd 0c73 fabd 954a 97bd 3f13 543d
00000060: 83d3 38be abec 1ebe d87b 43bb 3630 05be
00000070: f8f6 99bd e347 40be be24 a4bb cee1 0ebe
00000080: 7a28 1ebd 2c1f fabd 9064 c3bd a8ac 3abd
00000090: b347 68bc 741f 7cbd 97ef 36bd b26d 22bd
000000a0: 7c25 3abe c3cc dbbd 1b8f 40be 0b57 17be
000000b0: e5c3 d7bd 8b57 1cbe 3613 84bd 18ae 97bd
000000c0: 66b1 8fbd 1495 093c d5dc 9a3a 7bb8 b0bc
000000d0: c887 d1bd 903f 23bc 331a 203d 64d0 a5bc
000000e0: c550 303c 60ed a6bd 1d2b 31be d261 5abc
000000f0: f9ed c2bd 6473 053d 1519 c6bc 4046 d53c

vae_encoder1.fc_mu.weight f4 [28, 64]
0.015308772 -0.029686244 -0.024318231 -0.05775161 -0.006373649 -0.085707545 0.0014976792 0.048904207
0.0052953977 -0.030818652 -0.053097613 -0.05577665 -0.047962632 -0.005166266 -0.024730513 -0.030874819
-0.048700586 -0.009740709 -0.05119167 -0.04973281 -0.047154736 -0.08575853 -0.015322458 0.014384017
-0.050603397 -0.063743636 -0.0488028 0.070114814 0.031418912 -0.0076516713 -0.0017308542 -0.00040297827
-0.07772765 -0.039336864 0.02113066 -0.020621337 -0.024001032 -0.008102491 0.027276168 0.009904207
-0.042919796 0.0698869 0.12164648 0.009556957 -0.0005363342 -0.09648586 -0.053647403 0.05010521
0.06327051 0.040736906 -0.017113527 0.058868516 -0.0061952244 -0.029508194 0.0029471887 -0.023882275
-0.049831897 -0.040954586 -0.03019401 -0.040606264 0.0017459566 -0.0007168918 -0.036355134 -0.011248834
-0.05650845 0.059341867 0.06534634 0.027540023 0.02809839 0.08054148 -0.053098988 0.051932056
0.010379434 -0.015021809 0.033021312 0.03845312 -0.008099139 0.07061405 0.03302041 -0.08634897
-0.094961606 0.047075506 -0.036479834 0.029309927 -0.018951006 0.046503797 0.07652707 -0.010761713
0.07351364 0.022073405 -0.05748941 -0.059412934 -0.09697975 -0.054934904 0.012468284 -0.07344527
0.0010135688 -0.06171141 0.03622773 -0.048344824 -0.047883417 -0.017392237 -0.013314156 0.022407603
-0.0049127755 0.056153264 -0.008212713 0.08490978 0.066591874 -0.04097957 0.017924365 -0.0013662191
0.09525558 0.03442313 -0.049855266 -0.0065071266 0.07745937 0.025728324 0.002332737 0.03495439
0.033622567 -0.043206085 -0.009886367 0.05007486 -0.051815264 0.0069894628 -0.0053914553 0.021710712
-0.052263055 0.001178529 -0.0829305 0.048771054 -0.014511488 -0.020886527 0.017892726 0.020951662
0.010804305 -0.078837655 -0.039411638 0.031326458 -0.03477965 -0.0030420085 0.04757245 0.0002520479
0.0020237735 0.011105074 0.027211705 0.014596165 0.08043488 -0.01440595 0.048774954 -0.0212328
0.0063955085 0.09754238 0.081232935 -0.011670643 0.07019411 0.03227146 0.0022005022 -0.06442287
0.05758505 0.036449425 0.093033016 -0.045600142 0.009930677 -0.029850192 -0.039182816 0.013617703
0.023371017 0.007748301 -0.0029462958 0.053016853 -0.053671535 0.0416778 -0.086268686 -0.08773285
0.03292996 0.036987916 -0.0031368067 0.055372514 0.06802533 0.01633417 -9.83723e-05 0.005771179
-0.06904449 0.01733229 0.041488197 0.052151863 0.07010643 -0.015332299 0.007373907 0.0032421935
0.034053996 0.00821576 0.01478632 -0.087453105 0.02105391 -0.060431473 0.025994707 0.047097776
0.04143188 -0.06391604 0.02038038 -0.017164756 0.054957487 0.049058463 0.021183584 -0.06944848
0.0449704 0.038352974 0.06011743 -0.010180534 0.039529968 -0.01670347 -0.08692765 0.018162126
0.006453189 -0.04969102 0.07698607 0.03470584 -0.08495736 0.00333205 0.0130945 0.016039727
0.010571198 -0.022761362 -0.08223517 0.03316683 -0.037408695 -0.03152197 0.07731872 0.008154698
-0.08380038 0.0130045 0.06296368 -0.05247649 -0.025124561 -0.09723363 0.0597769 0.020905424
-0.027441517 0.0061941515 -0.035150122 -0.09451071 0.09633542 0.012991587 -0.0011092607 0.018524684
0.07444835 0.046189692 -0.002880648 -0.084653504 4.127161e-05 0.01986958 -0.030257085 -0.012558101
00000000: a5d1 7a3c 9130 f3bc 0737 c7bc f48c 6cbd
00000010: 0bda d0bb 7087 afbd c64d c43a c74f 483d
00000020: 0485 ad3b 6677 fcbc e27c 59bd 0e76 64bd
00000030: 7774 44bd c849 a9bb a597 cabc 30ed fcbc
00000040: 447a 47bd 7f97 1fbc 5bae 51bd a2b4 4bbd
00000050: 5325 41bd 2ba2 afbd 0c0b 7bbc f1aa 6b3c
00000060: 8245 4fbd 068c 82bd 72e5 47bd 5b98 8f3d
00000070: 1eb1 003d dfba fabb d4dd e2ba d446 d3b9
00000080: ad2f 9fbd b11f 21bd 351a ad3c 14ee a8bc
00000090: d09d c4bc 4fc0 04bc 4572 df3c 4145 223c
000000a0: abcc 2fbd dd20 8f3d ca21 f93d c894 1c3c
000000b0: c798 0cba 619a c5bd 61bd 5bbd 1f3b 4d3d
000000c0: f893 813d bedb 263d ab31 8cbc 1d20 713d
000000d0: 4f01 cbbb 2bbb f1bc 9f25 413b c3a4 c3bc
000000e0: 881c 4cbd ffbf 27bd 6e59 f7bc c152 26bd
000000f0: 95d8 e43a cbed 3bba 1fe9 14bd 084d 38bc
00000100: 6875 67bd 7510 733d 4dd4 853d 9d9b e13c
00000110: 982e e63c eef2 a43d 537e 59bd b5b6 543d
00000120: 800e 2a3c 091e 76bc 5b41 073d 0581 1d3d
00000130: 40b2 04bc 199e 903d 6940 073d bbd7 b0bd
00000140: 3b7b c2bd 3fd2 403d e16b 15bd 5f1b f03c
00000150: 243f 9bbc c47a 3e3d 39ba 9c3d e551 30bc
00000160: 528e 963d 49d3 b43c 047a 6bbd fa5a 73bd
00000170: 529d c6bd 6c03 61bd c647 4c3c 796a 96bd
00000180: bad9 843a 1ac5 7cbd 8763 143d 3905 46bd
00000190: 6721 44bd 2a7a 8ebc 9e23 5abc 2690 b73c
000001a0: 59fb a0bb f700 663d 9d8e 06bc 2ee5 ad3d
000001b0: 5261 883d 32da 27bd 1ed6 923c b512 b3ba
000001c0: 5c15 c33d 45ff 0c3d 0935 4cbd bc39 d5bb
000001d0: 05a3 9e3d 35c4 d23c d5e0 183b 562c 0f3d
000001e0: d1b7 093d ddf8 30bd 6efa 21bc 4c1b 4d3d
000001f0: 3e3c 54bd dd07 e53b ceaa b0bb aada b13c
00000200: c911 56bd df78 9a3a 77d7 a9bd 28c4 473d
00000210: 98c1 6dbc 391a abbc c493 923c d2a2 ab3c
00000220: 8a04 313c a375 a1bd 196e 21bd 2c50 003d
00000230: 1b75 0ebd 6f5c 47bb 54db 423d 4c25 8439
00000240: 49a1 043b 0ef2 353c 15eb de3c c124 6f3c
00000250: 0bbb a43d ef06 6cbc 3fc8 473d 69f0 adbc
00000260: 6a91 d13b 4dc4 c73d 745d a63d 3a36 3fbc
00000270: eec1 8f3d 142f 043d 4d36 103b 23f0 83bd
00000280: 4dde 6b3d fe4b 153d 1888 be3d 37c7 3abd
00000290: 47b4 223c 6488 f4bc 297e 20bd c91c 5f3c
000002a0: 9374 bf3c 76e5 fd3b a416 41bb 3328 593d
000002b0: afd6 5bbd 57b6 2a3d a3ad b0bd 48ad b3bd
000002c0: 91e1 063d a480 173d e292 4dbb 4ace 623d
000002d0: dd50 8b3d 3dcf 853c 3a4d ceb8 291c bd3b
000002e0: 3367 8dbd 72fc 8d3c 87ef 293d 319d 553d
000002f0: f693 8f3d 5334 7bbc d1a0 f13b fb7a 543b
00000300: 347c 0b3d 659b 063c 5242 723c 9d1a b3bd
00000310: 4079 ac3c fe86 77bd daf2 d43c 99e9 403d
00000320: 7ab4 293d 6ae6 82bd c1f4 a63c 1a9d 8cbc
00000330: 1a1b 613d 87f1 483d 3289 ad3c 013b 8ebd
00000340: e232 383d 0218 1d3d b23d 763d 41cc 26bc
00000350: 2dea 213d b7d5 88bc 2007 b2bd bdc8 943c
00000360: 4675 d33b d088 4bbd dfaa 9d3d b627 0e3d
00000370: 20fe adbd 865e 5a3b 508a 563c bf65 833c
00000380: d132 2d3c 0976 babc ea6a a8bd f1d9 073d
00000390: dc39 19bd 2e1d 01bd 4759 9e3d 489b 053c
000003a0: 899f abbd d410 553c 1af3 803d 97f1 56bd
000003b0: 06d2 cdbc 6d22 c7bd 9fd8 743d da41 ab3c
000003c0: 08cd e0bc 4ff8 ca3b 93f9 0fbd d58e c1bd
000003d0: 814b c53d aada 543c 9d64 91ba 14c1 973c
000003e0: 6078 983d 6731 3d3d 41c9 3cbb d15e adbd
000003f0: 0e1b 2d38 88c5 a23c b5dd f7bc 7ec0 4dbc

vae_encoder1.fc_mu.bias f4 [28]
-0.0010417827 8.241259e-05 0.0009921117 -4.9685048e-05 0.00024676626 -0.00010658241 0.00011873938 0.00044447737
0.0005791727 0.00016811017 0.0008202593 0.00038090785 -0.0008227279 -8.5595864e-05 0.0005949252 -0.00032838888
-8.760555e-06 0.0005068818 3.1829015e-06 4.7150796e-05 0.00039460455 7.638727e-05 2.5249166e-05 -0.00015924734
-0.00036171917 0.00038541114 -0.00020479805 -0.0008000064
00000000: 6d8c 88ba ecd4 ac38 bf09 823a ea64 50b8
00000010: 6860 8139 ff84 dfb8 b803 f938 be08 e939
00000020: 9fd3 173a bb46 3039 ab06 573a 96b4 c739
00000030: 56ac 57ba ee81 b3b8 c1f4 1b3a 9c2b acb9
00000040: 4cfa 12b7 43e0 043a d599 5536 c8c3 4538
00000050: ede2 ce39 1a32 a038 2cce d337 a2fb 26b9
00000060: 20a5 bdb9 0211 ca39 0fbf 56b9 85b7 51ba

vae_encoder1.fc_var.weight f4 [28, 64]
0.039844234 -0.01849113 0.007176773 0.03785194 0.0072575333 0.074322335 -0.03238077 -0.037753265
-0.0021242555 0.08141202 -0.0059064194 0.026107067 -0.113649584 0.01979596 0.024578443 -0.01532324
0.026907315 0.0038207143 0.0013757969 -0.06670377 0.07691513 -0.0739819 -0.090170585 0.004460407
-0.053614534 0.08508892 0.009771332 -0.03653118 -0.063175075 -0.040215325 -0.00067681004 -0.07825379
0.0054320935 0.089183465 -0.0511874 0.028465409 0.023162564 -0.0015836158 -0.084340915 0.0013285003
-0.06704989 -0.062620915 -0.09286577 0.045316167 0.08667381 0.06774958 0.07566883 -0.039746974
0.088645436 -0.002964732 -0.002116324 0.04773549 0.04665518 0.04366022 -0.0015482943 -0.03448715
-0.059564155 -0.061640963 0.018534105 0.026107952 0.028451562 -0.00142678 -0.021588756 0.006199266
0.096188515 0.065021574 -0.015549824 -0.07264665 0.014431598 0.03942459 -0.14705613 -0.047035225
0.04461335 0.067370065 0.050759025 -0.060609467 -0.102901004 0.038445704 -0.06323007 0.045036998
0.03681889 0.06176578 -0.03942426 -0.0093511585 -0.011527899 0.0909545 -0.09185989 0.020471942
-0.03350768 0.034907173 -0.037432816 0.034964662 0.006035662 0.07966856 0.020697286 0.032939814
-0.018012673 -0.060047854 -0.020748902 0.103026055 0.05935179 0.013941978 -0.078068376 -0.017037708
-0.06968823 0.024569806 -0.042640563 0.06531294 0.044728585 0.029197156 0.10551675 -0.0807153
0.028376093 -0.009569672 0.007237347 0.059326135 -0.018884504 0.053634193 0.0026206898 0.032684535
-0.058598846 0.024934003 -0.049818274 0.017235883 -0.0562111 -0.011063766 0.05719549 0.0004179605
0.021097457 -0.004690114 0.018375468 -0.049812872 -0.010596657 -0.032501314 0.043843567 0.022187278
-0.024397517 0.006275046 0.025719726 0.06339991 0.08595324 0.00541981 -0.085096434 0.0973177
-0.090111144 0.057321377 -0.020385502 -0.06191252 -0.011287764 0.08494364 0.09579347 0.015349761
-0.046452194 -0.07089231 -0.0724365 0.008242714 -0.060063265 0.07778046 -0.02728564 -0.06830135
-0.046423823 0.0147321755 -0.04155361 -0.11316146 -0.074219875 -0.064745806 -0.070335925 -0.0019397287
-0.033808827 -0.09463545 -0.045242857 0.04336126 0.08662898 0.06794097 -0.015887158 0.07496774
0.035601005 0.027045261 -0.056253556 -0.046764452 0.061752502 -0.08146462 -0.00083803385 0.0070437123
-0.0045396974 -0.080660395 -0.05074236 -0.05288636 -0.05983507 -0.0019629563 -0.089221336 -0.016374627
-0.035118513 0.018047478 0.01375426 0.009113085 -0.0120533295 0.0790049 0.019002749 -0.003022651
0.0004996418 0.030973056 -0.064443894 0.10572752 -0.012377331 0.030466978 0.06456314 0.056587286
0.056919556 -0.014290157 0.005652467 -0.010294317 0.10385309 -0.0040453942 0.04449111 0.0039527467
0.036195904 0.09960919 -0.0014103486 0.053665683 0.047868967 -0.09815808 0.006417507 -0.0738347
-0.021372637 0.0080627 -0.091096655 0.07838253 -0.036741722 0.0015615978 -0.01279594 -0.05788144
0.057526436 0.08082157 0.08726222 0.078766905 -0.07862582 -0.03674233 0.022240546 -0.072446585
0.06307338 0.011433035 0.05854907 -0.028965885 0.017411873 0.0010269267 2.63507e-05 -0.02555379
-0.057052307 0.072086304 0.005476019 -0.02613821 -0.07451589 3.2652657e-05 0.008226034 0.00025968903
00000000: b533 233d b67a 97bc 232b eb3b a30a 1b3d
00000010: 9ad0 ed3b 4f36 983d b3a1 04bd 2ba3 1abd
00000020: 1837 0bbb 58bb a63d a38a c1bb 7dde d53c
00000030: 1dc1 e8bd 232b a23c bb58 c93c 540e 7bbc
00000040: bb6c dc3c f364 7a3b 1554 b43a fc9b 88bd
00000050: ae85 9d3d d383 97bd 5bab b8bd 9b28 923b
00000060: ea9a 5bbd 1a43 ae3d f017 203c b8a1 15bd
00000070: ef61 81bd d3b8 24bd f46b 31ba 8643 a0bd
00000080: b4ff b13b d2a5 b63d e1a9 51bd 4a30 e93c
00000090: 6bbf bd3c 5491 cfba eeba acbd 1321 ae3a
000000a0: 7451 89bd 653f 80bd 6930 bebd 729d 393d
000000b0: 0a82 b13d 4bc0 8a3d 42f8 9a3d b9cd 22bd
000000c0: bd8b b53d f34b 42bb 06b2 0abb 4a86 433d
000000d0: 8119 3f3d 0fd5 323d 23f0 caba 6642 0dbd
000000e0: 8bf9 73bd 3c7b 7cbd d6d4 973c 58e0 d53c
000000f0: 4013 e93c cb02 bbba e7da b0bc 3623 cb3b
00000100: 7cfe c43d 082a 853d b0c4 7ebc c4c7 94bd
00000110: 8272 6c3c ae7b 213d e295 16be 02a8 40bd
00000120: 7dbc 363d 51f9 893d b2e8 4f3d a241 78bd
00000130: c3bd d2bd 3e79 1d3d c47e 81bd b778 383d
00000140: 68cf 163d 1dfe 7c3d 557b 21bd 9a35 19bc
00000150: 83df 3cbc 5a46 ba3d 0a21 bcbd c6b4 a73c
00000160: 593f 09bd d3fa 0e3d 2753 19bd 1b37 0f3d
00000170: cdc6 c53b 4529 a33d 5b8d a93c e6eb 063d
00000180: 508f 93bc bdf4 75bd 9af9 a9bc 53ff d23d
00000190: dd1a 733d e56c 643c 50e2 9fbd aa92 8bbc
000001a0: b4b8 8ebd 9e46 c93c dfa7 2ebd cac2 853d
000001b0: 5235 373d e02e ef3c 2a19 d83d 104e a5bd
000001c0: fb74 e83c 1dca 1cbc 4427 ed3b f6ff 723d
000001d0: adb3 9abc 87af 5b3d e1bf 2b3b 38e0 053d
000001e0: 5805 70bd 6542 cc3c 3f0e 4cbd 4432 8d3c
000001f0: 9c3d 66bd cc44 35bc d145 6a3d b521 db39
00000200: 93d4 ac3c 87af 99bb 2688 963c 9508 4cbd
00000210: 9a9d 2dbc 1920 05bd 5095 333d 18c2 b53c
00000220: 4ddd c7bc e79e cd3b 2db2 d23c d0d7 813d
00000230: 4108 b03d a998 b13b 0a47 aebd 814e c73d
00000240: 318c b8bd d2c9 6a3d 7fff a6bc fc97 7dbd
00000250: 50f0 38bc eef6 ad3d 5e2f c43d 907d 7b3c
00000260: a844 3ebd fd2f 91bd 9659 94bd 730c 073c
00000270: e604 76bd 5d4b 9f3d 2286 dfbc 94e1 8bbd
00000280: e826 3ebd 395f 713c 1e34 2abd 32c1 e7bd
00000290: 9700 98bd 7399 84bd 480c 90bd 7f3e feba
000002a0: 207b 0abd 3bd0 c1bd 9350 39bd 949b 313d
000002b0: 896a b13d a324 8b3d c925 82bc b088 993d
000002c0: 5cd2 113d 068e dd3c 216a 66bd 158c 3fbd
000002d0: 31f0 7c3d ecd6 a6bd 80af 5bba f1ce e63b
000002e0: bec1 94bb 4731 a5bd 39d7 4fbd 5e9f 58bd
000002f0: 9e15 75bd f1a4 00bb adb9 b6bd 1524 86bc
00000300: 6ed8 0fbd 4ed8 933c 8c59 613c 0d4f 153c
00000310: 547b 45bc 52cd a13d a7ab 9b3c ab17 46bb
00000320: 65fa 023a 35bb fd3c 29fb 83bd ac87 d83d
00000330: 4aca 4abc e295 f93c ae39 843d 12c8 673d
00000340: 7b24 693d 4321 6abc 5438 b93b 7fa9 28bc
00000350: eeb0 d43d 3a8f 84bb 4f3c 363d 0b86 813b
00000360: 2842 143d e7ff cb3d 72db b8ba 8cd0 5b3d
00000370: 4012 443d 1a07 c9bd f349 d23b a636 97bd
00000380: ab15 afbc 6a19 043c e290 babd 0587 a03d
00000390: 7d7e 16bd 87ae cc3a 10a6 51bc 1715 6dbd
000003a0: d7a0 6b3d c785 a53d 89b6 b23d 8b50 a13d
000003b0: 9306 a1bd 207f 16bd ce31 b63c e05e 94bd
000003c0: 9e2c 813d a051 3b3c 26d1 6f3d dd49 edbc
000003d0: 58a3 8e3c f199 863a b30b dd37 2f56 d1bc
000003e0: aeaf 69bd fca1 933d 2d70 b33b cd1f d6bc
000003f0: c99b 98bd 86f4 0838 7dc6 063c df26 8839

vae_encoder1.fc_var.bias f4 [28]
-0.00033561734 -0.0003023305 -0.0004629109 0.0009993353 0.00038491172 -1.240517e-05 8.402144e-05 -0.0005565682
0.000139893 0.00027767077 -0.00018465164 0.00020576718 -0.00053254055 -0.00019205178 0.0004638024 -0.0013124931
-0.00043677771 -3.8865877e-05 -0.00051635475 -4.395993e-05 0.0010635791 -0.00059949356 -0.00024196174 0.00038565774
0.0002521129 0.00044129178 0.00020176874 -0.00060601725
00000000: ccf5 afb9 1d82 9eb9 d9b2 f2b9 21fc 823a
00000010: facd c939 cd1f 50b7 ab34 b038 a9e6 11ba
00000020: 3eb0 1239 5794 9139 0c9f 41b9 35c3 5739
00000030: 319a 0bba 8261 49b9 812a f339 f607 acba
00000040: 50ff e4b9 eb03 23b8 fb5b 07ba 9e61 38b8
00000050: cb67 8b3a 5527 1dba 1cb7 7db9 1b32 ca39
00000060: 052e 8439 2e5d e739 e291 5339 21dd 1eba

vae_decoder1.decoder_input.weight f4 [64, 28]
-0.10185982 -0.07654587 -0.037728358 0.06668397 -0.1678033 -0.090587854 0.0012567361 0.22799335
-0.1121428 0.280438 -0.06335003 -0.26330465 0.18769382 0.0152067505 0.20683855 -0.18191916
0.01671412 -0.053084463 -0.030114692 -0.2549146 -0.018166374 -0.09312461 -0.22131234 -0.1495676
0.10267562 0.10148131 0.039821543 0.05154376 0.0066140955 -0.0295644 -0.07042117 0.113109596
-0.10047623 0.19249557 -0.06687701 -0.122522965 0.1334531 0.07655381 0.022257298 -0.0565827
-0.13059 0.027523067 -0.19079745 0.18234508 0.19641382 -0.020190578 0.27427045 0.05265272
-0.059068315 -0.08037244 0.21527351 -0.08054836 0.092261 0.038772628 0.18755819 0.19797657
0.21065935 -0.098484725 -0.17785813 0.05423254 0.18627845 -0.0724313 -0.106666 -0.07342245
0.16504164 -0.043003533 -0.05755526 -0.06347046 -0.22198047 0.0008407497 -0.21187404 -0.027483044
-0.051802173 -0.18572061 0.14701848 0.035347022 -0.13790697 -0.10071362 0.236234 0.090217076
-0.10815441 -0.07392318 0.12315051 0.19040775 0.252153 0.06632423 -0.22096653 -0.12250186
0.17118727 -0.12681729 0.13242973 -0.04828346 0.08747451 -0.046145696 -0.112397216 0.12827739
-0.07497778 -0.037622854 0.04034994 0.05974826 0.03826454 -0.18547387 -0.028469581 0.2046382
-0.06772712 -0.23540491 0.15506315 0.20226108 -0.25937322 -0.1089701 0.09106506 0.22620781
-0.04890401 -0.15060516 0.22336078 -0.15202208 -0.09773436 0.022282876 -0.054289337 0.1025718
-0.19693552 0.10308072 0.023198219 -0.1472559 0.1303793 0.24794693 0.24767374 0.028782034
-0.021466583 0.17721687 -0.24410707 -0.027558105 -0.09476858 0.15528116 -0.14340214 -0.07819692
-0.014468811 -0.0735733 -0.100471295 -0.17555784 0.26024303 -0.045804333 0.04978707 -0.13573411
0.21780863 0.23828946 -0.037930693 -0.14869152 0.17903203 0.021552928 0.12836993 -0.08023781
0.014615012 -0.19248746 0.0312051 -0.05840517 0.23676404 -0.26577395 0.039938692 0.083626986
-0.04025173 0.10625192 0.17234464 0.06962664 -0.1250323 -0.05683857 -0.038532168 -0.035487838
-0.012814468 -0.1006322 0.04596301 -0.09098434 -0.089817226 0.07749332 0.02230677 0.06441368
-0.060595974 -0.23374009 0.14785594 0.14626169 -0.15755698 -0.13373105 -0.2112613 0.13353261
0.110561505 0.015682444 -0.0049122223 0.06888512 0.021451892 -0.23715122 0.14706376 0.1926939
-0.24074435 -0.045222238 0.11647631 0.21969779 -0.23149313 0.16731362 0.16812946 0.033752516
-0.27794152 -0.14957787 0.027558517 0.19846228 -0.004814697 0.23294996 0.057410274 0.06770938
0.14108083 0.05737307 -0.0054819384 0.06979803 -0.2589182 0.19139077 -0.25630486 0.07744938
0.1782212 0.08857436 -0.013806766 -0.2628532 0.2527185 0.11218762 -0.12840725 -0.112230174
-0.08307078 0.21658762 -0.048082698 -0.12729222 -0.13215855 -0.18802013 -0.049915433 -0.050888665
-0.23934789 0.16374876 -0.11820737 -0.08966932 0.05900753 0.21734248 0.05975411 0.11604681
-0.21911724 0.13858622 -0.1706981 -0.15637052 -0.031098899 -0.08637524 0.003400133 0.08956031
0.17256093 0.03293316 -0.19045126 0.081601895 -0.06525065 -0.1238186 -0.14567684 -0.019082434
00000000: e29b d0bd 15c4 9cbd 0d89 1abd 9b91 883d
00000010: a1d4 2bbe 2086 b9bd 11b9 a43a 1777 693e
00000020: 20ab e5bd 9295 8f3e a9bd 81bd decf 86be
00000030: cf32 403e bc25 793c 7ccd 533e 0449 3abe
00000040: 0dec 883c 186f 59bd 16b3 f6bc 2b84 82be
00000050: a6d1 94bc 1eb8 bebd b49f 62be 4028 19be
00000060: 9847 d23d 6fd5 cf3d ea1b 233d 8d1f 533d
00000070: 0ebb d83b 0a31 f2bc f938 90bd 01a6 e73d
00000080: 7bc6 cdbd 8f1d 453e d0f6 88bd 52ed fabd
00000090: eea7 083e 3ec8 9c3d f054 b63c 43c3 67bd
000000a0: 63b9 05be 0e78 e13c 6860 43be abb8 3a3e
000000b0: b420 493e b666 a5bc 2d6d 8c3e 61aa 573d
000000c0: 9ef1 71bd 4e9a a4bd a970 5c3e 8af6 a4bd
000000d0: 56f3 bc3d 0cd0 1e3d 410f 403e 5fba 4a3e
000000e0: 16b7 573e 5cb2 c9bd 7120 36be f122 5e3d
000000f0: c7bf 3e3e dd56 94bd b473 dabd 825e 96bd
00000100: ad00 293e 7924 30bd 10bf 6bbd cdfc 81bd
00000110: d94e 63be c265 5c3a 82f5 58be 1f24 e1bc
00000120: 842e 54bd 8b2d 3ebe 038c 163e 0ac8 103d
00000130: 7c37 0dbe f142 cebd 53e7 713e bbc3 b83d
00000140: 0f80 ddbd 0965 97bd 5636 fc3d 40fa 423e
00000150: 331a 813e ffd4 873d 0d45 62be 41e2 fabd
00000160: b74b 2f3e 64dc 01be a99b 073e e1c4 45bd
00000170: d625 b33d 4503 3dbd 8330 e6bd 265b 033e
00000180: f38d 99bd 6c1a 1abd fb45 253d 97ba 743d
00000190: 47bb 1c3d ddec 3dbe 0a39 e9bc ad8c 513e
000001a0: 84b4 8abd fc0d 71be e0c8 1e3e 871d 4f3e
000001b0: 91cc 84be b72b dfbd 5180 ba3d 05a3 673e
000001c0: 924f 48bd 3d38 1abe b0b8 643e adab 1bbe
000001d0: f428 c8bd 948a b63c 7f5e 5ebd 2a11 d23d
000001e0: 77a9 49be fc1b d33d 310a be3c 40ca 16be
000001f0: 2782 053e cde5 7d3e 2f9e 7d3e 4dc8 eb3c
00000200: b0da afbc 5778 353e 34f7 79be 89c1 e1bc
00000210: 0716 c2bd 0602 1f3e 03d8 12be b525 a0bd
00000220: 980e 6dbc 99ad 96bd e5c3 cdbd 6fc5 33be
00000230: 933e 853e 539d 3bbd 87ed 4b3d e2fd 0abe
00000240: 3a09 5f3e 2702 743e 375d 1bbd 9742 18be
00000250: 2c54 373e c48f b03c 6873 033e b953 a4bd
00000260: ce73 6f3c 6f1b 45be d6a1 ff3c 423a 6fbd
00000270: 4672 723e 8613 88be c196 233d a044 ab3d
00000280: ffde 24bd 9b9a d93d 1d7b 303e 6998 8e3d
00000290: 7808 00be 8fcf 68bd e8d3 1dbd b25b 11bd
000002a0: c6f3 51bc 4118 cebd b643 3c3d ff55 babd
000002b0: 18f2 b7bd d1b4 9e3d b0bc b63c 52eb 833d
000002c0: 7c33 78bd 9059 6fbe 8c67 173e a0c5 153e
000002d0: 9e56 21be cbf0 08be e254 58be c6bc 083e
000002e0: 126e e23d 7878 803c b5f6 a0bb a413 8d3d
000002f0: e1bb af3c c5d7 72be e297 163e 8d51 453e
00000300: b085 76be f43a 39bd 228b ee3d 75f8 603e
00000310: 890c 6dbe 4354 2b3e 212a 2c3e 1440 0a3d
00000320: 5a4e 8ebe f12a 19be 66c2 e13c b239 4b3e
00000330: 9bc4 9dbb 6f8a 6e3e 0927 6b3d 37ab 8a3d
00000340: 7e77 103e 0600 6b3d d5a1 b3bb 45f2 8e3d
00000350: ed90 84be f1fb 433e 643a 83be c89d 9e3d
00000360: 9e7f 363e 7966 b53d c635 62bc b294 86be
00000370: 5264 813e 9fc2 e53d 317d 03be efd8 e5bd
00000380: 0321 aabd 25c9 5d3e 5df2 44bd e458 02be
00000390: 9254 07be 5988 40be 2074 4cbd a270 50bd
000003a0: 9d17 75be c1ad 273e b516 f2bd 8ca4 b7bd
000003b0: e1b1 713d 078f 5e3e bac0 743d f3a9 ed3d
000003c0: 4560 60be 8ce9 0d3e 7ccb 2ebe 981f 20be
000003d0: 1ec3 febc 80e5 b0bd c4d4 5e3b 656b b73d
000003e0: d0b3 303e ece4 063d a805 43be e51e a73d
000003f0: 22a2 85bd 9b94 fdbd 4f2c 15be c452 9cbc

vae_decoder1.decoder_input.bias f4 [64]
-0.107464716 0.24831587 0.0993001 -0.03426264 -0.0716289 0.118410446 0.10526099 -0.10243054
-0.17660137 0.0949503 -0.019739237 -0.026920568 0.14670078 -0.23493771 -0.004302145 0.21057694
0.11808017 -0.0660089 0.06834833 0.008264881 0.15553732 0.22971134 0.13717628 -0.15925819
0.12848434 -0.094670884 -0.10634439 0.020387283 -0.0056805867 -0.12427278 0.25531727 0.10753986
-0.09375563 0.16600059 0.2346022 -0.14804539 0.239001 0.0766949 0.25038305 0.07278669
0.10725498 -0.12930752 0.051898994 -0.07049023 -0.09418657 -0.1975453 0.24588227 0.1687511
-0.023389842 -0.22829896 0.030677006 0.21142265 0.22544564 -0.17622036 -0.16058019 0.08023817
0.15727273 -0.017632753 -0.08909123 0.14667857 0.12700903 -0.21408843 0.21795812 -0.12278754
00000000: 7616 dcbd 8446 7e3e da5d cb3d fb56 0cbd
00000010: 2cb2 92bd 2d81 f23d 1393 d73d 1ac7 d1bd
00000020: fdd6 34be 4e75 c23d 2eb4 a1bc 8688 dcbc
00000030: bb38 163e 8393 70be 02f9 8cbb 7ba1 573e
00000040: 04d4 f13d ad2f 87bd 36fa 8b3d 6c69 073c
00000050: 2d45 1f3e 7339 6b3e f077 0c3e 9414 23be
00000060: 6691 033e cfe2 c1bd 16cb d9bd 3b03 a73c
00000070: 3724 babb ba82 febd f2b8 823e dc3d dc3d
00000080: f402 c0bd 0ffc 293e 8f3b 703e 3699 17be
00000090: aebc 743e 3712 9d3d 3532 803e 3011 953d
000000a0: 80a8 db3d 3169 04be 0a94 543d 2f5d 90bd
000000b0: e3e4 c0bd 5149 4abe 90c8 7b3e 17cd 2c3e
000000c0: 0e9c bfbc 34c7 69be 584e fb3c 2e7f 583e
000000d0: 39db 663e 1c73 34be 226f 24be e953 a43d
000000e0: 1a0c 213e 9072 90bc 7675 b6bd e832 163e
000000f0: a80e 023e ff39 5bbe 6a30 5f3e 0978 fbbd

vae_decoder1.batch_norm.weight f4 [64]
1.0 1.0 1.0 1.0 1.0 1.0 1.0 1.0
1.0 1.0 1.0 1.0 1.0 1.0 1.0 1.0
1.0 1.0 1.0 1.0 1.0 1.0 1.0 1.0
1.0 1.0 1.0 1.0 1.0 1.0 1.0 1.0
1.0 1.0 1.0 1.0 1.0 1.0 1.0 1.0
1.0 1.0 1.0 1.0 1.0 1.0 1.0 1.0
1.0 1.0 1.0 1.0 1.0 1.0 1.0 1.0
1.0 1.0 1.0 1.0 1.0 1.0 1.0 1.0
00000000: 0000 803f 0000 803f 0000 803f 0000 803f
00000010: 0000 803f 0000 803f 0000 803f 0000 803f
00000020: 0000 803f 0000 803f 0000 803f 0000 803f
00000030: 0000 803f 0000 803f 0000 803f 0000 803f
00000040: 0000 803f 0000 803f 0000 803f 0000 803f
00000050: 0000 803f 0000 803f 0000 803f 0000 803f
00000060: 0000 803f 0000 803f 0000 803f 0000 803f
00000070: 0000 803f 0000 803f 0000 803f 0000 803f
00000080: 0000 803f 0000 803f 0000 803f 0000 803f
00000090: 0000 803f 0000 803f 0000 803f 0000 803f
000000a0: 0000 803f 0000 803f 0000 803f 0000 803f
000000b0: 0000 803f 0000 803f 0000 803f 0000 803f
000000c0: 0000 803f 0000 803f 0000 803f 0000 803f
000000d0: 0000 803f 0000 803f 0000 803f 0000 803f
000000e0: 0000 803f 0000 803f 0000 803f 0000 803f
000000f0: 0000 803f 0000 803f 0000 803f 0000 803f

vae_decoder1.batch_norm.bias f4 [64]
0.0 0.0 0.0 0.0 0.0 0.0 0.0 0.0
0.0 0.0 0.0 0.0 0.0 0.0 0.0 0.0
0.0 0.0 0.0 0.0 0.0 0.0 0.0 0.0
0.0 0.0 0.0 0.0 0.0 0.0 0.0 0.0
0.0 0.0 0.0 0.0 0.0 0.0 0.0 0.0
0.0 0.0 0.0 0.0 0.0 0.0 0.0 0.0
0.0 0.0 0.0 0.0 0.0 0.0 0.0 0.0
0.0 0.0 0.0 0.0 0.0 0.0 0.0 0.0
00000000: 0000 0000 0000 0000 0000 0000 0000 0000
00000010: 0000 0000 0000 0000 0000 0000 0000 0000
00000020: 0000 0000 0000 0000 0000 0000 0000 0000
00000030: 0000 0000 0000 0000 0000 0000 0000 0000
00000040: 0000 0000 0000 0000 0000 0000 0000 0000
00000050: 0000 0000 0000 0000 0000 0000 0000 0000
00000060: 0000 0000 0000 0000 0000 0000 0000 0000
00000070: 0000 0000 0000 0000 0000 0000 0000 0000
00000080: 0000 0000 0000 0000 0000 0000 0000 0000
00000090: 0000 0000 0000 0000 0000 0000 0000 0000
000000a0: 0000 0000 0000 0000 0000 0000 0000 0000
000000b0: 0000 0000 0000 0000 0000 0000 0000 0000
000000c0: 0000 0000 0000 0000 0000 0000 0000 0000
000000d0: 0000 0000 0000 0000 0000 0000 0000 0000
000000e0: 0000 0000 0000 0000 0000 0000 0000 0000
000000f0: 0000 0000 0000 0000 0000 0000 0000 0000

vae_decoder1.batch_norm.running_mean f4 [64]
0.0 0.0 0.0 0.0 0.0 0.0 0.0 0.0
0.0 0.0 0.0 0.0 0.0 0.0 0.0 0.0
0.0 0.0 0.0 0.0 0.0 0.0 0.0 0.0
0.0 0.0 0.0 0.0 0.0 0.0 0.0 0.0
0.0 0.0 0.0 0.0 0.0 0.0 0.0 0.0
0.0 0.0 0.0 0.0 0.0 0.0 0.0 0.0
0.0 0.0 0.0 0.0 0.0 0.0 0.0 0.0
0.0 0.0 0.0 0.0 0.0 0.0 0.0 0.0
00000000: 0000 0000 0000 0000 0000 0000 0000 0000
00000010: 0000 0000 0000 0000 0000 0000 0000 0000
00000020: 0000 0000 0000 0000 0000 0000 0000 0000
00000030: 0000 0000 0000 0000 0000 0000 0000 0000
00000040: 0000 0000 0000 0000 0000 0000 0000 0000
00000050: 0000 0000 0000 0000 0000 0000 0000 0000
00000060: 0000 0000 0000 0000 0000 0000 0000 0000
00000070: 0000 0000 0000 0000 0000 0000 0000 0000
00000080: 0000 0000 0000 0000 0000 0000 0000 0000
00000090: 0000 0000 0000 0000 0000 0000 0000 0000
000000a0: 0000 0000 0000 0000 0000 0000 0000 0000
000000b0: 0000 0000 0000 0000 0000 0000 0000 0000
000000c0: 0000 0000 0000 0000 0000 0000 0000 0000
000000d0: 0000 0000 0000 0000 0000 0000 0000 0000
000000e0: 0000 0000 0000 0000 0000 0000 0000 0000
000000f0: 0000 0000 0000 0000 0000 0000 0000 0000

vae_decoder1.batch_norm.running_var f4 [64]
1.0 1.0 1.0 1.0 1.0 1.0 1.0 1.0
1.0 1.0 1.0 1.0 1.0 1.0 1.0 1.0
1.0 1.0 1.0 1.0 1.0 1.0 1.0 1.0
1.0 1.0 1.0 1.0 1.0 1.0 1.0 1.0
1.0 1.0 1.0 1.0 1.0 1.0 1.0 1.0
1.0 1.0 1.0 1.0 1.0 1.0 1.0 1.0
1.0 1.0 1.0 1.0 1.0 1.0 1.0 1.0
1.0 1.0 1.0 1.0 1.0 1.0 1.0 1.0
00000000: 0000 803f 0000 803f 0000 803f 0000 803f
00000010: 0000 803f 0000 803f 0000 803f 0000 803f
00000020: 0000 803f 0000 803f 0000 803f 0000 803f
00000030: 0000 803f 0000 803f 0000 803f 0000 803f
00000040: 0000 803f 0000 803f 0000 803f 0000 803f
00000050: 0000 803f 0000 803f 0000 803f 0000 803f
00000060: 0000 803f 0000 803f 0000 803f 0000 803f
00000070: 0000 803f 0000 803f 0000 803f 0000 803f
00000080: 0000 803f 0000 803f 0000 803f 0000 803f
00000090: 0000 803f 0000 803f 0000 803f 0000 803f
000000a0: 0000 803f 0000 803f 0000 803f 0000 803f
000000b0: 0000 803f 0000 803f 0000 803f 0000 803f
000000c0: 0000 803f 0000 803f 0000 803f 0000 803f
000000d0: 0000 803f 0000 803f 0000 803f 0000 803f
000000e0: 0000 803f 0000 803f 0000 803f 0000 803f
000000f0: 0000 803f 0000 803f 0000 803f 0000 803f
