best_econ_time_series.pt (torch, 212013 bytes, 38 tensors)

vae_encoder.batch_norm.weight f4 [16]
0.99935406 0.9887568 0.9668131 0.97510266 0.9853577 0.9690574 0.96482366 0.988865
0.94564176 0.97199863 0.9769027 1.0413071 0.99006855 0.9824227 0.98679316 0.9845453
00000000: abd5 7f3f 2a1f 7d3f 1081 773f 54a0 793f
00000010: 6740 7c3f 2514 783f affe 763f 4226 7d3f
00000020: 9415 723f e7d4 783f 4c16 7a3f 8d49 853f
00000030: 2275 7d3f 0e80 7b3f 7a9e 7c3f 290b 7c3f

vae_encoder.batch_norm.bias f4 [16]
0.041098204 -0.069758855 -0.018714463 0.03303613 -0.06881499 -0.059284054 -0.053853683 -0.06609019
0.04363901 -0.014075067 -0.06047744 -0.051683873 0.07177134 0.0130722085 0.050636925 -0.04976463
00000000: 9756 283d bbdd 8ebd 134f 99bc e550 073d
00000010: e0ee 8cbd d6d3 72bd ae95 5cbd 4b5a 87bd
00000020: d2be 323d 1c9b 66bc 31b7 77bd 78b2 53bd
00000030: dafc 923d d12c 563c aa68 4f3d ffd5 4bbd

vae_encoder.batch_norm.running_mean f4 [16]
-0.0069679585 -0.00092661276 1.472827 -0.0009956894 -0.00065052614 1.9040552 1.2178721 -0.0007358667
0.0079700705 1.8207527 -0.007023291 -0.06302017 -0.0072601046 -0.0018439612 -0.0009766368 1.1015006
00000000: 7953 e4bb eee7 72ba 9885 bc3f cb81 82ba
00000010: 1288 2aba 15b8 f33f 3ce3 9b3f 2ee7 40ba
00000020: e694 023c 6d0e e93f a323 e6bb b810 81bd
00000030: 2ce6 edbb 12b1 f1ba 7e02 80ba f9fd 8c3f

vae_encoder.batch_norm.running_var f4 [16]
3.2423666e-06 9.169031e-08 0.13666885 3.5257256e-07 1.3504808e-07 0.20803206 0.06364675 1.1035356e-07
0.00083649287 0.15307403 5.304752e-06 0.00012904582 2.5879706e-06 2.1107203e-07 7.141402e-08 0.03745099
00000000: 6f97 5936 48e7 c433 ebf2 0b3e 3449 bd34
00000010: bc01 1134 5b06 553e 3a59 823d 83fb ec33
00000020: 1648 5b3a 70bf 1c3e 79ff b136 7950 0739
00000030: ffac 2d36 0aa3 6234 465c 9933 3666 193d

vae_encoder.encoder1.0.0.weight f4 [16, 906]
0.026329603 0.029053874 0.0049160067 0.020557202 -0.0013111829 -0.020584809 0.01696377 -0.047914285
-0.056068193 0.07564429 0.028651802 -0.0047339085 0.016498866 0.071101636 0.044854756 0.025074622
0.008076956 0.02845246 0.033863846 0.043653067 0.06803968 -0.0012330655 0.016181296 0.030389136
-0.0016343798 -0.044769093 0.0742589 0.022003742 -0.017448394 0.052303534 0.005129898 -0.0084802685
0.03671212 0.023599252 0.012261085 0.055803005 0.038214553 0.0036132182 0.061309505 0.013699838
0.016662685 0.04746365 -0.00860566 0.01737719 0.0022213426 0.005827227 0.006555857 0.057258222
-0.009287198 0.050971378 -0.014293741 0.048764985 0.042791113 -0.012277236 0.008204073 0.0269119
0.008409773 0.057717163 0.023047114 0.010614809 0.018880934 0.019458055 9.508005e-05 -0.022970032
0.009936258 0.06701593 0.0102310395 0.06549587 -0.039603215 0.03078274 0.042944964 0.05163598
-0.005521079 0.044631723 0.015223316 0.043723445 -0.030862922 -0.025754837 0.02076591 0.00088947435
0.009608201 0.034847252 0.0016654608 0.06504894 0.032224182 0.017861025 0.021490842 0.034477
0.01995281 0.010250964 -0.009792094 0.029365715 0.030744944 0.055084236 0.06475129 0.014372932
-0.02255289 0.042738378 0.0068843905 0.021153301 -0.02198374 -0.0001715623 -0.00084341055 -0.038818907
0.037358377 -0.02661015 0.022051884 -0.0051240316 -0.007876259 0.03286559 0.01835332 0.04487255
0.0053046355 0.041866206 0.017408831 0.058353532 0.020161638 0.0024953508 0.008762516 0.009196985
-0.057479803 -0.015137697 0.04045797 -0.026478251 0.023895808 -0.008628659 -0.014763052 -0.038805515
-0.023150146 0.00049253297 -0.003867181 -0.022519683 -0.013938883 0.040994592 0.039396778 0.011020203
-0.018811245 -0.004920059 0.0033165973 0.044764098 0.045826327 0.015294713 0.02487568 0.037227035
0.025969643 0.035823453 0.013339392 0.029986419 0.06839363 0.047095675 0.052823592 0.04550116
0.040261246 0.012691193 0.011008502 0.028326795 -0.029395707 0.023270303 0.021206968 -0.027794676
-0.0049912664 0.025651298 -0.024748936 0.022438565 0.021737995 -0.012376155 0.019743938 0.026877241
-0.014897638 0.015220825 -0.024808647 0.0072231027 0.0057259155 0.009270317 0.027385008 0.012571991
-0.025076065 -0.02575666 -0.032396134 0.010520837 -0.0023277828 -0.0027988201 -0.010781502 -0.0037725985
-0.008106056 0.020674339 -0.030999439 0.0046064467 -0.014728887 -0.027493019 0.013430765 0.03197886
0.0016930491 0.00032283377 0.0013979004 -0.02986574 0.014422164 -0.00073355326 0.00505598 0.024660269
0.021502428 0.014643232 0.023929806 0.021564376 0.031713143 0.024667213 0.028025534 -0.008897506
0.021252202 0.0051163416 0.002461404 -0.022238307 -0.032885365 -0.027226591 0.031128094 -0.012206808
-0.009903181 -0.022513155 -0.019686753 0.014813362 0.012846089 0.0119235385 0.008457723 -0.0034058702
0.031415787 0.022255134 -0.010607995 -0.020609047 -0.030622987 -0.019637087 0.015538018 -0.007590761
0.017259149 0.002387305 0.025428858 -0.0049164956 -0.012927126 -0.024112398 0.015716346 -0.0038424423
0.015241855 0.009560015 -0.026636321 -0.0005138654 0.027635667 0.0033822034 0.0012020465 -0.03082586
-0.008555944 -0.030182589 0.017441092 0.030053148 0.014183106 0.008401529 0.0016451995 0.00048448486
00000000: 2eb1 d73c 6402 ee3c 7416 a13b 9467 a83c
00000010: ffdb abba 79a1 a8bc 9bf7 8a3c c541 44bd
00000020: c3a7 65bd 65eb 9a3d 2fb7 ea3c e71e 9bbb
00000030: a128 873c bc9d 913d 9fb9 373d 4b69 cd3c
00000040: 3555 043c 2215 e93c d1b4 0a3d 8fcd 323d
00000050: 6358 8b3d d09e a1ba a38e 843c a3f2 f83c
00000060: b038 d6ba cc5f 37bd 0d15 983d 3141 b43c
00000070: efef 8ebc 3b3c 563d b418 a83b d3f0 0abc
00000080: 735f 163d 3853 c13c b8e2 483c b191 643d
00000090: dd86 1c3d becb 6c3b ad1f 7b3d 4975 603c
000000a0: 2f80 883c 3f69 423d c1fe 0cbc 9c5a 8e3c
000000b0: f293 113b 53f2 be3b 84d2 d63b 9987 6a3d
000000c0: 5529 18bc 5dc7 503d 4c30 6abc cbbd 473d
000000d0: bc45 2f3d 7626 49bc 606a 063c 5876 dc3c
000000e0: 25c9 093c d568 6c3d 4dcd bc3c bce9 2d3c
000000f0: 30ac 9a3c 8066 9f3c b765 c738 a62b bcbc
00000100: b0cb 223c a63f 893d 17a0 273c b322 863d
00000110: fb36 22bd 162c fc3c 0fe7 2f3d 4080 533d
00000120: 2bea b4bb c1cf 363d 376b 793c 5b17 333d
00000130: 3dd4 fcbc cffb d2bc 451d aa3c 9d2b 693a
00000140: b76b 1d3c febb 0e3d 974b da3a 6138 853d
00000150: 81fd 033d 4951 923c 900d b03c c137 0d3d
00000160: 1374 a33c a9f3 273c 056f 20bc 5e90 f03c
00000170: d2dc fb3c 02a0 613d 539c 843d 727c 6b3c
00000180: d7c0 b8bc 700e 2f3d 7496 e13b b049 ad3c
00000190: 3f17 b4bc 67e5 33b9 5318 5dba 9300 1fbd
000001a0: 1905 193d 87fd d9bc 27a6 b43c 7ee7 a7bb
000001b0: 6d0b 01bc 129e 063d b459 963c 47cc 373d
000001c0: 82d2 ad3b e67b 2b3d f79c 8e3c 1d04 6f3d
000001d0: 052a a53c 0a89 233b a890 0f3c f3ae 163c
000001e0: f16f 6bbd 1a04 78bc 42b7 253d ebe8 d8bc
000001f0: 24c1 c33c 385f 0dbc bae0 71bc 88f2 1ebd
00000200: 60a5 bdbc 541d 013a 8870 7dbb 337b b8bc
00000210: ea5f 64bc f2e9 273d 845e 213d 158e 343c
00000220: 0a1a 9abc 7238 a1bb 455b 593b 8f5a 373d
00000230: 63b4 3b3d ad96 7a3c 15c8 cb3c 607b 183d
00000240: 4abe d43c 9dbb 123d 778d 5a3c 14a6 f53c
00000250: f611 8c3d 65e7 403d 8d5d 583d 6d5f 3a3d
00000260: fae8 243d b9ee 4f3c 015d 343c 980d e83c
00000270: 44cf f0bc 5da1 be3c 3cba ad3c a9b1 e3bc
00000280: c78d a3bb ac22 d23c 48be cabc 15d1 b73c
00000290: e113 b23c 5bc5 4abc 0abe a13c a92d dc3c
000002a0: 3915 74bc c460 793c 813b cbbc c7af ec3b
000002b0: 76a0 bb3b 87e2 173c 8656 e03c c1fa 4d3c
000002c0: 526c cdbc a2ff d2bc cfb1 04bd 975f 2c3c
000002d0: b78d 18bb 696c 37bb e6a4 30bc b33d 77bb
000002e0: 43cf 04bc 3b5d a93c 89f2 fdbc adf1 963b
000002f0: 6e51 71bc 0a39 e1bc b60c 5c3c 44fc 023d
00000300: 4de9 dd3a 0442 a939 c139 b73a ffa8 f4bc
00000310: f14a 6c3c ed4b 40ba a2ac a53b 5504 ca3c
00000320: dc25 b03c 2bea 6f3c 7108 c43c c6a7 b03c
00000330: a4e5 013d e512 ca3c ce95 e53c d8c6 11bc
00000340: 1919 ae3c fca6 a73b 824f 213b 1c2d b6bc
00000350: ceb2 06bd 4d0a dfbc 5800 ff3c 10ff 47bc
00000360: f440 22bc 826d b8bc 1d46 a1bc beb3 723c
00000370: 6778 523c f25a 433c 4392 0a3c 0535 5fbb
00000380: d7ad 003d 6650 b63c 28cd 2dbc 4ed4 a8bc
00000390: 0fdd fabc f5dd a0bc 2c93 7e3c ebbb f8bb
000003a0: 0f63 8d3c 5574 1c3b 2e50 d03c 8e1a a1bb
000003b0: 4ccc 53bc 5d87 c5bc 91bf 803c 7cd1 7bbb
000003c0: f9b8 793c 9ca1 1c3c 6a34 dabc ecb4 06ba
000003d0: 3264 e23c f5a7 5d3b fd8d 9d3a 8486 fcbc
000003e0: 3b2e 0cbc 7a41 f7bc 9fe0 8e3c 0532 f63c
000003f0: 4260 683c 91a6 093c bca3 d73a 7502 fe39

vae_encoder.encoder1.0.0.bias f4 [16]
0.008105999 0.0068042297 -0.0052248514 -0.023634098 -0.018887281 -0.025055407 0.012373331 -0.027976176
-0.015280255 -0.017036146 -0.0050715576 -0.021097062 -0.015448387 -0.026610402 -0.02043001 0.029227052
00000000: 06cf 043c 04f6 de3b 3b35 abbb 4c9c c1bc
00000010: 80b9 9abc ff40 cdbc 83b9 4a3c 4b2e e5bc
00000020: 095a 7abc 638f 8bbc 4f2f a6bb bfd3 acbc
00000030: 3b1b 7dbc 0ffe d9bc d65c a7bc 926d ef3c

vae_encoder.encoder2.0.0.weight f4 [32, 16]
-0.1978351 0.107861 -0.07823023 -0.18904607 0.24851106 0.03905699 -0.11171786 -0.042978313
0.1876815 0.16701941 -0.074910186 0.019778311 0.03016764 0.10571621 0.21959879 0.0617369
-0.05324179 0.09111996 0.08385154 0.076989606 0.016577875 0.07124483 -0.06709509 0.0061764764
0.08585309 -0.20265144 -0.09772586 0.06338566 -0.09077257 -0.16882671 0.19035928 0.12841368
0.11276725 -0.10032819 0.1991241 -0.11016465 -0.23218316 -0.16901727 0.1878255 -0.08989688
-0.11527917 -0.046938643 0.10036339 0.14829798 0.05325194 -0.1743751 -0.20356676 0.08950987
-0.04271641 -0.08427647 0.022913024 0.051407665 -0.17829056 0.043845493 0.08004454 -0.17671315
-0.17604136 -0.055591837 -0.12755032 0.07413148 0.22049962 0.026957493 -0.21181643 0.014139893
-0.25453514 0.08150271 0.18291987 -0.22186604 0.16074853 -0.1976475 0.16924623 0.24229957
0.072546534 0.03807506 0.1876826 0.0960805 0.12615296 0.14380819 0.11146312 -0.05251993
-0.059414994 0.07405429 -0.04030708 0.13022104 0.10630441 -0.04200773 0.2591651 -0.14717007
0.12360637 0.012853631 0.17565794 0.17709668 0.04437392 -0.26215738 -0.14546588 0.15658313
-0.1513609 0.19960465 -0.028210782 -0.15891992 -0.10123819 0.15875418 -0.030430246 0.25260037
0.059847206 -3.7502353e-08 0.15622821 -0.23789759 0.214342 0.10245053 -0.08484499 -0.19256984
-0.1824457 0.026580058 -0.21179806 0.13039477 0.09607137 0.07388917 0.08902019 0.061883904
-0.22575201 -0.0020696053 -0.05935527 0.16267423 -0.12694323 0.20820901 -0.22714987 0.014065409
-0.1115808 0.23508957 -0.19574313 0.16643476 0.089858115 -0.045328707 0.1415237 -0.1286135
0.039337352 -0.13451917 -5.760566e-05 -0.15460941 -0.14241149 0.074385576 0.026160313 0.03692287
0.029689724 -0.079823695 0.20617677 -0.2163013 -0.20502679 0.20891684 -0.023543874 -0.044256225
-0.009731473 -0.12677047 0.15820856 0.10320583 0.16209234 -0.22807424 0.19467622 0.0030840363
-0.115394145 -0.07861636 -0.028953077 -0.022929689 -0.0018294613 -0.017545104 -0.06289015 0.07371023
-0.07705725 -0.19470876 -0.15829827 0.024054036 -0.016539782 0.038293257 -0.09348449 0.015242627
0.08848663 0.21961057 0.10731726 -0.16132115 0.076868825 -0.12039374 0.058825027 0.053856287
-0.16452187 -0.08094604 0.14198466 -0.18352698 -0.17288649 0.09534311 -0.1803623 -0.1712009
-0.25475112 0.069406234 -0.124685 -0.14675124 -0.13373773 0.13968123 0.023846881 -0.1362362
-0.111198075 0.06844511 0.12240677 -0.025911586 -0.015306317 0.1384105 -0.13900873 -0.22005709
0.00018607716 -0.18226776 -0.12119758 0.1374478 0.21456249 0.20543247 0.1734423 0.03517874
0.14338508 -0.011962815 0.019735528 0.072359964 -0.16413175 -0.045674447 -0.23477481 -0.102980234
-0.13748439 -0.04425427 0.07057361 0.06397515 0.129012 0.031430606 0.11452795 -0.14249705
0.07704419 0.12923606 0.11802203 0.24934766 0.068201266 -0.15201384 -0.16186 -0.018950915
-0.20932491 0.052068416 -0.14538303 0.109869495 0.177252 -0.064899914 0.03452115 0.046598192
0.015282166 -0.17903881 0.081887 -0.22690156 0.18120512 -0.24613364 -0.16755709 -0.013581385
00000000: 4995 4abe 3ae6 dc3d 2c37 a0bd 4b95 41be
00000010: af79 7e3e 39fa 1f3d 55cc e4bd 070a 30bd
00000020: 942f 403e 2307 2b3e 836a 99bd 2006 a23c
00000030: 2022 f73c be81 d83d 81de 603e d5df 7c3d
00000040: 1014 5abd 1a9d ba3d 5bba ab3d baac 9d3d
00000050: 53ce 873c cfe8 913d 2769 89bd 0a64 ca3b
00000060: bfd3 af3d dc83 4fbe 7f24 c8bd 57d0 813d
00000070: f8e6 b9bd e9e0 2cbe 8bed 423e e07e 033e
00000080: 84f2 e63d de78 cdbd 30e7 4b3e 019e e1bd
00000090: 6cc1 6dbe dd12 2dbe 5455 403e db1b b8bd
000000a0: 7c17 ecbd bc42 40bd 528b cd3d 6ddb 173e
000000b0: b51e 5a3d 638f 32be ce73 50be f350 b73d
000000c0: 67f7 2ebd 2499 acbd 18b4 bb3c d890 523d
000000d0: cd91 36be 5597 333d 64ee a33d 4bf4 34be
000000e0: 3044 34be 44b4 63bd 8d9c 02be 3fd2 973d
000000f0: a7ca 613e f6d5 dc3c 68e6 58be 03ab 673c
00000100: 6e52 82be e5ea a63d 594f 3b3e da30 63be
00000110: 439b 243e 1b64 4abe e24e 2d3e 611d 783e
00000120: 4793 943d 98f4 1b3d de2f 403e dac5 c43d
00000130: 3e2e 013e 7442 133e c746 e43d 231f 57bd
00000140: 235d 73bd c7a9 973d 0919 25bd aa58 053e
00000150: 20b6 d93d 4c10 2cbd 4ab1 843e c0b3 16be
00000160: 5625 fd3d 0998 523c addf 333e d558 353e
00000170: 6dc1 353d 7e39 86be 02f5 14be 5457 203e
00000180: 5afe 1abe 2965 4c3e 4c1a e7bc e7bb 22be
00000190: f855 cfbd 7590 223e da48 f9bc d654 813e
000001a0: 5822 753d 4612 21b3 4afa 1f3e 6d9b 73be
000001b0: 787c 5b3e 95d1 d13d 36c3 adbd 0731 45be
000001c0: 0cd3 3abe 6cbe d93c 97e1 58be 3586 053e
000001d0: 11c1 c43d 3553 973d 3850 b63d fa79 7d3d
000001e0: 892b 67be 37a2 07bb 831e 73bd 1394 263e
000001f0: 68fd 01be be34 553e fa99 68be 9a72 663c
00000200: 7984 e4bd 52bb 703e e370 48be e06d 2a3e
00000210: 8807 b83d 98aa 39bd 97eb 103e 42b3 03be
00000220: 3420 213d 65bf 09be 9b9d 71b8 ee51 1ebe
00000230: 51d4 11be 7757 983d 274e d63c 6f3c 173d
00000240: dd37 f33c 9b7a a3bd 0120 533e 177e 5dbe
00000250: 8bf2 51be 4cee 553e 15df c0bc 0446 35bd
00000260: c270 1fbc 1ed0 01be 6d01 223e 945d d33d
00000270: 89fb 253e 4b8c 69be 3459 473e 8b1d 4a3b
00000280: c453 ecbd 9d01 a1bd 012f edbc 0bd7 bbbc
00000290: 89ca efba c0ba 8fbc 8dcc 80bd 64f5 963d
000002a0: 31d0 9dbd bc61 47be f118 22be f80c c53c
000002b0: 707e 87bc 64d9 1c3d cc74 bfbd 36bc 793c
000002c0: 7a38 b53d 98e1 603e 27c9 db3d 5f31 25be
000002d0: 676d 9d3d fe90 f6bd 83f2 703d 6998 5c3d
000002e0: 6c78 28be 0ac7 a5bd 6d64 113e 7fee 3bbe
000002f0: 2809 31be 4043 c33d e5b0 38be 4a4f 2fbe
00000300: bd6e 82be db24 8e3d d95a ffbd f545 16be
00000310: 8bf2 08be 9908 0f3e 895a c33c 8181 0bbe
00000320: d1bb e3bd f32c 8c3d 67b0 fa3d 8944 d4bc
00000330: 59c7 7abc 7bbb 0d3e 4e58 0ebe a556 61be
00000340: b51d 4339 66a4 3abe 7036 f8bd 1ebf 0c3e
00000350: 45b6 5b3e e45c 523e dc9a 313e 9517 103d
00000360: 8ad3 123e afff 43bc 67ac a13c 7631 943d
00000370: 2712 28be 2115 3bbd cf68 70be 4de7 d2bd
00000380: b5c8 0cbe f743 35bd e688 903d 6705 833d
00000390: b91b 043e 61bd 003d a18d ea3d bfea 11be
000003a0: 58c9 9d3d 7556 043e 89b5 f13d fe54 7f3e
000003b0: 1bad 8b3d 84a9 1bbe a1be 25be f33e 9bbc
000003c0: 4559 56be b145 553d 4adf 14be 4203 e13d
000003d0: 8c81 353e 3fea 84bd 0d66 0d3d bfdd 3e3d
000003e0: 0d62 7a3c f355 37be 5fb4 a73d e258 68be
000003f0: d68d 393e 750a 7cbe 1694 2bbe 7584 5ebc

vae_encoder.encoder2.0.0.bias f4 [32]
-0.16460854 -0.07836321 -0.049465373 -0.06156783 0.0028408284 0.12517707 0.12977628 0.020581244
-0.2010359 0.112341784 -0.038976047 0.18826461 0.103327535 -0.26737416 0.18537872 -0.118337005
0.120264515 -0.12891975 0.17517285 -0.09227761 0.008017052 0.17878936 -0.25877666 0.026182806
0.119277515 -0.12891634 -0.255481 -0.03281243 -0.031228006 -0.19521976 -0.16787697 0.007123492
00000000: 248f 28be e47c a0bd 349c 4abd 8d2e 7cbd
00000010: 312d 3a3b 6b2e 003e 13e4 043e ff99 a83c
00000020: 5bdc 4dbe 7313 e63d 59a5 1fbd 70c8 403e
00000030: 639d d33d 44e5 88be ebd3 3d3e ac5a f2bd
00000040: 3e4d f63d 8a03 04be 8360 333e 0bfc bcbd
00000050: f459 033c 8f14 373e 607e 84be 537d d63c
00000060: c547 f43d a502 04be 68ce 82be 5466 06bd
00000070: e0d1 ffbc b0e7 47be f1e7 2bbe 2f6c e93b

vae_encoder.encoder2.1.0.weight f4 [64, 32]
-0.12551172 0.038476195 -0.026538864 -0.09830087 -0.12599134 0.08055407 -0.03971281 0.08319047
0.07267366 -0.09649638 -0.020642495 0.008937419 -0.056044474 0.08411966 -0.1128609 -0.0917945
-0.092164375 0.1152864 -0.04469744 0.11996848 0.006019421 0.07986685 0.07480883 -0.061318442
-0.062103365 -0.07268627 -0.0632668 -0.16664717 0.067232154 -0.11982987 -0.11349696 0.0006536041
-0.051387645 -0.039454747 -0.16841911 0.041967034 -0.016046178 -0.12660003 0.12841754 -0.09506695
0.12972215 0.041098554 0.10562966 0.059612688 -0.08103617 0.0016805426 0.026122453 -0.17114289
0.0743368 -0.02969644 0.07667762 -0.08643815 0.12155865 0.011563657 0.08971042 0.030448442
-0.16630174 0.084919535 0.091974206 0.11242067 0.16452336 0.08214664 -0.17350322 -0.17678183
0.09650269 -0.15944219 0.0022864914 0.033059854 -0.1517363 0.085640796 -0.13574056 -0.17694226
0.10430382 0.04185439 0.014177982 0.11500991 -0.105745964 -0.010422199 0.06552456 -0.03897678
-0.023377413 -0.14851438 -0.08901949 0.0616993 -0.17564282 0.12973957 -0.16578166 0.023755196
0.12561262 -0.16819122 -0.045078516 0.13631324 -0.0401542 -0.04252757 0.044359606 0.022440486
-0.169834 -0.0029125817 -0.11904467 -0.11117418 -0.1557855 -0.004107327 0.021441484 -0.14767857
0.14768049 0.084373325 -0.10766669 -0.18353602 0.07494437 0.14531417 -0.14991899 -0.11935445
-0.015316519 0.08259384 -0.10340131 0.039824642 -0.040684193 -0.041032042 -0.12014831 -0.09382391
-0.16321857 0.15519677 0.05391823 0.081422955 0.0428517 0.06394045 0.14572431 0.12917003
0.043342996 -0.17591941 -0.035960596 -0.11286962 0.04463554 0.07753777 -0.05941732 0.023425432
-0.14492035 0.067223385 -0.1447977 0.13689649 -0.07537115 -0.1688719 0.12853259 -0.0047595357
-0.027660988 -0.06405833 0.004971728 -0.022908483 -0.03002059 -0.015022813 -0.17054006 0.1502228
0.036721572 0.13168563 -0.0782628 0.029301072 0.09581784 0.06752891 -0.16510662 0.0021400235
-0.10949496 -0.066503026 -0.07186726 -0.048012275 -0.04132859 -0.060935896 -0.025061635 -0.09286273
0.116299234 -0.091190524 0.08362887 -0.02254122 0.012030724 -0.008044654 0.09594521 -0.13521878
0.015957335 -0.120945126 0.105961695 0.07014932 0.009165249 -0.0803843 0.0012110868 0.08995373
0.056617092 0.10132592 -0.16701199 -0.0881063 -0.014835569 -0.08064723 0.08341525 0.041348804
-0.097200274 0.1211502 0.15589076 -0.0339484 0.13904336 -0.12906103 0.10798294 0.078034416
-0.13902527 0.0868912 -0.19260342 -0.1233421 -0.052882943 -0.14803325 -0.014833945 0.07859245
0.0071752346 0.12628615 0.019763658 -0.010008336 0.14220008 0.07325369 0.07810678 -0.18243293
-0.21387376 -0.016845215 -0.052197058 -0.031438474 -0.11219356 0.032460056 -0.10420351 -0.11754276
-0.09678343 0.14898787 -0.008944383 -0.10410658 -0.10994658 -0.17746441 -0.06811888 0.071917035
-0.07153058 0.11823792 0.0061830506 -0.014855547 -0.04846987 0.053073116 0.014125842 -0.13158984
-0.19976567 0.0831564 -0.14640637 -0.15430689 0.0815063 -0.14976633 -0.032829747 -0.06370929
0.11751917 0.072626375 0.06584382 -0.05092962 0.09635428 -0.049163956 0.013090912 0.023878368
00000000: 2586 00be 3799 1d3d 0868 d9bc f751 c9bd
00000010: e003 01be 88f9 a43d e6a9 22bd c45f aa3d
00000020: eed5 943d e59f c5bd 731a a9bc 416e 123c
00000030: e48e 65bd ee46 ac3d 9e23 e7bd c1fe bbbd
00000040: adc0 bcbd 471b ec3d aa14 37bd 09b2 f53d
00000050: 903e c53b 3b91 a33d 5f35 993d 0c29 7bbd
00000060: 1960 7ebd 8adc 94bd 0692 81bd 8ea5 2abe
00000070: 03b1 893d 5d69 f5bd 1871 e8bd a156 2b3a
00000080: da7b 52bd 4d9b 21bd 0f76 2cbe a0e5 2b3d
00000090: 4673 83bc 70a3 01be e37f 033e 76b2 c2bd
000000a0: e2d5 043e f556 283d 5d54 d83d 6f2c 743d
000000b0: 4bf6 a5bd a745 dc3a c1fe d53c 1540 2fbe
000000c0: e43d 983d f345 f3bc 2809 9d3d 7c06 b1bd
000000d0: bef3 f83d 7e75 3d3c 19ba b73d 036f f93c
000000e0: 014b 2abe 4bea ad3d f95c bc3d cf3c e63d
000000f0: d078 283e 7f3c a83d d4aa 31be 4c06 35be
00000100: 34a3 c53d d044 23be f6d8 153b c569 073d
00000110: c360 1bbe 7164 af3d 93ff 0abe 5a30 35be
00000120: 3e9d d53d 826f 2b3d c44a 683c 518a eb3d
00000130: 5791 d8bd dfc1 2abc be31 863d 1ea6 1fbd
00000140: fd81 bfbc 2714 18be da4f b6bd 68b8 7c3d
00000150: b6db 33be 73da 043e abc2 29be 429a c23c
00000160: 98a0 003e 523a 2cbe 40a4 38bd b395 0b3e
00000170: bb78 24bd 6431 2ebd 6bb2 353d 1cd5 b73c
00000180: f7e8 2dbe 03e1 3ebb b1cd f3bd 4aaf e3bd
00000190: 3c86 1fbe c296 86bb 0da6 af3c 0d39 17be
000001a0: 8e39 173e eccb ac3d 5b80 dcbd def0 3bbe
000001b0: 6f7c 993d 3dcd 143e 5d84 19be 1b70 f4bd
000001c0: 23f2 7abc f626 a93d 11c4 d3bd 2a1f 233d
000001d0: 78a4 26bd 3711 28bd 5110 f6bd c026 c0bd
000001e0: c522 27be e7eb 1e3e 5dd9 5c3d 14c1 a63d
000001f0: 4485 2f3d 36f3 823d c138 153e 2645 043e
00000200: 6d88 313d 3824 34be 6b4b 13bd 3028 e7bd
00000210: c2d3 363d 1fcc 9e3d 935f 73bd b1e6 bf3c
00000220: 0066 14be 6aac 893d d945 14be 982e 0c3e
00000230: 315c 9abd c1ec 2cbe 0c9e 033e e1f5 9bbb
00000240: 4c99 e2bc 0431 83bd e1e9 a23b 92aa bbbc
00000250: beed f5bc 3f22 76bc 0ea2 2ebe 01d4 193e
00000260: 5c69 163d 99d8 063e 3f48 a0bd cd08 f03c
00000270: 253c c43d 994c 8a3d b611 29be a33f 0c3b
00000280: e53e e0bd bd32 88bd 242f 93bd 85a8 44bd
00000290: 2b48 29bd eb97 79bd 0f4e cdbc d12e bebd
000002a0: 4b2e ee3d 19c2 babd 9d45 ab3d 5da8 b8bc
000002b0: 841c 453c b9cd 03bc ec7e c43d cb76 0abe
000002c0: f5b8 823c 14b2 f7bd 7202 d93d 72aa 8f3d
000002d0: d729 163c 86a0 a4bd 54bd 9e3a a939 b83d
000002e0: 53e7 673d f783 cf3d 3105 2bbe 1371 b4bd
000002f0: e310 73bc 602a a5bd 9dd5 aa3d 5d5d 293d
00000300: f010 c7bd 991d f83d d4a1 1f3e 7a0d 0bbd
00000310: 6261 0e3e 9328 04be 2926 dd3d 82d0 9f3d
00000320: a45c 0ebe 03f4 b13d d539 45be c89a fcbd
00000330: c99b 58bd 0796 17be 130a 73bc 14f5 a03d
00000340: 3b1e eb3b 2851 013e 65e7 a13c 01fa 23bc
00000350: e69c 113e 0806 963d 73f6 9f3d b3cf 3abe
00000360: b901 5bbe fafe 89bc 95cc 55bd a1c5 00bd
00000370: bdc5 e5bd d6f4 043d a668 d5bd 42ba f0bd
00000380: 6436 c6bd 4790 183e 768b 12bc d535 d5bd
00000390: ac2b e1bd 3bb9 35be e981 8bbd 3d49 933d
000003a0: a07e 92bd b926 f23d 309b ca3b ae64 73bc
000003b0: 5888 46bd 3263 593d 1370 673c 7dbf 06be
000003c0: 5f8f 4cbe e74d aa3d 8deb 15be a002 1ebe
000003d0: c6ec a63d 585c 19be 7c78 06bd 047a 82bd
000003e0: e4ad f03d 23bd 943d 20d9 863d 949b 50bd
000003f0: 6555 c53d 2560 49bd 447b 563c 919c c33c

vae_encoder.encoder2.1.0.bias f4 [64]
-0.11381715 -0.05799908 0.02087909 0.01856504 -0.16056842 0.020376109 0.07222856 0.07009529
-0.03298908 0.0709223 -0.112011425 -0.14066795 -0.13483094 -0.044061482 -0.028709078 -0.047773052
-0.017673232 -0.037155006 -0.17544127 -0.06007755 -0.098010026 -0.18575859 -0.041664746 -0.18649611
0.11241854 -0.1070065 -0.05807909 -0.04270363 0.03105282 -0.11738632 0.091427796 0.059540804
-0.19604279 -0.06268294 -0.063291006 -0.19614509 0.028528936 0.03669473 0.0025702906 0.04188783
-0.038753744 0.08026701 -0.0153885875 -0.14488338 -0.06778987 0.039783195 -0.057737716 0.030111913
-0.08243045 -0.08152675 -0.07843359 -0.1709843 0.01401584 -0.045603853 0.023742331 -0.19654527
-0.09073136 0.084158614 0.03391804 -0.13519333 -0.12855427 -0.17133693 0.055104207 0.06808263
00000000: f718 e9bd 7190 6dbd a00a ab3c b615 983c
00000010: 0c6c 24be cceb a63c 91ec 933d 1f8e 8f3d
00000020: 8f1f 07bd b63f 913d 3f66 e5bd 420b 10be
00000030: 1f11 0abe d079 34bd 4d2f ebbc adad 43bd
00000040: 74c7 90bc d92f 18bd e0a6 33be e113 76bd
00000050: 7bb9 c8bd 8037 3ebe a7a8 2abd d6f8 3ebe
00000060: b13b e63d 3926 dbbd 57e4 6dbd 00ea 2ebd
00000070: 7c62 fe3c 3d68 f0bd 7f3e bb3d 0fe1 733d
00000080: 71bf 48be ea5f 80bd b79e 81bd 42da 48be
00000090: 84b5 e93c 374d 163d 5272 283b 9392 2b3d
000000a0: 3fbc 1ebd 0863 a43d 6a20 7cbc 4f5c 14be
000000b0: 6ad5 8abd b4f3 223d 627e 6cbd 42ad f63c
000000c0: 4cd1 a8bd 7ff7 a6bd caa1 a0bd 8216 2fbe
000000d0: b2a2 653c 1bcb 3abd 477f c23c 2a43 49be
000000e0: 5dd1 b9bd 5a5b ac3d a5ed 0a3d 1f70 0abe
000000f0: bba3 03be f372 2fbe f3b4 613d e86e 8b3d

vae_encoder.fc_mu.weight f4 [28, 64]
-0.045432292 -0.13287538 -0.08748049 -0.090454705 -0.023860777 -0.027223622 -0.11131251 -0.044767544
-0.11912601 -0.000985796 -0.09481325 0.08070995 -0.026597934 -0.07339255 -0.09430591 0.01860102
0.043518383 0.003937486 0.050709248 0.037959095 0.08317282 0.016582755 -0.07162054 -0.06882203
-0.09498172 0.066346586 0.060202632 -0.12729105 0.002127877 -0.042876452 -0.07288793 0.06668454
-0.013777843 0.009907462 -0.09785594 -0.101233244 0.025238654 0.04731188 0.046376903 -0.041373033
-0.016437886 -0.007327138 -0.0028979254 0.045230117 -0.12355554 -0.06856592 -0.041578416 0.0070133237
-0.106862724 -0.03305502 -0.056552894 0.10739729 -0.040070433 0.085999586 -0.06033997 0.04246986
0.025375564 0.06287548 -0.08817842 -0.059880476 -0.10572222 0.1971784 -0.08851959 0.06706652
0.06683054 0.06815858 0.022488091 -0.02962726 -0.0137216635 0.0014943873 -4.9261398e-05 0.009845883
-0.02914167 0.058418036 0.0067173354 -0.07412405 0.103913575 0.02067769 0.020650169 0.039680775
0.09557809 -0.10585668 -0.03834129 -0.11083103 -0.026713658 -0.05137795 -0.10517689 -0.07170642
-0.00050345587 0.033375874 -0.024000691 -0.0003150841 -0.0683971 0.058278155 0.023962332 0.0011482943
-0.06509028 -0.089706205 -0.010557973 -0.052618355 0.07883214 0.027313156 -0.072794326 0.051386278
0.06817676 0.036825567 0.088638745 -0.027906662 0.06330078 -0.055751305 -0.06434412 -0.066775136
0.075832024 0.010451876 0.08893584 0.068047084 -0.05954918 -0.025887096 -0.029626306 -0.06848989
0.009043088 0.024380075 0.0064377477 -0.07360046 -0.036364723 -0.01578251 0.022523914 0.044767253
0.045213744 -0.044950735 -0.00030386532 -0.05886224 -0.08597276 0.030409997 0.018298807 0.031155834
-0.0882818 -0.011763213 -0.025960825 0.120868884 0.058147226 0.019772962 0.009116475 0.016396606
0.10613105 -0.07031673 -0.013684135 -0.056957413 -0.012065513 -0.06466723 0.056691557 0.01337335
-0.055617012 0.032690335 -0.011261734 -0.017541522 0.081728354 -0.05830686 -0.016506381 0.071130194
0.059513792 0.08518192 0.02370054 0.09818342 -0.04239203 -0.074806415 0.008987065 -0.0822526
-0.09645007 -0.0047933445 -0.10036792 -0.10964606 0.02213355 0.031905472 0.06485962 0.007707093
-0.002892555 -0.03308058 -0.05837137 0.061605677 0.0049232696 -0.06266039 0.07126391 0.021155355
0.05977619 -0.026932428 0.004986794 0.014947594 0.09677389 0.09683566 0.013364555 -0.028164852
-0.048833527 0.010776215 0.06196321 0.08473703 -0.012053993 -0.037720006 0.00846512 0.052962843
-0.092376396 0.07647335 0.052960962 -0.035746504 0.05483948 0.07584696 0.035455212 0.11480945
-0.04766043 0.025351413 -0.0098928185 -0.079887204 0.028705457 0.107868165 0.034387004 0.06700229
-0.05435881 0.076078035 -0.0407145 0.08317576 0.078735776 0.09348906 0.05321459 0.03428285
-0.13374478 0.05624715 -0.005528082 0.09276157 0.05563041 -0.0400693 -0.014915837 -0.04513442
-0.020562425 0.027910538 -0.05990934 0.10502366 -0.053200357 -0.0014984086 0.05764364 -0.041521676
-0.054253876 0.039106082 -0.051769327 0.013638631 0.118699394 0.0112516405 -0.031047542 -0.0411194
0.01051812 0.018494716 0.0627102 0.05898697 -0.06214728 -0.09502866 0.08708942 0.033698015
00000000: 3617 3abd 7c10 08be f928 b3bd 5140 b9bd
00000010: ad77 c3bc 1304 dfbc d0f7 e3bd 2c5e 37bd
00000020: 56f8 f3bd d335 81ba 732d c2bd 424b a53d
00000030: e9e3 d9bc d54e 96bd 7523 c1bd 2b61 983c
00000040: 5540 323d 0706 813b 80b4 4f3d ff7a 1b3d
00000050: 8356 aa3d 8fd8 873c caad 92bd 91f2 8cbd
00000060: c785 c2bd b8e0 873d 0997 763d 9658 02be
00000070: da73 0b3b 389f 2fbd 4446 95bd e791 883d
00000080: 76bc 61bc e852 223c b268 c8bd 6053 cfbd
00000090: 4bc1 ce3c 1aca 413d b5f5 3d3d c576 29bd
000000a0: bfa8 86bc 7d18 f0bb 1feb 3dbb 3743 393d
000000b0: b00a fdbd 4a6c 8cbd 214e 2abd 06d0 e53b
000000c0: d8da dabd b364 07bd 02a4 67bd 1cf3 db3d
000000d0: e520 24bd 8d20 b03d 0b27 77bd e0f4 2d3d
000000e0: 6ae0 cf3c dcc4 803d e396 b4bd 3b45 75bd
000000f0: e484 d8bd 22e9 493e c249 b5bd 2c5a 893d
00000100: 73de 883d ba96 8b3d f238 b83c deb4 f2bc
00000110: d4d0 60bc 51df c33a 069e 4eb8 a050 213c
00000120: 83ba eebc c047 6f3d 181d dc3b 5ace 97bd
00000130: a4d0 d43d 4264 a93c 8b2a a93c 4f88 223d
00000140: 72be c33d 63cb d8bd c20b 1dbd 61fb e2bd
00000150: 9ad6 dabc af71 52bd fb66 d7bd d1da 92bd
00000160: 5afa 03ba 24b5 083d 199d c4bc df31 a5b9
00000170: c713 8cbd 13b5 6e3d a74c c43c 5d82 963a
00000180: 0d4e 85bd e3b7 b7bd 59fb 2cbc 5886 57bd
00000190: bf72 a13d d7bf df3c 3115 95bd 6b7a 523d
000001a0: 42a0 8b3d 68d6 163d 3b88 b53d 839c e4bc
000001b0: d7a3 813d 7b5b 64bd dac6 83bd 67c1 88bd
000001c0: d24d 9b3d 583e 2b3c fe23 b63d 455c 8b3d
000001d0: d7e9 73bd 2d11 d4bc deb2 f2bc 6d44 8cbd
000001e0: 7629 143c b9b8 c73c bef3 d23b d7bb 96bd
000001f0: 2df3 14bd 534a 81bc 1284 b83c de5d 373d
00000200: 0c32 393d 431e 38bd 1d50 9fb9 8819 71bd
00000210: 7d12 b0bd 631e f93c 61e7 953c 853a ff3c
00000220: 17cd b4bd 7eba 40bc ccab d4bc 1b8a f73d
00000230: c92b 6e3d e8fa a13c 445d 153c 2d52 863c
00000240: 3c5b d93d 3802 90bd 6c33 60bc 2d4c 69bd
00000250: 6eae 45bc 4170 84bd 6835 683d e51b 5b3c
00000260: aace 63bd 4de6 053d 2383 38bc 3db3 8fbc
00000270: 3261 a73d 2dd3 6ebd 6438 87bc b5ac 913d
00000280: bcc4 733d dc73 ae3d a327 c23c 6414 c93d
00000290: 44a3 2dbd 1b34 99bd 7c3e 133c 0d74 a8bd
000002a0: 9d87 c5bd 7d11 9dbb b28d cdbd 1d8e e0bd
000002b0: 6b51 b53c 50af 023d 1fd5 843d c88b fc3b
000002c0: 0591 3dbb 817f 07bd d116 6fbd 3c56 7c3d
000002d0: 6153 a13b 1754 80bd d0f2 913d ff4d ad3c
000002e0: e1d7 743d 65a1 dcbc 4368 a33b c1e6 743c
000002f0: 6431 c63d c651 c63d 02f7 5a3c fab9 e6bc
00000300: aa05 48bd b98e 303c 23cd 7d3d 9c8a ad3d
00000310: 1c7e 45bc 4b80 1abd 49b1 0a3c 91ef 583d
00000320: d62f bdbd 0f9e 9c3d 98ed 583d ed6a 12bd
00000330: 5d9f 603d a755 9b3d 7c39 113d 3821 eb3d
00000340: 9537 43bd c4ad cf3c 7d15 22bc e79b a3bd
00000350: b527 eb3c fce9 dc3d 63d9 0c3d 7f38 893d
00000360: 58a7 5ebd cdce 9b3d 3fc4 26bd 0e58 aa3d
00000370: 3940 a13d 3177 bf3d 8bf7 593d 2c6c 0c3d
00000380: 64f4 08be 6963 663d ea24 b5bb c7f9 bd3d
00000390: b6dc 633d b51f 24bd 8e61 74bc dfde 38bd
000003a0: 8872 a8bc a4a4 e43c 7f63 75bd a516 d73d
000003b0: 9ee8 59bd 4066 c4ba bd1b 6c3d a212 2abd
000003c0: 5039 5ebd b32d 203d 130c 54bd 9174 5f3c
000003d0: ab18 f33d cd58 383c 6a57 febc d16c 28bd
000003e0: 3154 2c3c 3b82 973c 356e 803d 529c 713d
000003f0: 258e 7ebd 639e c2bd f05b b23d ee06 0a3d

vae_encoder.fc_mu.bias f4 [28]
0.033937387 -0.011048394 0.0033416399 -0.022282021 -0.026205763 -0.03599439 -0.024778428 0.025636947
-0.00030913582 0.021522228 -0.00228035 -0.017948195 -0.01012868 -0.021766247 0.01558841 0.00013668883
0.036269262 0.0029840313 0.0007687949 0.000387188 0.0014566021 -0.030109072 -0.008691874 -0.006609509
-0.0047441456 0.005548226 -0.024538942 -0.023913154
00000000: ee01 0b3d 5304 35bc 6aff 5a3b c988 b6bc
00000010: 78ad d6bc da6e 13bd 21fc cabc 9304 d23c
00000020: 8213 a2b9 624f b03c ed71 15bb 1808 93bc
00000030: c3f2 25bc 214f b2bc 8866 7f3c 2154 0f39
00000040: 148f 143d bd8f 433b f488 493a 7eff ca39
00000050: 75eb be3a 4da7 f6bc 5d68 0ebc 9494 d8bb
00000060: c774 9bbb e5cd b53b e405 c9bc 85e5 c3bc

vae_encoder.fc_var.weight f4 [28, 64]
-0.1275164 0.053443436 -0.040284015 0.043134708 0.12818527 -0.020850236 0.018386863 -0.007666024
-0.053438015 0.09779666 0.05421488 -0.0038807245 -0.094096266 -0.06717921 0.04185587 0.05532258
-0.0135572385 -0.0899906 0.0035689657 0.106815085 -0.03749718 -0.04731818 -0.0037250873 0.05956944
0.04178291 -0.024171183 -0.016205525 0.09596717 -0.084334366 -0.11273109 0.053335402 -0.07146832
-0.09321673 -0.019083347 -0.021715198 -0.108950846 0.002815836 0.09852957 0.10933881 -0.032766525
0.13157567 -0.012920161 0.015323032 -0.04536184 0.046270255 -0.027441693 0.030977082 0.031584635
-0.0882632 -0.081771 0.0306458 0.022050135 0.08082362 -0.039796814 0.087982334 0.06751934
-0.067896985 -0.06709086 0.039275512 0.071026795 -0.008287266 0.038015313 0.071369596 -0.061767872
-0.08514917 0.08551684 -0.031988278 -0.012641788 -0.01082859 -0.027668886 0.04628063 -0.0053067403
0.057197474 0.021808382 -0.05866351 -0.034941886 -0.068578176 0.010971739 -0.001288245 0.0315536
0.054965883 0.057502385 -0.08394892 -0.013987393 -0.0811918 0.0575513 -0.021328373 0.11372517
-0.059598107 0.05325643 -0.012172105 -0.05034021 -0.05457258 0.029961763 -0.068877764 0.066527344
-0.0049480353 -0.066980466 0.035107337 0.05797893 0.027090274 0.05420658 -0.06566224 0.08959518
0.096945204 -0.01013914 -0.015613043 -0.019622292 -0.036583047 -0.06170912 -0.08616076 0.06891182
0.046404023 -0.035564035 -0.03792602 0.07110069 -0.07288567 -0.048369944 -0.030496383 0.0069261137
-0.055237815 0.014689967 0.031794608 0.09824208 0.051948298 0.122004464 0.075098164 0.07188136
0.051319156 -0.044646356 -0.049696807 -0.07213833 -0.012480682 -0.06151797 -0.053680785 -0.06487288
0.08876675 0.036835257 0.06966347 0.10217827 -0.029443948 -0.049735684 -0.0025712715 -0.008323451
0.024434831 -0.046196595 -0.03656624 0.087955974 -0.028738739 0.09796063 0.12955308 0.09239778
0.059694573 0.061264362 -0.065241285 -0.05838179 0.059933983 0.11753963 0.008116967 -0.015057371
0.03541676 0.0002491724 -0.05262422 0.05074861 -0.014128355 -0.06575045 0.10978139 0.094525985
-0.013597896 0.046608992 -0.09615298 0.049055934 0.1266261 0.09760511 -0.0440336 -0.06280875
-0.05106864 0.046120934 0.07760409 -0.03829319 0.12895969 0.05657117 -0.05418246 0.082929246
-0.052958954 0.020421509 -0.021794364 0.047811355 -0.10556313 -0.15414347 -0.07806481 -0.043445762
0.015108907 -0.0053262804 -0.0020510189 0.0505896 0.084946014 0.03580296 -0.073457986 -0.055242024
0.081616886 0.04757149 -0.020871565 -0.08140758 0.030013874 0.037144244 0.0016553194 -0.069144264
0.062121533 -0.09503342 0.028460134 -0.02941871 -0.039075326 -0.085934296 0.07115789 0.0034466675
-0.062477075 -0.029784773 -0.056457307 0.04706486 0.0428282 0.075881965 0.028205717 0.0004649482
0.052457016 -0.037242215 0.018844794 -0.032355513 -0.047736023 -0.052111764 0.02184085 0.00261989
0.06227116 0.026250029 -0.103016205 0.063064344 0.100092165 0.04450632 0.0053537902 -0.011040402
-0.010946751 -0.057216085 -0.031814877 -0.08617183 0.036111698 -0.09433063 0.07789236 -0.07932334
0.049187027 0.046145905 0.020020308 0.054646205 -0.030140003 -0.012852799 -0.037697893 0.09645796
00000000: a993 02be 81e7 5a3d da00 25bd 05ae 303d
00000010: 0043 033e 1dce aabc 0ca0 963c 4533 fbbb
00000020: d2e1 5abd 9e49 c83d 6c10 5e3d c153 7ebb
00000030: 8bb5 c0bd 4195 89bd 1071 2b3d ee99 623d
00000040: 2e1f 5ebc fe4c b8bd 4fe5 693b dec1 da3d
00000050: a596 19bd b5d0 41bd 9820 74bb 16ff 733d
00000060: 8e24 2b3d a502 c6bc 73c1 84bc 708a c43d
00000070: 7fb7 acbd 8fdf e6bd 3976 5a3d fc5d 92bd
00000080: 6ae8 bebd ae54 9cbc 12e4 b1bc 9f21 dfbd
00000090: e489 383b dfc9 c93d 07ed df3d 3136 06bd
000000a0: c6bb 063e 15af 53bc 740d 7b3c 56cd 39bd
000000b0: e185 3d3d 67cd e0bc a6c3 fd3c e45e 013d
000000c0: 56c3 b4bd 8e77 a7bd e70c fb3c 7ca2 b43c
000000d0: db86 a53d fc01 23bd 1530 b43d 9447 8a3d
000000e0: 930d 8bbd ef66 89bd 5cdf 203d 7f76 913d
000000f0: 50c7 07bc f2b5 1b3d 392a 923d 4f00 7dbd
00000100: b062 aebd 7423 af3d 2406 03bd 811f 4fbc
00000110: 666a 31bc dca9 e2bc c290 3d3d 2ae4 adbb
00000120: e647 6a3d 7ea7 b23c 2649 70bd 391f 0fbd
00000130: b772 8cbd cfc2 333c 54da a8ba 593e 013d
00000140: e823 613d 9f87 6b3d 69ed abbd 612b 65bc
00000150: e347 a6bd e9ba 6b3d d7b8 aebc bee8 e83d
00000160: 251d 74bd 6a23 5a3d 826d 47bc 8931 4ebd
00000170: 7f87 5fbd 5f72 f53c c90f 8dbd 7d3f 883d
00000180: 2123 a2bb 0e2d 89bd b6cc 0f3d 517b 6d3d
00000190: 6cec dd3c b807 5e3d ed79 86bd ad7d b73d
000001a0: 358b c63d a31e 26bc d9cd 7fbc eebe a0bc
000001b0: 1bd8 15bd b4c2 7cbd 0d75 b0bd a421 8d3d
000001c0: 2512 3e3d 98ab 11bd 5058 1bbd 3d9d 913d
000001d0: 1545 95bd 901f 46bd 8dd3 f9bc 74f4 e23b
000001e0: 0c41 62bd 30ae 703c 103b 023d 2533 c93d
000001f0: bdc7 543d 7add f93d 11cd 993d 8936 933d
00000200: 0934 523d 19df 36bd e18e 4bbd 43bd 93bd
00000210: c67b 4cbc 44fa 7bbd 62e0 5bbd 13dc 84bd
00000220: 58cb b53d 91e0 163d b9ab 8e3d d742 d13d
00000230: 6f34 f1bc a5b7 4bbd c782 28bb 155f 08bc
00000240: 8e2b c83c a438 3dbd 7bc6 15bd 4322 b43d
00000250: 816d ebbc 959f c83d 90a9 043e 0c3b bd3d
00000260: 4c82 743d 57f0 7a3d 399d 85bd be21 6fbd
00000270: 567d 753d 9eb8 f03d 07fd 043c 31b3 76bc
00000280: 2a11 113d 5aa3 8239 7e8c 57bd c6dd 4f3d
00000290: 9e7a 67bc 2ca8 86bd 11d5 e03d d796 c13d
000002a0: b6c9 5ebc 12e9 3e3d dbeb c4bd e0ee 483d
000002b0: 46aa 013e 30e5 c73d 935c 34bd e0a1 80bd
000002c0: 5a2d 51bd 4ee9 3c3d e5ee 9e3d 52d9 1cbd
000002d0: 020e 043e 2cb7 673d 6dee 5dbd cfd6 a93d
000002e0: 7deb 58bd 024b a73c 188a b2bc d7d5 433d
000002f0: 7b31 d8bd c9d7 1dbe 71e0 9fbd 2ff4 31bd
00000300: 598b 773c 1488 aebb 636a 06bb 0a37 4f3d
00000310: 2df8 ad3d 20a6 123d 2471 96bd 7645 62bd
00000320: c126 a73d 53da 423d d8fa aabc 04b9 a6bd
00000330: a8df f53c 9024 183d 4df7 d83a 829b 8dbd
00000340: 2673 7e3d e2a0 c2bd 3a25 e93c 82ff f0bc
00000350: 730d 20bd 52fe afbd 3abb 913d 7ce1 613b
00000360: f6e7 7fbd 32ff f3bc c73f 67bd 15c7 403d
00000370: 9f6c 2f3d 0168 9b3d ad0f e73c 4bc4 f339
00000380: 2bdd 563d 4b8b 18bd 6660 9a3c 3787 04bd
00000390: d986 43bd 2573 55bd 95eb b23c 76b2 2b3b
000003a0: 0b10 7f3d 4d0a d73c 29fa d2bd e127 813d
000003b0: 1ffd cc3d 424c 363d d96e af3b cde2 34bc
000003c0: 005a 33bc 6a5b 6abd 5150 02bd db7a b0bd
000003d0: dce9 133d 6b30 c1bd 0886 9f3d 4674 a2bd
000003e0: 5678 493d 7d03 3d3d a101 a43c b3d4 5f3d
000003f0: 2be8 f6bc 8c94 52bc 1b69 1abd c08b c53d

vae_encoder.fc_var.bias f4 [28]
-0.013460492 -0.0019920026 0.005885697 -0.0060339356 -0.00067181577 -0.009366458 0.02359535 0.041406352
8.733716e-05 0.007904021 0.008313186 -0.0035678132 -0.0052436627 0.024520107 -0.0066504437 -0.01573703
-0.026889006 -0.028684359 0.018603833 -0.032862484 0.0062600025 0.0037962485 -0.0181082 0.016897224
0.039898276 0.040136628 -0.00022989698 -0.009023373
00000000: 6589 5cbc 428c 02bb cedc c03b 52b8 c5bb
00000010: cb1c 30ba c675 19bc 094b c13c b599 293d
00000020: c828 b738 de7f 013c 0734 083c f9d1 69bb
00000030: 08d3 abbb 64de c83c f7eb d9bb f2ea 80bc
00000040: 5546 dcbc 76fb eabc 1167 983c d09a 06bd
00000050: b520 cd3b 7bca 783b a657 94bc 0c6c 8a3c
00000060: 606c 233d 4e66 243d 8010 71b9 c5d6 13bc

vae_decoder.decoder_input.weight f4 [64, 28]
0.036940753 0.018270358 0.020146163 0.012716135 0.02466557 0.001787593 -0.21501362 0.21670976
0.074826464 0.03392332 0.114712305 -0.23928267 0.25554368 0.06431797 0.22596636 0.011482002
-0.25845382 0.20800778 -0.09816739 -0.15611659 0.20485792 -0.17336632 0.047193896 0.15862484
-0.21614708 0.048966717 -0.071060754 -0.21876377 -0.091358386 0.02133868 0.01201626 -0.1652682
0.13356306 0.13211684 -0.01008552 -0.071580626 -0.05660875 0.12946986 -0.073379494 -0.21967466
0.12688452 -0.23559758 0.09902961 -0.10787236 0.06737749 0.08021997 -0.041244157 -0.07811222
-0.03713935 -0.1108854 0.05710062 -0.042439274 -0.1647049 -0.046362124 0.09113082 -0.24006572
-0.046510633 -0.22650072 -0.09592699 -0.19740474 0.16795433 -0.219262 -0.18919758 0.07480951
0.16462994 0.070821345 0.061971452 0.007894163 0.13823055 -0.13715205 -0.045816667 0.0880706
-0.12826575 -0.03271203 0.029214418 0.016662275 0.08783893 0.08315932 0.12143339 -0.12906806
-0.16477723 0.15305403 0.19071586 -0.19426599 0.09960289 -0.007886263 -0.09983508 0.25425702
-0.05557533 0.15041082 0.10077793 -0.00922784 -0.2307686 -0.105258524 0.03988895 0.18714838
-0.043968055 0.062253032 0.1216572 0.07789054 -0.015096444 -0.2512392 -0.02937954 -0.05889196
-0.047343817 0.004982714 0.023552835 -0.15006585 0.19535345 -0.052780308 -0.12001362 0.24524108
0.032942057 0.03905116 -0.011623824 0.15547267 -0.026655788 0.008662348 0.054038737 0.093925744
0.018039506 -0.012773145 0.010279589 0.2562118 -0.2360765 0.07927222 -0.11111209 0.23001795
-0.06769399 -0.026346648 -0.09076423 0.24839906 0.10886928 0.12297307 0.084240556 0.026218502
-0.08356437 0.03651277 -0.012547212 0.2472327 -0.17881124 -0.15573587 0.05486794 0.0028642463
-0.07214597 -0.18113302 -0.14705664 -0.086059414 0.122796245 0.024893299 -0.03902767 0.09288915
0.22348127 0.119534865 -0.050721016 -0.21565169 0.052790187 0.17136614 -0.19437689 0.0077624354
0.081946224 -0.13829221 -0.21010558 0.21959569 0.03212161 0.23251489 -0.020473821 0.047467355
0.15955837 0.14140928 -0.13109419 0.16712864 -0.012746063 0.06627799 0.16828582 -0.116852544
-0.017040115 -0.14271097 0.07448271 -0.13381763 0.13176352 0.1896361 0.024097132 0.13533407
0.20148313 -0.03782341 0.07294208 0.20056812 0.13602674 0.03202324 0.218656 -0.14804733
-0.04156892 0.00048657903 -0.1392806 -0.0143508995 -0.023385921 -0.07129682 -0.04318438 -0.055944234
-0.031628173 0.050685655 -0.1500358 -0.11208857 0.06408022 0.13608453 -0.10868872 -0.19641203
0.19856325 -0.23442706 0.06431357 -0.19625045 -0.2524894 0.19850548 0.10181282 0.11377641
0.029241357 -0.06515001 -0.08451293 -0.12331325 0.07487955 0.26144513 0.023448488 -0.25582138
0.08993561 -0.035674393 -0.11788852 -0.095402665 -0.11843155 0.070118934 0.2270893 -0.11368215
-0.00023103974 -0.18980183 -0.11980866 -0.03896776 -0.17061087 -0.01911968 -0.06797569 0.24848251
0.17709978 -0.020356735 0.24804674 0.13173865 -0.19348158 0.041427482 0.041088846 -0.23011792
0.010000888 -0.0141516905 -0.104128726 -0.0024613205 0.0512902 -0.12579323 0.14414361 -0.22727162
00000000: 304f 173d b8ab 953c 9109 a53c 5657 503c
00000010: 730f ca3c ab4d ea3a 882c 5cbe 2ae9 5d3e
00000020: 9e3e 993d 2ef3 0a3d 49ee ea3d 8406 75be
00000030: 9fd6 823e 24b9 833d ba63 673e 021f 3c3c
00000040: 0f54 84be feff 543e fc0b c9bd 07dd 1fbe
00000050: 46c6 513e f186 31be 634e 413d 8d6e 223e
00000060: a955 5dbe 5391 483d 4d88 91bd 9c03 60be
00000070: 1b1a bbbd 75ce ae3c d9df 443c 113c 29be
00000080: c1c4 083e a349 073e bd3d 25bc dd98 92bd
00000090: 94de 67bd bf93 043e fd47 96bd 65f2 60be
000000a0: 04ee 013e 7e40 71be 09d0 ca3d 2fec dcbd
000000b0: 36fd 893d 5e4a a43d a2ef 28bd 4df9 9fbd
000000c0: 6e1f 18bd e217 e3bd 57e2 693d ced4 2dbd
000000d0: 67a8 28be 36e6 3dbd cca2 ba3d cad3 75be
000000e0: ef81 3ebd ceef 67be 5f75 c4bd 7824 4abe
000000f0: 38fc 2b3e 3886 60be 03bd 41be ba35 993d
00000100: c094 283e c80a 913d c7d5 7d3d 8556 013c
00000110: 4f8c 0d3e 9671 0cbe 42aa 3bbd 5c5e b43d
00000120: 1958 03be 0dfd 05bd 1353 ef3c 537f 883c
00000130: e6e4 b33d 6f4f aa3d 12b2 f83d 6b2a 04be
00000140: 5dbb 28be 32ba 1c3e 054b 433e aaed 46be
00000150: 9afc cb3d 6235 01bc 5676 ccbd fa2d 823e
00000160: f5a2 63bd 4b05 1a3e a964 ce3d 5e30 17bc
00000170: 9b4e 6cbe c891 d7bd 9862 233d d3a3 3f3e
00000180: d917 34bd 09fd 7e3d 6927 f93d 1385 9f3d
00000190: 1357 77bc 6da2 80be 5cad f0bc b238 71bd
000001a0: 97eb 41bd 0946 a33b e0f1 c03c ddaa 19be
000001b0: bc0a 483e 2a30 58bd b3c9 f5bd 7a20 7b3e
000001c0: 40ee 063d 1cf4 1f3d da71 3ebc 3a34 1f3e
000001d0: 3d5d dabc 85ec 0d3c b957 5d3d 245c c03d
000001e0: 96c7 933c 7446 51bc b96b 283c 312e 833e
000001f0: 0abe 71be 7959 a23d bc8e e3bd d389 6b3e
00000200: 26a3 8abd edd4 d7bc 99e2 b9bd 535c 7e3e
00000210: dbf6 de3d 4ed9 fb3d 5086 ac3d 2fc8 d63c
00000220: cc23 abbd 6a8e 153d d292 4dbc 922a 7d3e
00000230: 4b1a 37be 3979 1fbe 34bd 603d 14b6 3b3b
00000240: 44c1 93bd ef7a 39be 0496 16be eb3f b0bd
00000250: 997c fb3d 08ed cb3c 7adb 1fbd ab3c be3d
00000260: 46d8 643e b2ce f43d d7c0 4fbd ccd3 5cbe
00000270: 863a 583d 9b7a 2f3e bc0a 47be 075c fe3b
00000280: 6cd3 a73d 799c 0dbe eb25 57be b1dd 603e
00000290: f391 033d 6218 6e3e b7b8 a7bc 216d 423d
000002a0: 4563 233e 98cd 103e 8e3d 06be c523 2b3e
000002b0: ddd4 50bc c1bc 873d 1e53 2c3e 6350 efbd
000002c0: b697 8bbc d322 12be 648a 983d 7d07 09be
000002d0: 04ed 063e f72f 423e 5967 c53c 0495 0a3e
000002e0: 9851 4e3e b8ec 1abd a862 953d bb61 4d3e
000002f0: 984a 0b3e cd2a 033d 5ce7 5f3e b899 17be
00000300: 2c44 2abd 881b ff39 939f 0ebe 0920 6bbc
00000310: d593 bfbc 1104 92bd 1be2 30bd c825 65bd
00000320: 8b8c 01bd c39b 4f3d fca2 19be b18e e5bd
00000330: 7e3c 833d be59 0b3e 3198 debd 3c20 49be
00000340: 2a54 4b3e a60d 70be d5b6 833d e1f5 48be
00000350: 4a46 81be 0545 4b3e 3d83 d03d 9b03 e93d
00000360: 928b ef3c 5e6d 85bd 1d15 adbd a88b fcbd
00000370: 735a 993d 23dc 853e 0b17 c03c 05fb 82be
00000380: 2930 b83d 501f 12bd 896f f1bd 7962 c3bd
00000390: 3e8c f2bd 849a 8f3d 198a 683e 30d2 e8bd
000003a0: 4243 72b9 695b 42be 3e5e f5bd a89c 1fbd
000003b0: 9eb4 2ebe e0a0 9cbc d736 8bbd 3372 7e3e
000003c0: a559 353e 2bc3 a6bc f7ff 7d3e 7fe6 063e
000003d0: 0920 46be ddaf 293d c74c 283d 08a4 6bbe
000003e0: c4da 233c 7edc 67bc 7141 d5bd 1b4e 21bb
000003f0: ac15 523d f1cf 00be 629a 133e e4b9 68be

vae_decoder.decoder_input.bias f4 [64]
-0.031818114 -0.032102175 0.18339874 -0.08416421 -0.13706361 0.21748723 -0.086143054 0.23595257
-0.14590803 0.16177502 0.10710014 -0.20365027 -0.088300206 -0.16737641 -0.10038446 0.19884261
0.067165874 0.080397606 0.037380926 0.05241379 -0.17860918 -0.16611487 0.22331125 0.087804265
-0.03707409 -0.075288996 -0.020793896 0.1647885 -0.029181661 -0.098524556 0.114240766 -0.18174724
0.22118352 0.06575199 0.12817827 -0.0767051 0.017096762 0.05377919 0.2093575 -0.1323639
0.16079423 0.05381666 -0.23457439 -0.15649226 0.21152839 0.044603977 -0.025162805 -0.11988865
0.20561756 0.21362752 0.11825594 0.19746985 -0.21288544 -0.012082965 -0.21007064 -0.039896213
-0.1721661 -0.16340737 0.018487629 0.019555502 -0.2187988 0.21738172 -0.024799852 0.16083544
00000000: b653 02bd 927d 03bd e1cc 3b3e 495e acbd
00000010: 675a 0cbe f9b4 5e3e c56b b0bd 8d9d 713e
00000020: ea68 15be 5aa8 253e 5157 db3d b289 50be
00000030: bdd6 b4bd b964 2bbe 5e96 cdbd 669d 4b3e
00000040: 438e 893d 80a7 a43d be1c 193d d8af 563d
00000050: 53e5 36be 041a 2abe b4ab 643e b9d2 b33d
00000060: 00db 17bd 1e31 9abd f657 aabc 51be 283e
00000070: 610e efbc 3ec7 c9bd 10f7 e93d f31b 3abe
00000080: ef7d 623e fba8 863d 2a41 033e 9017 9dbd
00000090: 820e 8c3c 9147 5c3d d061 563e 678a 07be
000000a0: 3ea7 243e dc6e 5c3d 4534 70be 823f 20be
000000b0: e69a 583e a9b2 363d 3a22 cebc 2e88 f5bd
000000c0: 698d 523e 2cc1 5a3e 2c30 f23d 8935 4a3e
000000d0: a4fe 59be a1f7 45bc c21c 57be 366a 23bd
000000e0: 4f4c 30be 4354 27be 5e73 973c dc32 a03c
000000f0: cb0c 60be 5099 5e3e 0f29 cbbc 0cb2 243e

vae_decoder.batch_norm.weight f4 [64]
1.0 1.0 1.0 1.0 1.0 1.0 1.0 1.0
1.0 1.0 1.0 1.0 1.0 1.0 1.0 1.0
1.0 1.0 1.0 1.0 1.0 1.0 1.0 1.0
1.0 1.0 1.0 1.0 1.0 1.0 1.0 1.0
1.0 1.0 1.0 1.0 1.0 1.0 1.0 1.0
1.0 1.0 1.0 1.0 1.0 1.0 1.0 1.0
1.0 1.0 1.0 1.0 1.0 1.0 1.0 1.0
1.0 1.0 1.0 1.0 1.0 1.0 1.0 1.0
00000000: 0000 803f 0000 803f 0000 803f 0000 803f
00000010: 0000 803f 0000 803f 0000 803f 0000 803f
00000020: 0000 803f 0000 803f 0000 803f 0000 803f
00000030: 0000 803f 0000 803f 0000 803f 0000 803f
00000040: 0000 803f 0000 803f 0000 803f 0000 803f
00000050: 0000 803f 0000 803f 0000 803f 0000 803f
00000060: 0000 803f 0000 803f 0000 803f 0000 803f
00000070: 0000 803f 0000 803f 0000 803f 0000 803f
00000080: 0000 803f 0000 803f 0000 803f 0000 803f
00000090: 0000 803f 0000 803f 0000 803f 0000 803f
000000a0: 0000 803f 0000 803f 0000 803f 0000 803f
000000b0: 0000 803f 0000 803f 0000 803f 0000 803f
000000c0: 0000 803f 0000 803f 0000 803f 0000 803f
000000d0: 0000 803f 0000 803f 0000 803f 0000 803f
000000e0: 0000 803f 0000 803f 0000 803f 0000 803f
000000f0: 0000 803f 0000 803f 0000 803f 0000 803f

vae_decoder.batch_norm.bias f4 [64]
0.0 0.0 0.0 0.0 0.0 0.0 0.0 0.0
0.0 0.0 0.0 0.0 0.0 0.0 0.0 0.0
0.0 0.0 0.0 0.0 0.0 0.0 0.0 0.0
0.0 0.0 0.0 0.0 0.0 0.0 0.0 0.0
0.0 0.0 0.0 0.0 0.0 0.0 0.0 0.0
0.0 0.0 0.0 0.0 0.0 0.0 0.0 0.0
0.0 0.0 0.0 0.0 0.0 0.0 0.0 0.0
0.0 0.0 0.0 0.0 0.0 0.0 0.0 0.0
00000000: 0000 0000 0000 0000 0000 0000 0000 0000
00000010: 0000 0000 0000 0000 0000 0000 0000 0000
00000020: 0000 0000 0000 0000 0000 0000 0000 0000
00000030: 0000 0000 0000 0000 0000 0000 0000 0000
00000040: 0000 0000 0000 0000 0000 0000 0000 0000
00000050: 0000 0000 0000 0000 0000 0000 0000 0000
00000060: 0000 0000 0000 0000 0000 0000 0000 0000
00000070: 0000 0000 0000 0000 0000 0000 0000 0000
00000080: 0000 0000 0000 0000 0000 0000 0000 0000
00000090: 0000 0000 0000 0000 0000 0000 0000 0000
000000a0: 0000 0000 0000 0000 0000 0000 0000 0000
000000b0: 0000 0000 0000 0000 0000 0000 0000 0000
000000c0: 0000 0000 0000 0000 0000 0000 0000 0000
000000d0: 0000 0000 0000 0000 0000 0000 0000 0000
000000e0: 0000 0000 0000 0000 0000 0000 0000 0000
000000f0: 0000 0000 0000 0000 0000 0000 0000 0000

vae_decoder.batch_norm.running_mean f4 [64]
0.0 0.0 0.0 0.0 0.0 0.0 0.0 0.0
0.0 0.0 0.0 0.0 0.0 0.0 0.0 0.0
0.0 0.0 0.0 0.0 0.0 0.0 0.0 0.0
0.0 0.0 0.0 0.0 0.0 0.0 0.0 0.0
0.0 0.0 0.0 0.0 0.0 0.0 0.0 0.0
0.0 0.0 0.0 0.0 0.0 0.0 0.0 0.0
0.0 0.0 0.0 0.0 0.0 0.0 0.0 0.0
0.0 0.0 0.0 0.0 0.0 0.0 0.0 0.0
00000000: 0000 0000 0000 0000 0000 0000 0000 0000
00000010: 0000 0000 0000 0000 0000 0000 0000 0000
00000020: 0000 0000 0000 0000 0000 0000 0000 0000
00000030: 0000 0000 0000 0000 0000 0000 0000 0000
00000040: 0000 0000 0000 0000 0000 0000 0000 0000
00000050: 0000 0000 0000 0000 0000 0000 0000 0000
00000060: 0000 0000 0000 0000 0000 0000 0000 0000
00000070: 0000 0000 0000 0000 0000 0000 0000 0000
00000080: 0000 0000 0000 0000 0000 0000 0000 0000
00000090: 0000 0000 0000 0000 0000 0000 0000 0000
000000a0: 0000 0000 0000 0000 0000 0000 0000 0000
000000b0: 0000 0000 0000 0000 0000 0000 0000 0000
000000c0: 0000 0000 0000 0000 0000 0000 0000 0000
000000d0: 0000 0000 0000 0000 0000 0000 0000 0000
000000e0: 0000 0000 0000 0000 0000 0000 0000 0000
000000f0: 0000 0000 0000 0000 0000 0000 0000 0000

vae_decoder.batch_norm.running_var f4 [64]
1.0 1.0 1.0 1.0 1.0 1.0 1.0 1.0
1.0 1.0 1.0 1.0 1.0 1.0 1.0 1.0
1.0 1.0 1.0 1.0 1.0 1.0 1.0 1.0
1.0 1.0 1.0 1.0 1.0 1.0 1.0 1.0
1.0 1.0 1.0 1.0 1.0 1.0 1.0 1.0
1.0 1.0 1.0 1.0 1.0 1.0 1.0 1.0
1.0 1.0 1.0 1.0 1.0 1.0 1.0 1.0
1.0 1.0 1.0 1.0 1.0 1.0 1.0 1.0
00000000: 0000 803f 0000 803f 0000 803f 0000 803f
00000010: 0000 803f 0000 803f 0000 803f 0000 803f
00000020: 0000 803f 0000 803f 0000 803f 0000 803f
00000030: 0000 803f 0000 803f 0000 803f 0000 803f
00000040: 0000 803f 0000 803f 0000 803f 0000 803f
00000050: 0000 803f 0000 803f 0000 803f 0000 803f
00000060: 0000 803f 0000 803f 0000 803f 0000 803f
00000070: 0000 803f 0000 803f 0000 803f 0000 803f
00000080: 0000 803f 0000 803f 0000 803f 0000 803f
00000090: 0000 803f 0000 803f 0000 803f 0000 803f
000000a0: 0000 803f 0000 803f 0000 803f 0000 803f
000000b0: 0000 803f 0000 803f 0000 803f 0000 803f
000000c0: 0000 803f 0000 803f 0000 803f 0000 803f
000000d0: 0000 803f 0000 803f 0000 803f 0000 803f
000000e0: 0000 803f 0000 803f 0000 803f 0000 803f
000000f0: 0000 803f 0000 803f 0000 803f 0000 803f
