best_econ_time_series1.pt (torch, 212013 bytes, 38 tensors)

vae_encoder.batch_norm.weight f4 [16]
0	0x3f7db993	0.9911129
1	0x3f7f0424	0.99615693
2	0x3f7dd88e	0.9915856
3	0x3f7d9f7c	0.9907148
4	0x3f7d90d2	0.99049103
5	0x3f7df18d	0.991967
6	0x3f7e2932	0.9928161
7	0x3f7e1f25	0.9926627
8	0x3f81310d	1.0093094
9	0x3f7f1519	0.9964157
10	0x3f7e4f8f	0.99340147
11	0x3f7ed9c0	0.9955101
12	0x3f7d9b5c	0.99065185
13	0x3f7dc45d	0.9912775
14	0x3f7d8054	0.9902394
15	0x3f805c26	1.0028121

vae_encoder.batch_norm.bias f4 [16]
0	0x3c1ee110	0.009697214
1	0xbc166baf	-0.009180947
2	0xbc182f1b	-0.009288575
3	0xba078dac	-0.0005170952
4	0x3c02723b	0.007961805
5	0xbc1e40c1	-0.009658993
6	0x3bf11c41	0.0073581045
7	0x3c190384	0.009339217
8	0xbbb2a7e9	-0.0054521454
9	0xbc18b55e	-0.009320585
10	0xbbbbcb3f	-0.005731016
11	0xbc06c26e	-0.008225067
12	0x3b25fa90	0.002532635
13	0xbc0a9e47	-0.008460588
14	0xbc1b7d31	-0.009490297
15	0xbbaf19d4	-0.005343655

vae_encoder.batch_norm.running_mean f4 [16]
0	0x3ffb90f1	1.9653608
1	0x3ff592df	1.9185447
2	0x3eee2193	0.4650999
3	0x3f8f0880	1.1174469
4	0x3e3b7043	0.18304543
5	0x4000219a	2.0020509
6	0xbca7c020	-0.020477355
7	0x3fccc83f	1.599861
8	0x3fb896b1	1.4420987
9	0xbb30869e	-0.0026935707
10	0xbbb7a028	-0.005603809
11	0xbb451ca4	-0.0030076886
12	0x401c53f0	2.4426231
13	0x3f937024	1.1518598
14	0x3e9bc6e0	0.30425167
15	0xbc31da00	-0.010855198

vae_encoder.batch_norm.running_var f4 [16]
0	0x3dfbd3f3	0.122962855
1	0x3e0fef69	0.14056171
2	0x3ba240a8	0.0049515553
3	0x3ce708fc	0.028202526
4	0x3c507826	0.012723958
5	0x3db848b4	0.08998242
6	0x380092d7	3.0654333e-05
7	0x3da6d69b	0.081464015
8	0x3dd40997	0.103533916
9	0x37a7b321	1.9991365e-05
10	0x37b6eea2	2.1807213e-05
11	0x37acfb1f	2.0620935e-05
12	0x3e8830c6	0.2659971
13	0x3cfd8083	0.030945068
14	0x3cb8cf8c	0.022559904
15	0x37c3f071	2.3357776e-05

vae_encoder.encoder1.0.0.weight f4 [16, 906]
0	0xbbf84130	-0.0075761303
1	0xbc9ac387	-0.018892063
2	0xbc973b7f	-0.018460987
3	0x3c845eb3	0.016158437
4	0xbc16cf04	-0.00920463
5	0xbce84b6e	-0.02835628
6	0xbbdd02eb	-0.0067447326
7	0xbd141b51	-0.036158863
8	0x3ccce81f	0.025013028
9	0x3c4ff4fb	0.012692685
10	0x3c19bcf2	0.009383427
11	0xbb6f71a8	-0.003653625
12	0xbcd26cf3	-0.025686717
13	0xbc3c354e	-0.011487318
14	0xbcaa3661	-0.020777883
15	0x3d124aa9	0.035715733
16	0x3d1bdccd	0.03805237
17	0xbc454143	-0.012039485
18	0x3ca0fd70	0.019652098
19	0x3cfba741	0.030719401
20	0xbcae68ba	-0.021290172
21	0x3cbbb4b0	0.022913307
22	0x3d2a66f5	0.041602094
23	0x3c171e9e	0.009223608
24	0x3d1d2aae	0.03837078
25	0xbccb3cb5	-0.02480922
26	0x3ce6919e	0.028145608
27	0x3cd90181	0.026489975
28	0xbbb7ff02	-0.005615116
29	0xbc3d45ec	-0.011552315
30	0xbcad1770	-0.02112934
31	0x3c05c6c0	0.0081650615
32	0x3bd09944	0.006365927
33	0xbcdc8676	-0.026919585
34	0x3d129898	0.035790056
35	0x3b97be94	0.004630873
36	0x3c5751aa	0.013142029
37	0x3c4e9f8c	0.012611281
38	0x3cbaa043	0.022781497
39	0x3c11c288	0.0088964775
40	0x3ca40838	0.02002345
41	0x3c62866b	0.013825993
42	0x3c5a89f3	0.013338554
43	0x3d10a213	0.035310816
44	0xbc37cfb2	-0.011218952
45	0x3cce554b	0.025187155
46	0x3c9fa4a8	0.019487694
47	0x3c2ee9ac	0.010675829
48	0x3c256891	0.010095731
49	0x3d002adf	0.031290885
50	0x3bf930f2	0.0076047117
51	0x3d0d93e2	0.03456486
52	0x3c65a511	0.014016406
53	0x3cc34554	0.02383677
54	0x3d296e5f	0.041365024
55	0x3c946c15	0.018117944
56	0x3d22d59a	0.039754488
57	0xbbe6a257	-0.0070383954
58	0x3d037761	0.03209627
59	0xbcca331a	-0.02468257
60	0xbca5ffa6	-0.020263504
61	0x3c366a40	0.01113373
62	0xbb5c31a1	-0.0033598917
63	0x3c19baeb	0.009382944
64	0xbcc02429	-0.023454743
65	0x3ccb8a28	0.024846151
66	0xbcc859f1	-0.02445695
67	0x3d10ad20	0.035321355
68	0xbc728a3b	-0.0148034645
69	0x3d0857d4	0.033286884
70	0xbbd559f9	-0.0065109697
71	0xbcab0cf0	-0.020880193
72	0x3b52d754	0.0032171803
73	0xbd0c5fbb	-0.034270983
74	0x3ce1f039	0.027580367
75	0xbcc901a6	-0.024536919
76	0xbc8a3f15	-0.016875783
77	0x3c83c729	0.016086178
78	0x3d021433	0.031757545
79	0xbcd0331e	-0.025415
80	0x3c418fd0	0.011814073
81	0xbcbc5a15	-0.022992173
82	0xbcb49ff7	-0.022048933
83	0x3c1d9406	0.009617811
84	0x3d27b8d2	0.040947743
85	0xbd16a6f6	-0.03678032
86	0xbc27b0fb	-0.0102350665
87	0x3aa2092a	0.001236235
88	0xbb189570	-0.002328243
89	0x3c636ab1	0.013880418
90	0x3c397754	0.011319954
91	0xbc00dabb	-0.007864649
92	0x3d080ee4	0.033217326
93	0xbc78091d	-0.0151388915
94	0x3c8292e9	0.015939193
95	0x3ba21176	0.004945929
96	0xbc11b266	-0.008892631
97	0x3ca97fd6	0.02069084
98	0xbc76b6f8	-0.015058272
99	0x3cbabfa6	0.022796463
100	0xbceb1e64	-0.028701015
101	0xbb2a11ec	-0.0025950624
102	0xbca20fca	-0.01978292
103	0x3c3f73ec	0.011685353
104	0xbbfe6868	-0.007763911
105	0x3b97995e	0.004626437
106	0xbc4d094c	-0.012514424
107	0x3d00162e	0.031271152
108	0xbc225165	-0.009907101
109	0x3cb50d6b	0.022101125
110	0xbc00baef	-0.007857068
111	0x3d1ea2ff	0.038729664
112	0x3b649bc0	0.0034882873
113	0x3d277145	0.040879507
114	0x3a98dc41	0.001166232
115	0xbca6b679	-0.020350682
116	0x3cfdaf3f	0.030967353
117	0x3c323c1f	0.010878592
118	0xbbe095e0	-0.006853804
119	0xbc9e907b	-0.019356003
120	0x3be54d67	0.0069977525
121	0xbcf0674f	-0.029346136
122	0xbcd8107b	-0.026375046
123	0x3cb26be9	0.021779971
124	0xbc0ae499	-0.0084773535
125	0xbcbb597f	-0.022869824
126	0xbd02be33	-0.03191967
127	0xbb16da95	-0.0023018469
128	0xbce60edf	-0.028083263
129	0x3b44e51b	0.0030043784
130	0xbcc60873	-0.02417395
131	0x3b9bdc96	0.0047565205
132	0x3cbdd2dd	0.023171837
133	0xbc7ceb95	-0.0154370265
134	0x3aea5c95	0.0017880375
135	0x3cc3eb49	0.023915904
136	0x3b8499dc	0.004046662
137	0xbca876aa	-0.020564396
138	0x3c3d02ef	0.011536344
139	0x3cb43b20	0.02200085
140	0x3ccc20a6	0.024917912
141	0x3c6f7b1b	0.014616753
142	0xbbe314a4	-0.006929951
143	0xb9d115cc	-0.00039879826
144	0xbcba8e88	-0.022773042
145	0x3d0b9260	0.03407514
146	0x3d258850	0.0404132
147	0x3ced9f68	0.029006675
148	0x3d04b32e	0.03239744
149	0x3adbfc0a	0.0016783488
150	0x3cb85a65	0.022504041
151	0x3d094db9	0.033521388
152	0xbb64cce6	-0.0034912168
153	0xbc62fb0e	-0.013853801
154	0xbc6ef55c	-0.014584865
155	0x3c207bc8	0.009795137
156	0x3cea2152	0.028580341
157	0xbaeecf51	-0.0018219744
158	0xbb10c666	-0.002209091
159	0xbcb73ba8	-0.022367314
160	0xbb92a70d	-0.0044754804
161	0x3c5aa614	0.01334526
162	0xbca08a87	-0.019597305
163	0x3c0c5bb3	0.008566785
164	0x3d04cc04	0.032421127
165	0x3c23f4af	0.010007068
166	0x3c85143a	0.016244996
167	0x3d03f9b8	0.032220572
168	0x3c1eb5a6	0.009686863
169	0x3c1a4a0a	0.009417066
170	0x3c6a8fb5	0.014316489
171	0x3d03a35f	0.032138225
172	0xbc27ce74	-0.010242093
173	0xbca737c8	-0.02041234
174	0x3cd5336a	0.026025493
175	0x3cfefa44	0.031125195
176	0xbb89093b	-0.0041820086
177	0x3cb179f1	0.021664592
178	0x3cb3363a	0.021876443
179	0x3bcbe0d7	0.0062218714
180	0x3cc267c9	0.02373113
181	0x3cdae886	0.026722204
182	0xba81a3dc	-0.0009890753
183	0xbc94881f	-0.018131314
184	0xbc9f8126	-0.019470762
185	0x3cbd02ab	0.023072561
186	0xbcbdfeb9	-0.02319275
187	0xbb6fa3c1	-0.003656611
188	0x3c46d37c	0.012135383
189	0x3c751511	0.014958636
190	0xbc884864	-0.016636081
191	0x3cd5ffb6	0.026122909
192	0xbc463610	-0.01209785
193	0xbc4df087	-0.012569553
194	0xbcec9f18	-0.028884456
195	0x3cf5204b	0.029922625
196	0xbce59958	-0.028027222
197	0xbccc39e1	-0.024929943
198	0xbcaaa4ca	-0.02083053
199	0x3c972ad9	0.018453049
200	0x3c1f4bd3	0.009722668
201	0xbcff9806	-0.03120042
202	0xbc91bf23	-0.017791336
203	0x3c9a3a9d	0.018826777
204	0xbcde0f4e	-0.027106907
205	0x3bb6ceab	0.005578836
206	0xbcc2d91f	-0.023785172
207	0x3cfe0552	0.031008396
208	0xbcf7c667	-0.030245973
209	0x3cbd2fd4	0.023094095
210	0xbc942bab	-0.018087229
211	0xbc2388c1	-0.009981335
212	0x3bc2512a	0.0059300857
213	0x3c9be1cf	0.019028572
214	0xbc5ed08c	-0.013599526
215	0xbcb6ca95	-0.022313396
216	0xbc1b089e	-0.009462504
217	0x3ce41873	0.02784369
218	0xbcad277a	-0.021136988
219	0x3bf00418	0.0073247068
220	0x3cb566f0	0.022143811
221	0x3bf8457f	0.007576644
222	0x3cda3078	0.02663444
223	0x3b1dd422	0.002408274
224	0x3bfa2746	0.0076340763
225	0xbbc03493	-0.0058656423
226	0xbba5851b	-0.005051268
227	0xbc6e9d1b	-0.014563824
228	0xbb8618aa	-0.0040922957
229	0x3c9f4544	0.019442208
230	0xbcc4f8ce	-0.02404442
231	0x3beb5d6c	0.0071827676
232	0xbc05e002	-0.008171083
233	0x3c247424	0.010037456
234	0xbcda9570	-0.026682585
235	0xbc6a4c53	-0.014300424
236	0xbc7d4302	-0.01545787
237	0x3bca3e3b	0.006171969
238	0x38147000	3.5390258e-05
239	0xbc483fc3	-0.012222233
240	0x3b6fcdea	0.003659124
241	0xbd08f687	-0.03343823
242	0xbc8b719a	-0.017021943
243	0xbcccc672	-0.02499697
244	0x3cf029f9	0.02931689
245	0xbc80a420	-0.01570326
246	0xbc91c126	-0.017792296
247	0x3c229656	0.009923538
248	0xbc923548	-0.017847672
249	0x3c7b04c3	0.0153209595
250	0x3c4ada8a	0.012381205
251	0x3ca4ac16	0.020101588
252	0x3bd830f4	0.0065976325
253	0xbcd9b7d1	-0.026576908
254	0xbb56db23	-0.0032784424
255	0x3cd76fca	0.026298422

vae_encoder.encoder1.0.0.bias f4 [16]
0	0x3c619f3a	0.013770873
1	0xbbebb461	-0.0071931337
2	0x3c1e648a	0.009667525
3	0xbc3ff8d0	-0.011717036
4	0x3cea79dd	0.028622562
5	0xbcc93ace	-0.024564173
6	0x3c9c8c7e	0.01910996
7	0xbd0a1616	-0.03371247
8	0xbbce2204	-0.006290676
9	0xbc589e4c	-0.013221335
10	0x3cb9f529	0.02269991
11	0xb981b1fc	-0.00024737406
12	0xbce2a48d	-0.027666355
13	0xbc97564f	-0.018473772
14	0xbcb2d83b	-0.021831622
15	0x3c95f946	0.01830734

vae_encoder.encoder2.0.0.weight f4 [32, 16]
0	0x3e41b793	0.18917684
1	0xbcd975d9	-0.026545452
2	0xbdf3eb93	-0.119101666
3	0x3d9f2895	0.07771412
4	0xbdc76cc2	-0.09737541
5	0xbd069413	-0.03285606
6	0x3e78da45	0.24302013
7	0xbe46fb3e	-0.19431779
8	0x3db02a9c	0.08601877
9	0x3e2ae8aa	0.16690317
10	0x3e54099b	0.20706789
11	0x3dfb15cf	0.12260019
12	0x3e4d93f2	0.20075968
13	0x3d24cc41	0.040233854
14	0x3e3ab254	0.1823209
15	0x3d4c8f0f	0.04994112
16	0x3d92d133	0.07168808
17	0xbe636ef8	-0.222103
18	0x3e3d49ce	0.18485186
19	0x3e22be18	0.15892828
20	0x3c83c39f	0.01608449
21	0x3c0b0b7d	0.008486626
22	0x3e13a2eb	0.14417617
23	0x3e496052	0.1966565
24	0x3e3729fd	0.17887111
25	0xbe202748	-0.15639985
26	0xbdb5d396	-0.088782474
27	0xbe4a475a	-0.19753781
28	0xbe34d307	-0.17658626
29	0xbc739968	-0.014868118
30	0xbdeac8aa	-0.11464055
31	0xbe162a1f	-0.14664505
32	0xbe2b99b0	-0.16757846
33	0x3d933925	0.07188634
34	0x3e7098b1	0.23495747
35	0xbd8b93c9	-0.06815297
36	0xbe6f41af	-0.233649
37	0xbe766834	-0.24063188
38	0xbe3ad192	-0.18244007
39	0x3e1dc913	0.15408735
40	0xbd7da203	-0.061922085
41	0x3dc7cf89	0.09756381
42	0x3d89f4bf	0.06736135
43	0x3e146150	0.14490247
44	0xbda196cf	-0.078900926
45	0x3d8bcb73	0.06825914
46	0xbdf6e7f1	-0.12055958
47	0xbdbb680d	-0.091507055
48	0xbdf83823	-0.12120082
49	0xbdda72eb	-0.1066645
50	0xbe5ff44a	-0.21870533
51	0xbd268df1	-0.04066271
52	0xbe656a9d	-0.22403951
53	0x3d829a3a	0.06377073
54	0xbe125ce2	-0.14293244
55	0x3d4f7d3f	0.050656553
56	0x3e5b4fca	0.21417156
57	0xbe0f2303	-0.139782
58	0x3c908757	0.01764266
59	0x3e655604	0.22396094
60	0xbe7543df	-0.23951672
61	0x3e240795	0.16018517
62	0x3cd09ea6	0.025466274
63	0xbde6eac2	-0.11275245
64	0x3e0bfe01	0.13671114
65	0x3df412cd	0.119176485
66	0x3e715096	0.23565897
67	0xbe5987b7	-0.21243177
68	0x3dca1225	0.09866742
69	0x3e723c93	0.2365592
70	0x3d2b0268	0.04175034
71	0xbdd27711	-0.10276616
72	0xbbcaf621	-0.0061938916
73	0x3ded1b5c	0.11577484
74	0x3e2704c1	0.16310407
75	0x3dff25cb	0.1245838
76	0x3e18fb37	0.14939581
77	0xbe76cd68	-0.24101794
78	0xbc99b9de	-0.018765386
79	0xbb3b5115	-0.0028582264
80	0x3c3c809b	0.011505271
81	0xbe4693a3	-0.19392256
82	0x3d0eb5aa	0.034841217
83	0xbd15cfff	-0.036575314
84	0x3dc0648c	0.09394178
85	0x3d10c1d7	0.03534111
86	0xbd0bbc4f	-0.034115132
87	0x3e0d5426	0.13801631
88	0xbd66544f	-0.056232747
89	0xbe34f026	-0.17669734
90	0x3d4bbbcd	0.049739648
91	0xbe683fa9	-0.22680534
92	0x3dbaffe6	0.0913084
93	0x3ca6d8c9	0.020367043
94	0x3e668c31	0.22514416
95	0x3c2052ab	0.009785335
96	0xbe2daf6e	-0.16961452
97	0xbe539078	-0.20660579
98	0xbe74d80e	-0.23910543
99	0xbe3da60f	-0.18520378
100	0xbd9b32c4	-0.07578042
101	0x3e3b09ee	0.18265507
102	0xbe3b2865	-0.18277128
103	0xbe389551	-0.1802571
104	0x3d6f549e	0.058430307
105	0x3e1aec19	0.15129127
106	0xbe700d29	-0.2344252
107	0xbd2f7af0	-0.04284185
108	0x3e78f8ad	0.24313612
109	0xbd9fab92	-0.07796396
110	0x3e579679	0.21053495
111	0x3e3928d0	0.18081975
112	0xbdaa4c7a	-0.08315368
113	0xbe248aa4	-0.16068512
114	0x3e18ef46	0.14935026
115	0xbe427eaf	-0.18993638
116	0x3e5d75d1	0.21626975
117	0x3e62cfcc	0.2214958
118	0x3db52f33	0.08846893
119	0xbdfca0fc	-0.12335393
120	0x3c08620e	0.008324159
121	0xbe5a06b4	-0.2129162
122	0x3c197628	0.00936655
123	0xbe227598	-0.15865171
124	0xbdb89cdf	-0.09014296
125	0xbd974c08	-0.07387549
126	0xbe018319	-0.12647666
127	0xbd180e2b	-0.037122887
128	0xbaf881f6	-0.001895963
129	0x3de7b921	0.113146074
130	0x3dd4dd82	0.10393812
131	0x3cbbd42f	0.022928325
132	0x3e0a0736	0.13479313
133	0xbdba6d7d	-0.091029145
134	0x3db497ca	0.08818014
135	0xbe22947a	-0.15876952
136	0xbd652847	-0.055946615
137	0x3d3e4d1e	0.046460263
138	0x3e1d2a18	0.15348089
139	0xbdf76f70	-0.12081802
140	0xbe734ed1	-0.23760535
141	0x3d83b633	0.06431236
142	0x3e81b832	0.25335842
143	0xbe1ecbc4	-0.15507418
144	0x3e2a8869	0.16653599
145	0xbe7176bd	-0.23580451
146	0xbe261d9f	-0.16222237
147	0x3e74a28f	0.23890136
148	0x3d946ffe	0.07247923
149	0x3d74bdc7	0.0597513
150	0xbe074449	-0.13209642
151	0xbdb5d3e2	-0.08878304
152	0xbd822d2b	-0.06356271
153	0xbbf20c3a	-0.0073867114
154	0xbbda340c	-0.0066590365
155	0x3e1a2606	0.15053567
156	0xbdc48ab6	-0.095967695
157	0x3e63989c	0.22226185
158	0x3e419ee3	0.18908267
159	0x3e7c85bb	0.24660389
160	0xbded7f4d	-0.11596546
161	0x3e60cf79	0.21954145
162	0x3e1c69da	0.15274754
163	0xb88c0710	-6.677036e-05
164	0x3e228bd5	0.15873654
165	0xbd9e0e22	-0.07717539
166	0xbe16452b	-0.14674823
167	0xbe332c11	-0.17497279
168	0xbd8e2d02	-0.06942178
169	0x3e30197d	0.17197223
170	0xbd8a45e8	-0.06751615
171	0xbe40fcf1	-0.1884649
172	0x3e4b0b5e	0.19828555
173	0xbdc22550	-0.09479773
174	0xbd5a30b3	-0.0532691
175	0x3e6a3d49	0.22874941
176	0xbddef012	-0.108856335
177	0x3e5920b6	0.21203884
178	0x3dce52b2	0.10074367
179	0x3e217467	0.1576706
180	0xbe2c058e	-0.16798994
181	0xbc8d6054	-0.017257847
182	0xbe3c8c25	-0.18412836
183	0xbd93bae1	-0.07213379
184	0xbdbdfd0f	-0.09276783
185	0xbc806ed4	-0.015677847
186	0x3dffe76a	0.124953106
187	0xbe3b5770	-0.18295074
188	0x3e213f82	0.15746883
189	0x3e68922c	0.2271201
190	0x3d3f9db0	0.046781242
191	0xbddd270e	-0.10798465
192	0xbc0055c3	-0.007832947
193	0x3dd18ca9	0.10231907
194	0x3e012f37	0.12615667
195	0x3df532d2	0.11972584
196	0xbe5d363a	-0.21602717
197	0x3d432972	0.047646947
198	0xbe332177	-0.17493235
199	0x3e58ea00	0.21183014
200	0xbe53d107	-0.20685206
201	0x3d32de4a	0.043669023
202	0xbc468f22	-0.012119086
203	0x3e5e8d0c	0.21733493
204	0xbe2fc400	-0.17164612
205	0xbe6e6c7f	-0.23283575
206	0x3dcafaa2	0.09911086
207	0x3ded8bed	0.11598954
208	0xbde6728e	-0.11252318
209	0x3c88bc70	0.016691417
210	0xbd8f7490	-0.070046544
211	0x3e131b16	0.14365801
212	0x3b0a9788	0.0021147449
213	0xbe11b90d	-0.14230748
214	0x3dc51fb5	0.09625188
215	0x3e3ba83e	0.18325898
216	0xbd0b51ab	-0.03401343
217	0xbe3c7212	-0.1840289
218	0xbd64bd58	-0.055844635
219	0x3d296fae	0.04136627
220	0xbe6c7782	-0.23092464
221	0x3e0182ff	0.12647627
222	0xbe29f6d5	-0.16598065
223	0xbda28e9d	-0.079373576
224	0x3e484b5a	0.19559994
225	0xbe1bd5a6	-0.15218219
226	0xbd5afa5b	-0.053461414
227	0xbe1d1de4	-0.15343434
228	0x3e4dd44d	0.20100518
229	0xbe2e1916	-0.17001757
230	0xbc149808	-0.00906945
231	0x3e459f1c	0.19298977
232	0x3c1235e7	0.008923984
233	0xbe564d08	-0.20927823
234	0xbe02394c	-0.1271717
235	0xbc064fdb	-0.00819775
236	0xbe355b9a	-0.17710724
237	0x3e6e209b	0.23254625
238	0x3dface86	0.122464225
239	0x3e55dc39	0.2088479
240	0xbe03709a	-0.12835923
241	0x3bf9dfcc	0.0076255556
242	0x3d6b3e40	0.057432413
243	0xbdd73c14	-0.10509506
244	0x3e0de6ed	0.13857622
245	0x3c4ac964	0.012377117
246	0x3e6ab3e8	0.22920191
247	0x3e0702ef	0.13184713
248	0x3e291ddc	0.16515297
249	0xbc2c1464	-0.010502908
250	0x3d50ccc4	0.05097653
251	0x3e6eb717	0.2331203
252	0x3cb36b4c	0.02190175
253	0xbe1de391	-0.15418841
254	0xbdb5cdf1	-0.08877171
255	0xbd66f690	-0.056387484

vae_encoder.encoder2.0.0.bias f4 [32]
0	0x3d8b1842	0.06791736
1	0xbe44cba8	-0.19218314
2	0x3e4a04c4	0.1972838
3	0x3b83e352	0.0040249014
4	0xbd1bb575	-0.038014848
5	0x3e50670f	0.20351814
6	0xbb7960f8	-0.0038052183
7	0xbe5bd4b0	-0.21467853
8	0xbdaaec06	-0.08345799
9	0xbdecb823	-0.11558559
10	0x3e6016c6	0.21883687
11	0xbd294c94	-0.041332796
12	0xbd29a528	-0.04141727
13	0x3e1ef154	0.15521747
14	0x3cce2555	0.025164286
15	0x3dffb01d	0.12484763
16	0x3c6bf327	0.014401234
17	0xbc5e2289	-0.0135580385
18	0x3def0e2c	0.11672625
19	0xbe35ef07	-0.17766963
20	0x3d898d55	0.0671641
21	0x3e069d3a	0.13145915
22	0xbe7d7ca0	-0.24754572
23	0xbca54184	-0.020172842
24	0xbe459b4c	-0.19297522
25	0x3cb25c9a	0.021772671
26	0xbdbeb42f	-0.09311711
27	0x3e19b8ce	0.15011904
28	0x3e08cf0d	0.13360234
29	0xbe06d301	-0.13166429
30	0x3e73fdc7	0.23827277
31	0x3d30358d	0.04301982

vae_encoder.encoder2.1.0.weight f4 [64, 32]
0	0x3daab01e	0.08334373
1	0x3c7504a3	0.014954719
2	0xbd34704d	-0.04405241
3	0xbd886900	-0.06660652
4	0x3e0be92c	0.13663167
5	0xbcd5caa1	-0.026097598
6	0x3bac1181	0.00525111
7	0xbe0d5521	-0.13802005
8	0x3df75d54	0.12078348
9	0xbe059597	-0.13045345
10	0xbca41fc4	-0.020034678
11	0xbdca67c3	-0.09883072
12	0x3ce30e0d	0.02771666
13	0x3e0b265d	0.13588853
14	0xbe19c674	-0.1501711
15	0xbe259713	-0.16170911
16	0x3da3714f	0.07980596
17	0xbccd3152	-0.025047932
18	0x3d8ba36c	0.068182796
19	0x3e0e548e	0.13899443
20	0xbe14e2e1	-0.14539672
21	0x3d1168de	0.0355004
22	0xbc50cde4	-0.012744401
23	0x3c72850c	0.014802229
24	0x3db7e4b7	0.08979171
25	0xbdc21c3f	-0.09478044
26	0x3e0e5c97	0.13902508
27	0xbdada061	-0.084778555
28	0x3d02a2e6	0.031893633
29	0x3e2544af	0.16139482
30	0xbdf363de	-0.118842825
31	0xbe27c980	-0.1638546
32	0x3d8925fa	0.066966966
33	0xbdbcad5a	-0.09212752
34	0xbe04d9a9	-0.12973656
35	0xbd6e91d0	-0.058244526
36	0x3e0298ec	0.12753648
37	0xbc963669	-0.018336492
38	0x3bf36eac	0.0074289646
39	0xbc85c9bf	-0.016331552
40	0x3e0201c9	0.12695993
41	0xbdb29fd5	-0.08721892
42	0xbcb65d9c	-0.022261433
43	0xbe2746a8	-0.16335547
44	0xbdd18627	-0.10230666
45	0xbd9bf179	-0.07614417
46	0x3d7faa25	0.06241812
47	0xbddcaa07	-0.10774618
48	0x3aa43302	0.0012527409
49	0x3d82ecde	0.06392835
50	0xbe12acd1	-0.14323737
51	0xbe2c4eb0	-0.16826892
52	0x3d645bd3	0.055751633
53	0x3de5cf31	0.11221159
54	0xbd1f9556	-0.038960777
55	0xbe17c7b3	-0.14822273
56	0xbcebdf2e	-0.028792944
57	0x3db0bdcd	0.086299516
58	0x3d011f4f	0.031524
59	0x3cdfa96f	0.027302472
60	0x3cd220bc	0.025650375
61	0x3ce5846b	0.028017243
62	0x3e27fd08	0.16405118
63	0xbdf0af87	-0.11752229
64	0xbd89eeb9	-0.06734986
65	0xbe099caa	-0.13438669
66	0xbcd4c49e	-0.02597266
67	0x3dff4c41	0.12465716
68	0xbdcb46d3	-0.09925618
69	0xbe156270	-0.14588332
70	0x3e224f49	0.15850557
71	0x3bb6706d	0.0055676014
72	0x3d5db765	0.054129977
73	0x3d24d281	0.040239815
74	0x3c306dcf	0.010768368
75	0xbd3fcafc	-0.04682444
76	0x3d86e5c2	0.065867916
77	0x3d892fc5	0.066985644
78	0x3e14c303	0.14527516
79	0xbda20ccc	-0.07912597
80	0xbe0032f7	-0.12519442
81	0x3d5a58ee	0.053307466
82	0xbdb3b778	-0.08775228
83	0xbc3af16d	-0.011410099
84	0xbd0c2c4c	-0.034221932
85	0x3da7afb2	0.08187808
86	0xbe18a5a7	-0.14906941
87	0x3d384a06	0.04499247
88	0xbddcf044	-0.107880145
89	0xbc047994	-0.008085627
90	0x3dfd022c	0.1235393
91	0xbdb94f53	-0.09048333
92	0x3d5ee2c3	0.054415476
93	0x3dfffef9	0.12499804
94	0x3a9fb942	0.0012185948
95	0xbd89dffa	-0.06732173
96	0xbe0139df	-0.12619732
97	0x3d192c0d	0.037395526
98	0x3db2fe4e	0.08739911
99	0x3ded049b	0.11573144
100	0xbd25305f	-0.040329333
101	0xbb8225e9	-0.0039718044
102	0xbe37ac07	-0.17936717
103	0x3dfa2a4f	0.12215101
104	0x3db858f2	0.0900134
105	0xbbb05d41	-0.0053822105
106	0x3e00de00	0.12584686
107	0xbcf623b3	-0.03004632
108	0xbdc72ec4	-0.09725717
109	0xbd225938	-0.039635867
110	0xbde47a1d	-0.11156104
111	0x3e0f6257	0.14002357
112	0x3dd8b840	0.10582018
113	0x3c44a765	0.012002801
114	0xbd5cf4ff	-0.053944584
115	0x3dd66166	0.10467796
116	0x3cf1b73a	0.029506315
117	0x3c60a3d5	0.013710936
118	0xbe2da48d	-0.16957302
119	0xbcf261be	-0.029587623
120	0x3dfe2e7e	0.124112114
121	0x3da5b658	0.0809142
122	0x3ca739be	0.020413276
123	0x3e1a8731	0.15090634
124	0xbdd52280	-0.10406971
125	0x3dd9b1df	0.10629629
126	0xbe1100d8	-0.14160478
127	0x3d89868d	0.06715117
128	0x3d18bf4e	0.037291817
129	0x3dab22e2	0.08356263
130	0xbe0cb276	-0.13739952
131	0x3e1b1407	0.15144359
132	0xbb046fa7	-0.0020208152
133	0xbdde60bb	-0.108582936
134	0xbdcc0a20	-0.09962869
135	0xbe0a257a	-0.13490859
136	0xbd980a5d	-0.07423852
137	0xbd8ca104	-0.06866649
138	0xbb839648	-0.0040157177
139	0xbc3f1c29	-0.011664429
140	0xbd3375a5	-0.043813366
141	0xbd78f644	-0.060781732
142	0xbc543f41	-0.012954534
143	0xbdafa920	-0.0857718
144	0x3d6b3c32	0.057430454
145	0x3d499424	0.049213544
146	0x3d909cd9	0.07061166
147	0xbe084e5e	-0.13311145
148	0x3e09e5b0	0.13466525
149	0x3ddf9f27	0.10919028
150	0x3e03dc11	0.12876917
151	0xbda34031	-0.07971228
152	0xbd5514c2	-0.05202175
153	0xbdd365e5	-0.10322169
154	0xbdf51099	-0.119660564
155	0xbe2b3c32	-0.16722181
156	0x3e098eab	0.1343333
157	0xbd587a01	-0.052850727
158	0x3d8634d4	0.06553045
159	0x3e02abb0	0.12760806
160	0x3d710073	0.05883832
161	0xbd8c0f13	-0.06838813
162	0xbc7e80c6	-0.015533632
163	0xbe0ae9d2	-0.13565758
164	0xbe320dc7	-0.17388068
165	0x3d9aceae	0.07558952
166	0x3dc95185	0.09830002
167	0x3dbe3e8d	0.09289274
168	0xbd4ec819	-0.050483797
169	0x3b20d2e3	0.002453976
170	0xbe0f9975	-0.14023383
171	0xbddcbd92	-0.10778345
172	0xbe087978	-0.13327587
173	0xbd187e7d	-0.037230004
174	0xbe33980f	-0.17538475
175	0x3c114507	0.008866555
176	0xbdeb0cc4	-0.11477044
177	0x3d6c4e17	0.05769166
178	0xbe035391	-0.12824847
179	0xbdcc4e74	-0.09975901
180	0xbce844ef	-0.028353183
181	0x3da71c44	0.08159688
182	0xbd819fc2	-0.063292995
183	0x3cf7f373	0.030267453
184	0xbd4ed589	-0.05049661
185	0xbd7d5090	-0.06184441
186	0x3d1963f2	0.03744883
187	0x3e2576ab	0.1615855
188	0xbdc0d380	-0.094153404
189	0xbe20fe12	-0.1572192
190	0x3e0dc529	0.13844742
191	0x3daae1bb	0.08343836
192	0xbe37d6b0	-0.1795299
193	0xbd360f8f	-0.04444843
194	0xbba38fa0	-0.0049914867
195	0xbd985a89	-0.07439143
196	0x3df8ffb7	0.12158149
197	0xbdabc509	-0.08387191
198	0xbe0bcd7b	-0.13652603
199	0xbe127182	-0.14301112
200	0x3e067cce	0.13133547
201	0xbd05fd75	-0.03271242
202	0xbe0fd635	-0.14046557
203	0x3ce1a370	0.027543753
204	0xbcb77bc5	-0.022397885
205	0xbe2c8d8f	-0.16850875
206	0xbd23e22e	-0.040010624
207	0xbdede4ab	-0.116158806
208	0xbcbd5e84	-0.023116358
209	0xbe276464	-0.1634689
210	0xbdaa6004	-0.08319095
211	0x3e1dae4d	0.15398522
212	0xbde5b175	-0.11215488
213	0x3de54bfb	0.11196133
214	0xbd7feba9	-0.062480602
215	0xbe0062f1	-0.12537743
216	0xbd0138c8	-0.03154829
217	0xbc8253fe	-0.015909191
218	0x3dd1bfad	0.102416374
219	0xbd1c27b3	-0.038123798
220	0xbcb86178	-0.022507414
221	0x3e2d8aa1	0.16947414
222	0xbe1941a2	-0.14966443
223	0xbe29c229	-0.16577972
224	0x3bff1e68	0.007785607
225	0x3b2dd0b2	0.0026522097
226	0xbd6a122f	-0.057146247
227	0xbe2baa26	-0.16764125
228	0xbd864b67	-0.065573506
229	0xbdfaeb25	-0.122518815
230	0xbe1900fa	-0.14941779
231	0x3c1b2f2d	0.009471697
232	0xbe0962e1	-0.13416626
233	0xbdc6b998	-0.09703368
234	0xbac46248	-0.0014982903
235	0x3d98be6b	0.07458194
236	0x3bbe0d9d	0.0057999627
237	0xbbcd9df6	-0.006274934
238	0x3e18797c	0.14890093
239	0xbb9d56b6	-0.0048015965
240	0xbe1adc71	-0.15123154
241	0x3d848ebd	0.06472538
242	0xbd4222f2	-0.047396608
243	0x3e2fc79c	0.17165989
244	0x3d1e8861	0.03870428
245	0xbdb4cc7e	-0.08828066
246	0xbdd9208f	-0.10601913
247	0xbe3213e9	-0.17390408
248	0x3da523d7	0.080634765
249	0xbdb56514	-0.0885717
250	0xbdf9b6dd	-0.121930815
251	0x3d75406d	0.059875894
252	0xbd87271f	-0.06599259
253	0x3e02f4ce	0.12788698
254	0x3d4ab3c7	0.049487855
255	0xbdf9bb68	-0.12193948

vae_encoder.encoder2.1.0.bias f4 [64]
0	0x3cf5106a	0.029915053
1	0x3dd56902	0.10420419
2	0xbc118e30	-0.008883998
3	0x3d408d0b	0.04700951
4	0x3df41c1f	0.11919426
5	0xbd0d86d8	-0.034552425
6	0xbd243949	-0.040093694
7	0xbe3962b5	-0.1810406
8	0x3e0234c9	0.12715448
9	0xbda6e21f	-0.08148598
10	0xbded8ab5	-0.11598722
11	0xbe1380ea	-0.14404646
12	0xbe35d6bb	-0.17757694
13	0xbdc31157	-0.09524792
14	0xbdb94311	-0.09045995
15	0xbd2a18a1	-0.041527394
16	0xbdc0f557	-0.09421795
17	0x3dce86f5	0.10084335
18	0xbd36d7d6	-0.04463943
19	0x3dc4f066	0.09616165
20	0xbd47d491	-0.048786703
21	0xbda7a94a	-0.08186586
22	0xbd137ddb	-0.036008697
23	0x3e24969e	0.16073081
24	0xbe1b7685	-0.1518193
25	0xbe103a09	-0.14084639
26	0x3da00dfe	0.07815169
27	0xbdb33bda	-0.0875165
28	0xbda411af	-0.080111854
29	0xbe2a270c	-0.16616458
30	0x3ddf5c0d	0.10906229
31	0xbdc5da88	-0.09660822
32	0x3d34755e	0.044057243
33	0xbd96b1f1	-0.073581584
34	0xbd9176e0	-0.07102752
35	0x3bcf6c6f	0.006330065
36	0x3da7b64a	0.08189066
37	0x3c893457	0.01674859
38	0x3ccb0b95	0.024785796
39	0x3d8a63eb	0.06757339
40	0xbe0a7bc1	-0.13523771
41	0xbde567b4	-0.112014204
42	0xbe35371c	-0.17696804
43	0xbdeeffef	-0.11669909
44	0xbd022cd2	-0.031781025
45	0xbe0a0fea	-0.13482633
46	0xbd0d30e2	-0.034470446
47	0xbd4937f5	-0.04912563
48	0xbc09a75b	-0.008401717
49	0x3dffa67b	0.124829255
50	0x3dd022ba	0.101628736
51	0x3d76232d	0.06009214
52	0xbd830b59	-0.06398649
53	0x3dd0114a	0.101595476
54	0x3e232998	0.15933836
55	0xbc0dbafa	-0.008650536
56	0x3dfe6ac8	0.12422711
57	0xbd20d1a2	-0.03926242
58	0xbe20b0f6	-0.15692505
59	0x3dd1565f	0.10221552
60	0xbd165923	-0.0367061
61	0x3e196987	0.14981662
62	0xbca721f0	-0.020401925
63	0x3e1b40a7	0.15161382

vae_encoder.fc_mu.weight f4 [28, 64]
0	0x3c678f45	0.014133279
1	0xbce35865	-0.02775211
2	0xbd109e8b	-0.03530745
3	0xbd8c4563	-0.06849172
4	0xbd4fde98	-0.05074939
5	0xbdbff733	-0.093733214
6	0xbd732f16	-0.059371077
7	0x3d171e4c	0.036894128
8	0x3d58e58f	0.0529533
9	0xbd2eab32	-0.042643733
10	0xbd8eac9c	-0.069665164
11	0xbd8653dd	-0.065589644
12	0xbd67c962	-0.056588538
13	0xbc7bfa77	-0.01537954
14	0xbd183372	-0.037158437
15	0xbcae407b	-0.021270981
16	0xbd737585	-0.059438247
17	0xbc47b632	-0.012189435
18	0xbd71ae2a	-0.059003986
19	0xbda51e8b	-0.08062466
20	0xbd5e5dcd	-0.054288674
21	0xbdd0f0f7	-0.102022104
22	0xbd0175f9	-0.031606648
23	0x3dcd1fff	0.100158684
24	0xbd624889	-0.055244956
25	0xbd9e690c	-0.0773488
26	0xbd8fa71a	-0.07014294
27	0x3db9ec65	0.09078292
28	0x3d135aff	0.035975453
29	0xbcc69083	-0.02423883
30	0x3ce210d3	0.027595913
31	0xbb26129e	-0.0025340687
32	0xbdea9d1f	-0.1145575
33	0xbd40b131	-0.047043983
34	0x3c8d4188	0.017243162
35	0xbb993adb	-0.0046762056
36	0xbcb04598	-0.02151756
37	0x3cb743a0	0.022371113
38	0x3d348426	0.04407134
39	0x3d518749	0.05115441
40	0xbd80c78a	-0.06288059
41	0x3df436b6	0.11924498
42	0x3dfbfd87	0.12304216
43	0x3c94e962	0.018177692
44	0x3c8150c4	0.015785582
45	0xbdebda0b	-0.11516198
46	0xbda4783c	-0.080307454
47	0x3d910c72	0.07082452
48	0x3db193a8	0.08670741
49	0x3daedb5f	0.085379355
50	0xbd2b5851	-0.041832272
51	0x3dbfc524	0.093637735
52	0xbc654c84	-0.0139952935
53	0xbd550153	-0.052003216
54	0x3dd56444	0.10419515
55	0xbd4dfddb	-0.050290924
56	0xbdd70660	-0.10499263
57	0xbd52ff64	-0.05151309
58	0xbd3398fb	-0.043847065
59	0xbd8c3567	-0.06846123
60	0x3c4102b0	0.011780426
61	0xbc6aa0cd	-0.014320564
62	0xbdfb7eea	-0.12280066
63	0xbd87c6c6	-0.0662971
64	0xbda2e2ff	-0.07953452
65	0x3e0727ab	0.13198726
66	0x3d8ea18b	0.069644056
67	0x3c332843	0.010934892
68	0x3df4121d	0.11917517
69	0x3dabfc6e	0.083977565
70	0x3c50d554	0.012746174
71	0x3deaa6cd	0.11457596
72	0xbc946134	-0.018112756
73	0x3b30d0b7	0.0026979872
74	0x3c0d69c4	0.0086311735
75	0x3d24f704	0.040274635
76	0xbbfa65e8	-0.0076415427
77	0x3dab6af2	0.083700076
78	0x3d3935b2	0.045217223
79	0xbdd0395f	-0.10167193
80	0xbddcb8a8	-0.10777408
81	0x3de9cc64	0.114159375
82	0xbd581578	-0.05275485
83	0x3cfa597e	0.030560251
84	0xbd13dc18	-0.03609857
85	0x3d62f1c9	0.055406366
86	0x3dda1c55	0.10649935
87	0xbd8cf25c	-0.06882164
88	0x3daeebb1	0.08541048
89	0x3cf63883	0.030056244
90	0xbd865da0	-0.06560826
91	0xbda6061b	-0.08106633
92	0xbdde1171	-0.108431704
93	0xbd547f31	-0.05187911
94	0x3b9c804e	0.0047760373
95	0xbda6577a	-0.081221536
96	0xbc1b4435	-0.009476711
97	0xbd9b2948	-0.07576233
98	0x3d3fd6b1	0.046835605
99	0xbd8c471a	-0.06849499
100	0xbdb3a02a	-0.08770783
101	0xbd66b237	-0.056322303
102	0xbcc7bac8	-0.024381056
103	0xbc2a7fa1	-0.010406406
104	0xbc611b21	-0.013739378
105	0x3d265a53	0.040613484
106	0x3bc37ea5	0.005966025
107	0x3dcec766	0.10096626
108	0x3db293e4	0.08719614
109	0xbd59e56b	-0.053197306
110	0x3c77186f	0.015081509
111	0xbc301d23	-0.010749134
112	0x3df8df40	0.121519566
113	0x3d1f7397	0.038928594
114	0xbda6c3d5	-0.08142821
115	0xbca26613	-0.019824063
116	0x3db97189	0.09054858
117	0x3d567ba2	0.052364
118	0x3d0d7572	0.034535833
119	0x39bf18cc	0.00036448834
120	0x3cc30671	0.023806782
121	0xbd5a2028	-0.053253323
122	0x3bbe90e4	0.005815612
123	0x3da76be0	0.081748724
124	0xbda2d0d9	-0.07949991
125	0x3d5f4d76	0.054517232
126	0xbdb8f758	-0.09031552
127	0x3df1b2ab	0.11801656
128	0xbda9e613	-0.08295836
129	0x3c597709	0.013273009
130	0xbdd0f4ff	-0.10202979
131	0x3d8b9728	0.0681594
132	0xbdb0ef99	-0.086394496
133	0xbd11fd3f	-0.035641905
134	0x3ce0d19d	0.027443701
135	0x3cdb6bbb	0.026784768
136	0x3ca102f5	0.01965473
137	0xbda3f35c	-0.080054015
138	0xbd936121	-0.0719626
139	0x3d06e435	0.03293248
140	0xbd5d677f	-0.05405378
141	0xbb8fe870	-0.0043917224
142	0x3d7a6ae9	0.061137114
143	0xbc23c8a4	-0.009996567
144	0xbba3ad08	-0.004994992
145	0x3cccda99	0.02500658
146	0x3cb5ffb6	0.022216659
147	0x3ca13b79	0.01968168
148	0x3dd66f94	0.104705006
149	0xbcba5312	-0.02274469
150	0x3d5cc34b	0.053897183
151	0xbdd32625	-0.1031001
152	0x3c31799e	0.010832218
153	0x3de18de6	0.11013393
154	0x3ddd0771	0.10792435
155	0xbc94f000	-0.018180847
156	0x3da34528	0.07972175
157	0x3d620eb5	0.055189807
158	0xbaf836e6	-0.001893726
159	0xbd973ea2	-0.07384993
160	0x3dc97113	0.0983602
161	0x3d5c3981	0.053765777
162	0x3dcbd0e3	0.09951951
163	0xbd8ba7b5	-0.06819097
164	0x3cdcee6c	0.026969157
165	0xbd567cf9	-0.052365277
166	0xbd844cfb	-0.06459995
167	0x3c0ba28f	0.008522644
168	0x3d06dd77	0.03292605
169	0xbb37fa81	-0.0028072896
170	0xbb1f3943	-0.0024295605
171	0x3d70443a	0.058658816
172	0xbd95dd4c	-0.073176
173	0x3d572c20	0.052532315
174	0xbdd3c164	-0.10339621
175	0xbdcfec6c	-0.10152516
176	0x3d3acefd	0.045607556
177	0x3dc5c582	0.09656812
178	0xbc21af85	-0.009868507
179	0x3da085b7	0.07838004
180	0x3dab6c92	0.083703175
181	0x3d94ae78	0.0725984
182	0x39a08ba8	0.0003062163
183	0x3c682c23	0.014170679
184	0xbddeef68	-0.10885507
185	0x3c995401	0.018716814
186	0x3d35aadb	0.044352394
187	0x3df3006f	0.11865317
188	0x3db12e82	0.08651449
189	0xbdd95d77	-0.1061353
190	0x3b8778dc	0.0041342806
191	0xbd072204	-0.032991424
192	0x3d820aad	0.063496925
193	0x3c936893	0.0179942
194	0x3c8c2e71	0.017111989
195	0xbdf143d4	-0.11780515
196	0x3d4f85af	0.0506646
197	0xbd86290d	-0.065507986
198	0x3d70775d	0.058707584
199	0x3d843c43	0.064568065
200	0x3dd6d5f3	0.10490026
201	0xbd854395	-0.06507031
202	0x3cf65b7f	0.030072926
203	0xbc7c86a7	-0.015412963
204	0x3d8efa2a	0.06981309
205	0x3d807d92	0.06273951
206	0x3ce98d27	0.02850969
207	0xbd871932	-0.065966025
208	0x3d6830eb	0.056687277
209	0x3d951725	0.07279805
210	0x3daa7f1e	0.08325027
211	0x3afd1e6f	0.0019311438
212	0x3d5acc99	0.053417776
213	0xbcbc84f8	-0.023012623
214	0xbda6d42c	-0.08145937
215	0x3da35984	0.07976058
216	0x3bff275c	0.0077866744
217	0xbd4f59d9	-0.050622795
218	0x3dd8784d	0.105698206
219	0x3d3eb0c2	0.046555288
220	0xbdb104f0	-0.0864352
221	0x3c63d422	0.013905557
222	0x3d68fc23	0.05688108
223	0x3ccefb2a	0.025266249
224	0x3d155f8b	0.03646807
225	0xbd202685	-0.039099235
226	0xbd93c844	-0.07215932
227	0x3d305695	0.04305132
228	0xbd87adaa	-0.06624921
229	0xbd318c6c	-0.043346807
230	0x3dc6b27e	0.097020134
231	0x3cc3cdb1	0.023901792
232	0xbdacbd75	-0.084345736
233	0x3ccac852	0.024753723
234	0x3d948c9c	0.072533816
235	0xbd3ee93d	-0.046609152
236	0xbc90e33d	-0.01768648
237	0xbdf91a32	-0.121631995
238	0x3d9cd319	0.07657451
239	0x3cf51278	0.029916033
240	0xbd011fc0	-0.03152442
241	0xbc30b59e	-0.010785488
242	0xbd0a9f96	-0.0338436
243	0xbdfa6d8f	-0.12227928
244	0x3de2f102	0.11081125
245	0x3d050232	0.032472797
246	0xbd56115a	-0.05226264
247	0x3d4c2b83	0.049846184
248	0x3dd0512b	0.101717316
249	0x3d7e8058	0.062134117
250	0x3bc94e41	0.006143362
251	0xbdfee865	-0.124466695
252	0x3c136ab9	0.008997613
253	0x3dd4c617	0.10389345
254	0xbe058281	-0.13038065
255	0xbcd84f5b	-0.026405027

vae_encoder.fc_mu.bias f4 [28]
0	0x3d8baeae	0.06820427
1	0xbdbb0e0c	-0.091335386
2	0xbbe7ec7f	-0.007077753
3	0xbc92801f	-0.017883359
4	0xbbeff399	-0.0073227403
5	0x3dabfebb	0.08398195
6	0xbdb8ea1d	-0.090290286
7	0xbd61b663	-0.05510558
8	0xbdd5d04b	-0.10440119
9	0xbdd0b8ee	-0.101915225
10	0x3dceb06c	0.100922436
11	0xbd22fad4	-0.03978999
12	0xbbed03fe	-0.007233142
13	0x3d0c78f0	0.034295022
14	0x3d21d3c1	0.039508585
15	0x3c449a5f	0.011999696
16	0xbdb685cb	-0.08912238
17	0x3de80007	0.1132813
18	0xbd5bb31d	-0.053637613
19	0x3cb476b7	0.022029264
20	0xbd4f90c9	-0.050675187
21	0xbcd162ea	-0.025559861
22	0x3d7b3c30	0.061336696
23	0xbc801473	-0.015634751
24	0xbdd5923e	-0.10428284
25	0x3dc5a12b	0.09649881
26	0x3d78c56a	0.060735144
27	0x3d58fa04	0.05297281

vae_encoder.fc_var.weight f4 [28, 64]
0	0x3d1cc06f	0.038269456
1	0xbd844d39	-0.064600416
2	0x3bf3b3c3	0.0074372008
3	0x3d691c35	0.056911666
4	0x3dc1a90c	0.09456071
5	0x3dcd0e49	0.1001249
6	0xbd2909ff	-0.0412693
7	0xbd586b03	-0.05283643
8	0xbcf62b8a	-0.030050058
9	0x3dab4c3b	0.08364149
10	0xbd5c1184	-0.05372764
11	0x3ce721be	0.028214332
12	0xbe01ec52	-0.12687805
13	0x3cc136a6	0.023585629
14	0x3cbde5b5	0.023180822
15	0xbbe98af9	-0.0071271625
16	0x3d16e892	0.03684289
17	0xbcfae2e4	-0.030625768
18	0xbc46ea28	-0.012140788
19	0xbde8d592	-0.1136886
20	0x3ddc50d7	0.107576065
21	0xbdc04f53	-0.0939013
22	0xbdec0e6d	-0.11526189
23	0x3d3c0495	0.045902807
24	0xbd9600a8	-0.07324344
25	0x3dbcbdb3	0.0921587
26	0x3c0b2a74	0.008494008
27	0xbd55f3ff	-0.052234646
28	0xbd8dba77	-0.06920331
29	0xbd770c8d	-0.060314704
30	0xbd59634a	-0.053073205
31	0xbdccb62c	-0.09995684
32	0xb96a2fc4	-0.00022333773
33	0x3de4edb7	0.11178153
34	0xbd4a70ca	-0.04942397
35	0x3d29b336	0.041430674
36	0x3d00b967	0.031426813
37	0x3cdc1483	0.02686525
38	0xbdd46e87	-0.10372644
39	0x3a0af407	0.0005300645
40	0xbdc5031c	-0.09619734
41	0xbdcd7825	-0.100326814
42	0xbdd68f5c	-0.104765624
43	0x3d10db4b	0.035365384
44	0x3dee50fb	0.116365395
45	0x3da081d8	0.07837266
46	0x3dc1fba7	0.09471827
47	0xbd6c601d	-0.05770885
48	0x3de9eb82	0.11421873
49	0xbb507e1c	-0.0031813448
50	0x3c6745f3	0.014115798
51	0x3db0555f	0.08610033
52	0x3d7679cd	0.060174752
53	0x3dcc3050	0.099701524
54	0xbd928e87	-0.07156091
55	0xbde33ad9	-0.11095209
56	0xbde40ab1	-0.11134852
57	0xbda6f657	-0.08152454
58	0x3c5ea3a7	0.013588822
59	0x3da6cc9b	0.08144494
60	0x3d3ae574	0.04562898
61	0xbd862c33	-0.06551399
62	0xbdee18f7	-0.116258554
63	0x3d7fe488	0.062473804
64	0x3dfaa9b5	0.122394
65	0x3d829df0	0.063777804
66	0xbcd6794e	-0.02618089
67	0xbdd14cb5	-0.10219709
68	0xbb2cfad8	-0.0026394632
69	0x3ca90d72	0.020636294
70	0xbdce8e13	-0.10085692
71	0xbc984751	-0.018588694
72	0x3d1a74f5	0.037709195
73	0x3dbc87b9	0.092055745
74	0x3d888444	0.06665853
75	0xbd80f6ae	-0.062970504
76	0xbdf004a6	-0.117196366
77	0x3d69a19f	0.0570389
78	0xbd3f1f3d	-0.04666065
79	0x3d3bf963	0.04589213
80	0x3d41622b	0.04721276
81	0x3de420d9	0.11139078
82	0xbd5e1024	-0.05421461
83	0xbc7813e9	-0.015141466
84	0xbcff84ec	-0.031191312
85	0x3ddfd256	0.1092879
86	0xbdaf7703	-0.085676216
87	0x3deb88f0	0.11500728
88	0xbd22d6c0	-0.039755583
89	0x3d33e6f6	0.043921433
90	0xbd269267	-0.040666964
91	0x3cc3e984	0.02391506
92	0x3ca5ae4e	0.020224717
93	0x3de093f1	0.109657176
94	0xbb96215a	-0.0045816125
95	0x3d3f941f	0.04677212
96	0xbd48b4b4	-0.049000457
97	0xbd91272f	-0.07087552
98	0xbc8dd725	-0.017314503
99	0x3df61e92	0.120175496
100	0x3da9853b	0.08277365
101	0xbcc60e81	-0.024176838
102	0xbdd19b01	-0.10234643
103	0xbd717a14	-0.058954313
104	0xbd98820a	-0.07446678
105	0x3c14b3d7	0.00907608
106	0xbce0aebc	-0.02742707
107	0x3da8c907	0.08241468
108	0x3d7cafca	0.061691083
109	0x3ce3107f	0.027717827
110	0x3df50652	0.11964096
111	0xbdde66f6	-0.10859482
112	0x3ce99609	0.028513925
113	0xbbc45a27	-0.0059921923
114	0x385b7ce0	5.2329968e-05
115	0x3d6d31f4	0.057908967
116	0xb9a78045	-0.0003194829
117	0x3dce0636	0.100597784
118	0x3d114264	0.035463706
119	0xbcb34d87	-0.021887554
120	0xbdc36815	-0.095413364
121	0x3d34a333	0.04410095
122	0xbd0082d6	-0.031374775
123	0x3bb0938e	0.0053886836
124	0xbd99fab0	-0.07518518
125	0xbdcccf6f	-0.10000502
126	0x3d42c4ea	0.047551073
127	0xbd3528eb	-0.044228476
128	0x3d1dd306	0.038531326
129	0x3ced31a0	0.028954327
130	0x3cd80322	0.026368681
131	0xbd2e68e3	-0.042580497
132	0xbb955698	-0.004557442
133	0xbcfcc624	-0.0308562
134	0xbcb4a185	-0.022049675
135	0xbbe29411	-0.0069146235
136	0xbcf6bb4d	-0.030118609
137	0x3c1611c0	0.009159505
138	0x3d7d5fdd	0.061859
139	0x3d9c2c61	0.07625652
140	0x3dde5158	0.10855359
141	0xbb8e0088	-0.0043335594
142	0xbdbbdfac	-0.091735214
143	0x3debabed	0.115074016
144	0xbdb1b955	-0.086779274
145	0x3dc54387	0.096320204
146	0xbd20be90	-0.039244235
147	0xbd6b3ea1	-0.057432774
148	0x3c16b2f5	0.00919794
149	0x3dc5dde3	0.09661462
150	0x3dc449e6	0.095844075
151	0x3daf7f5b	0.08569213
152	0xbd10209b	-0.035187345
153	0xbda7134f	-0.0815798
154	0xbda5e369	-0.08100016
155	0x3c891d8f	0.016737727
156	0xbdc8dce2	-0.09807755
157	0x3db129b8	0.08650535
158	0xbd1991ac	-0.03749244
159	0xbd8fb45d	-0.070168234
160	0xbd273995	-0.0408264
161	0x3cdc5949	0.026898043
162	0xbd84eb1c	-0.06490156
163	0xbdfe7fba	-0.12426706
164	0xbd9b949d	-0.07596705
165	0xbdbc385a	-0.09190436
166	0xbdbe8ce2	-0.09304215
167	0x3ccd0039	0.02502452
168	0xbd023b76	-0.031794988
169	0xbdc23229	-0.094822235
170	0xbd58b6d5	-0.052908737
171	0x3d68570c	0.05672364
172	0x3de9bb08	0.114126265
173	0x3db4aa67	0.08821564
174	0xbcf42d99	-0.029806899
175	0x3dc3cfca	0.09561117
176	0x3d52ff48	0.051512986
177	0x3d45ed96	0.048322283
178	0xbda166bc	-0.07880923
179	0xbd154d0b	-0.036450427
180	0x3da1fb89	0.07909305
181	0xbe0388ab	-0.12845103
182	0x3ce98767	0.028506948
183	0x3d9139f1	0.070911296
184	0x3c991cca	0.018690486
185	0xbda55922	-0.08073641
186	0xbd84fb0b	-0.06493195
187	0xbd47580f	-0.048667964
188	0xbdb217c8	-0.08695942
189	0x3bce72eb	0.0063003204
190	0xbdf998e6	-0.12187366
191	0xbd83ebe7	-0.06441479
192	0xbd868ed6	-0.065702125
193	0x3db7e0e9	0.08978445
194	0x3cb0aa3d	0.021565551
195	0xbbb2ff8a	-0.0054625915
196	0xbdb830f7	-0.08993714
197	0x3dc78474	0.0974206
198	0x3cccdec8	0.025008574
199	0xba710183	-0.00091936457
200	0x3d7695ff	0.06020164
201	0x3d194d00	0.03742695
202	0xbdea2839	-0.11433453
203	0x3df2dd16	0.11858575
204	0xbcbe5168	-0.023232177
205	0x3d084b10	0.03327471
206	0x3d910d35	0.07082597
207	0x3d83e7e6	0.064407155
208	0x3d86a68e	0.065747365
209	0xbd3ba719	-0.045813654
210	0xba60be80	-0.00085733086
211	0xbcc529fc	-0.024067871
212	0x3e0190de	0.12652919
213	0xbb161b98	-0.002290463
214	0x3d699771	0.05702919
215	0x3d467232	0.04844875
216	0x3d06771a	0.032828428
217	0x3de9e249	0.114201136
218	0x3bcb91c0	0.006212443
219	0x3d8a6440	0.067574024
220	0x3d5808bf	0.052742716
221	0xbde387ab	-0.11109861
222	0x3d5f66a8	0.05454126
223	0xbdb54643	-0.08851292
224	0xbd52626c	-0.051363394
225	0x3b3fb8d9	0.0029254465
226	0xbdd94d22	-0.10610415
227	0x3dbeb3cf	0.093116395
228	0xbd95878f	-0.073012464
229	0xbba76f49	-0.005109702
230	0xbcd63c2a	-0.026151735
231	0xbde04b53	-0.10951867
232	0x3d8eac83	0.06966498
233	0x3de0c98a	0.109759405
234	0x3dc08663	0.09400632
235	0x3db4eb07	0.088338904
236	0xbdda2828	-0.106521904
237	0xbd406ff7	-0.046981778
238	0x3d17053d	0.03687023
239	0xbdb2ccac	-0.08730444
240	0x3d9ac015	0.07556168
241	0x3d33450f	0.04376703
242	0x3dbf9c69	0.09356005
243	0xbd5dbcdd	-0.054135192
244	0x3c641e66	0.013923263
245	0x3b0d1b6a	0.0021531233
246	0x3d5f7c5f	0.05456197
247	0xbda75650	-0.0817076
248	0xbdcfecf6	-0.101526186
249	0x3db9bd72	0.09069337
250	0x3c33bb4b	0.010969947
251	0xbd5e31ae	-0.054246597
252	0xbdd08a04	-0.101825744
253	0xbc7e9632	-0.015538739
254	0x3d5731d0	0.05253774
255	0xbc5971e7	-0.013271785

vae_encoder.fc_var.bias f4 [28]
0	0x3c761aa3	0.015020999
1	0xbdc070c2	-0.09396507
2	0x3d9f81d9	0.07788438
3	0xbc97bcad	-0.018522585
4	0xbd56af68	-0.052413374
5	0x3b8114fc	0.003939269
6	0xbd170f6e	-0.03687995
7	0xbde820c3	-0.11334374
8	0xbd3a451e	-0.04547607
9	0xbdd0d775	-0.10197345
10	0x3d8bab1c	0.06819746
11	0x3cdca1f2	0.02693269
12	0xbcff0dc6	-0.031134497
13	0x3db4856e	0.08814512
14	0xbd1ec0b3	-0.03875799
15	0x3cc152fd	0.023599142
16	0x3d1a387a	0.037651516
17	0x3dc6b11d	0.097017504
18	0x3dbd2fd2	0.092376366
19	0xbc2ca240	-0.01053673
20	0xbdb7a766	-0.089674756
21	0xbdbf4d8a	-0.09340961
22	0x3aa701d3	0.0012741633
23	0xbdcda8e0	-0.10041976
24	0xbd776f60	-0.06040895
25	0x3d65133c	0.055926546
26	0xbd0bf03c	-0.034164652
27	0xbdda147c	-0.10648438

vae_decoder.decoder_input.weight f4 [64, 28]
0	0xbc1f0ac1	-0.009707154
1	0xbe029967	-0.12753831
2	0xbe046749	-0.12930025
3	0x3e012f7d	0.12615772
4	0xbd9de085	-0.07708839
5	0xbd367912	-0.044549055
6	0x3d89696f	0.06709563
7	0x3e2bf468	0.16792452
8	0xbd56cd89	-0.052442107
9	0x3e3f561a	0.18685189
10	0xbc48bdcc	-0.012252282
11	0xbe2ee5e6	-0.17079887
12	0x3e0940fb	0.13403694
13	0xbd95284e	-0.07283078
14	0x3de8b10f	0.11361896
15	0xbdfb5581	-0.12272168
16	0x3de27a65	0.11058501
17	0xbe154d8a	-0.1458036
18	0x3d69094d	0.056893636
19	0xbe2af383	-0.16694455
20	0xbde418b1	-0.11137522
21	0xbe1af1e1	-0.15131332
22	0xbe2d05d2	-0.16896752
23	0xbd61bd03	-0.055111896
24	0x3c2bcc1b	0.010485674
25	0x3d012eef	0.0315389
26	0x3e03ffe7	0.12890588
27	0x3e0b454c	0.13600653
28	0xbda5311e	-0.08066009
29	0x3c997a7f	0.018735169
30	0x3c3ad3a5	0.011402999
31	0x3d6e7cc4	0.058224455
32	0xbe3df401	-0.18550111
33	0x3e24d80e	0.16098043
34	0xbe04cc9f	-0.12968682
35	0xbd8773cf	-0.066138856
36	0x3d9ed4b6	0.07755415
37	0x3e27e459	0.16395701
38	0xbc9fc870	-0.019504756
39	0xbe144e9a	-0.14483109
40	0xbda435d1	-0.08018077
41	0x3de0b691	0.10972322
42	0xbdd380ac	-0.103272766
43	0x3e021858	0.12704599
44	0x3ddcde26	0.10784559
45	0x3d8bc2c3	0.06824257
46	0x3e44b692	0.1921027
47	0xbcecd905	-0.028912077
48	0x3cee4f54	0.029090561
49	0xbcd871dd	-0.026421482
50	0x3e2a4c3e	0.16630647
51	0xbe2d6c20	-0.16935778
52	0x3e36ba0f	0.17844413
53	0x3dd3d7ea	0.10343917
54	0x3dd3dd0a	0.10344894
55	0x3df9a8ec	0.121904224
56	0x3df303ae	0.11865936
57	0xbd589442	-0.052875765
58	0xbdb72533	-0.08942642
59	0xba751954	-0.00093497825
60	0x3dce9ba4	0.1008828
61	0xbdebf3be	-0.115210995
62	0xbe2cbfc4	-0.16870028
63	0xbc939dbc	-0.01801955
64	0x3de1db1d	0.11028121
65	0x3d3b1513	0.045674395
66	0xbdd6a817	-0.10481279
67	0xbe1d607c	-0.15368837
68	0xbe30fe0a	-0.17284408
69	0x3daaeb47	0.08345657
70	0xbdfe6681	-0.12421895
71	0xbda83efa	-0.08215137
72	0xbe106a08	-0.14102948
73	0xbdc7e5d1	-0.09760631
74	0x3d851440	0.06498003
75	0xbd551c63	-0.052029025
76	0xbd4ece74	-0.050489858
77	0xbd402b45	-0.046916265
78	0x3e411963	0.1885734
79	0x3a975539	0.0011545784
80	0xbcac852c	-0.021059595
81	0xbc19922d	-0.00937323
82	0x3d1ee2c6	0.038790487
83	0x3ddbd142	0.10733272
84	0x3e258d49	0.16167177
85	0x3de7713c	0.113008946
86	0xbe079e17	-0.132439
87	0xbe36aae3	-0.17838626
88	0x3dae5067	0.08511429
89	0xbe2d9be5	-0.16954
90	0x3d9584ff	0.073007576
91	0x3bca657a	0.0061766477
92	0x3d0217ac	0.031760857
93	0x3d2cff21	0.042235497
94	0xbe245279	-0.16047086
95	0x3d19e1ea	0.037568964
96	0xbcc229a2	-0.023701493
97	0x3d3a93a7	0.04555097
98	0x3e065985	0.13120086
99	0x3b864a90	0.004098244
100	0xbd502e48	-0.050825387
101	0xbdc3b2df	-0.09555601
102	0xbde46a84	-0.11153129
103	0x3df47a8f	0.11937439
104	0x3cb67547	0.02227272
105	0xbe398463	-0.18116908
106	0x3ddb35ed	0.10703645
107	0x3de4b2fd	0.11166952
108	0xbe300d26	-0.17192516
109	0xbd33e208	-0.043916732
110	0x3bc0528a	0.0058692144
111	0x3e150ae7	0.1455494
112	0x3cf67829	0.030086594
113	0xbe3cd0fc	-0.18439096
114	0x3e104632	0.14089277
115	0xbde3c84d	-0.11122189
116	0xbccaa361	-0.024736108
117	0x3d729bc3	0.059230577
118	0xbbe310b3	-0.006929481
119	0x3d776411	0.060398165
120	0xbe1f9c9f	-0.1558709
121	0x3cdbc134	0.026825525
122	0x3d864791	0.06556619
123	0xbd894dc5	-0.067042865
124	0x3dc0cf8a	0.09414585
125	0x3e365414	0.17805511
126	0x3e2c3e15	0.16820557
127	0x3d8cd777	0.06877034
128	0x3d61180e	0.05495458
129	0x3dd25dc5	0.10271791
130	0xbe336e9c	-0.17522663
131	0x3d4e59d8	0.05037865
132	0xbe2d029e	-0.1689553
133	0x3decc9df	0.11561941
134	0xbddfeeff	-0.10934257
135	0xbb1695b2	-0.002297741
136	0xbdb66165	-0.08905295
137	0xbdfd90e6	-0.12381153
138	0xbceb3098	-0.028709695
139	0xbdcc6fe6	-0.099822804
140	0x3e31a5b0	0.17348361
141	0xb985577b	-0.00025432915
142	0x3e0f16fa	0.13973609
143	0xbe3f8d95	-0.18706353
144	0x3e0943d6	0.13404784
145	0x3e43505f	0.19073628
146	0xbdc62830	-0.09675634
147	0xbdc2512a	-0.09488137
148	0x3e01706f	0.12640546
149	0x3ddcdf2a	0.10784753
150	0x3d9da3d6	0.07697265
151	0xbe2f2f30	-0.17107844
152	0x3d7ffb5c	0.062495574
153	0xbde85de9	-0.11346037
154	0x3dfac5a8	0.12244731
155	0xbde03281	-0.10947133
156	0x3e19e342	0.15028098
157	0xbe39aed9	-0.18133105
158	0xbd1f9946	-0.038964532
159	0xbafa2f72	-0.0019087626
160	0x3d394bd2	0.045238324
161	0x3e205499	0.15657271
162	0x3e01c356	0.12672171
163	0xbc8526e3	-0.016253894
164	0xbd28c59a	-0.041204073
165	0x3b80707c	0.003919659
166	0xbdf53f4e	-0.11974965
167	0xbdf1df0e	-0.118101224
168	0xbdca6c5b	-0.098839484
169	0xbd670ac1	-0.05640674
170	0x3e02ef74	0.12786657
171	0xbe13b058	-0.14422739
172	0xbe30a326	-0.17249736
173	0x3d362fbb	0.044479113
174	0xbd12fc9c	-0.03588544
175	0x3deefbda	0.116691306
176	0xbde84b83	-0.11342528
177	0xbe18d1e1	-0.14923812
178	0x3ddb698e	0.10713492
179	0x3d740354	0.059573486
180	0xbde0992d	-0.10966716
181	0xbd5bcdc8	-0.053663045
182	0xbdffe351	-0.12494529
183	0x3da6e469	0.081490345
184	0x3ccda4bb	0.025102964
185	0x3dd05163	0.10171773
186	0xbdac7bba	-0.084220365
187	0xbc49a749	-0.01230795
188	0x3ddcebb1	0.10787142
189	0xbe3ea134	-0.18616182
190	0x3dd09a38	0.10185665
191	0x3dd966be	0.106153
192	0xbe20adf2	-0.15691355
193	0x3c8878f7	0.016659243
194	0x3d0e1bba	0.03469441
195	0x3e1444ac	0.14479321
196	0xbe148d13	-0.1450694
197	0x3df88636	0.12134974
198	0x3db387d8	0.087661445
199	0x3db33f2e	0.08752285
200	0xbe4701f4	-0.19434339
201	0xbdf14f9e	-0.11782764
202	0x3db1c7b6	0.0868067
203	0x3e144ae2	0.1448169
204	0x3d4c1c49	0.049831662
205	0x3e165a7c	0.14682955
206	0x3dc979b8	0.09837669
207	0x3e1eb121	0.15497257
208	0x3dbcecd6	0.0922486
209	0xbcbc3cd3	-0.022978222
210	0xbdbbf988	-0.09178454
211	0x3dfcb207	0.123386435
212	0xbe2fe650	-0.17177701
213	0x3dd57bb4	0.10423985
214	0xbe33b302	-0.17548755
215	0x3e2270ff	0.15863417
216	0x3db936d0	0.09043658
217	0x3d14094c	0.03614168
218	0x3d08acfb	0.033368092
219	0xbe33c700	-0.17556381
220	0x3e2be9c9	0.167884
221	0x3d4b8d72	0.04969544
222	0xbd39dd3b	-0.045376997
223	0xbd14ea74	-0.036356404
224	0x3b254afb	0.0025221694
225	0x3e2f1136	0.17096409
226	0xbe026be8	-0.12736475
227	0xbd972f2d	-0.07382045
228	0xbd49192c	-0.04909627
229	0xbe21e151	-0.15808608
230	0x3c27ea6b	0.010248761
231	0xbdd67838	-0.10472149
232	0xbe3e2ddb	-0.1857218
233	0x3da14047	0.07873588
234	0xbda02f75	-0.07821552
235	0xbb25e0bb	-0.0025310952
236	0x3c2ecb13	0.010668534
237	0x3e0cb150	0.13739514
238	0xbce3513a	-0.027748693
239	0x3e2d244d	0.16908379
240	0xbe08682f	-0.13320993
241	0x3d56a59a	0.052404024
242	0xbdba02e5	-0.09082583
243	0xbd9c1b55	-0.07622401
244	0xbdf1579b	-0.117842875
245	0xbe0d0501	-0.1377144
246	0x3d4cc2e6	0.049990557
247	0x3e34841b	0.17628519
248	0x3db5f27a	0.08884139
249	0xbcef69c0	-0.02922523
250	0xbdde81ed	-0.10864625
251	0x3e1ef3fc	0.1552276
252	0xbe18fdca	-0.14940563
253	0xbda8fcf2	-0.082513705
254	0xbd8292a9	-0.063756295
255	0xbd8e0514	-0.06934562

vae_decoder.decoder_input.bias f4 [64]
0	0xbd2b9919	-0.041894052
1	0x3e3df5dd	0.1855082
2	0x3d12948f	0.035786208
3	0xbdc14acf	-0.09438097
4	0xbc94eed1	-0.018180283
5	0x3d71191d	0.05886184
6	0x3d3b1504	0.04567434
7	0xbd27d11c	-0.040970907
8	0xbdef3088	-0.116791785
9	0x3d0f6699	0.035009954
10	0x3d22343d	0.0396006
11	0x3d0d7def	0.034543928
12	0x3da8d970	0.08244598
13	0xbe33331a	-0.17499962
14	0xbd81a043	-0.063293956
15	0x3e1ce3d6	0.15321288
16	0x3d5f02f3	0.054446172
17	0xbcdc118d	-0.026863838
18	0x3e017f09	0.12646116
19	0xbd57fc24	-0.052730694
20	0x3dc72c85	0.09725288
21	0x3e32fe65	0.17479856
22	0x3d9fc0a8	0.07800418
23	0xbde2d65e	-0.110760435
24	0x3da0e505	0.07856182
25	0xbe1ae641	-0.15126897
26	0xbd5129f0	-0.051065385
27	0xbd208552	-0.039189644
28	0x3d2cbdb7	0.042173114
29	0xbd79d093	-0.060989928
30	0x3e45211a	0.19250908
31	0x3d4152f0	0.047198236
32	0xbd04e689	-0.032446418
33	0x3dd9c5ec	0.10633454
34	0x3e2f3f8e	0.17114088
35	0xbdb6cce9	-0.08925802
36	0x3e3cf236	0.18451771
37	0x3c533463	0.012890908
38	0x3e436eba	0.19085208
39	0x3cd7b947	0.026333464
40	0x3d40c6d5	0.04706462
41	0xbd895564	-0.0670574
42	0xbc36ed12	-0.01116492
43	0xbc09bb3c	-0.008406457
44	0xbd2a8d8a	-0.04163889
45	0xbe0e9d97	-0.13927303
46	0x3e39dc02	0.18150333
47	0x3dd9a161	0.10626484
48	0x3d12a282	0.03579951
49	0xbe35d9f0	-0.17758918
50	0xbd014ba8	-0.031566292
51	0x3e1b1ea1	0.15148403
52	0x3e26e0ad	0.16296645
53	0xbdea6756	-0.11445491
54	0xbdca9fc1	-0.09893752
55	0x3e0f8f22	0.14019445
56	0x3dc34415	0.0953447
57	0x3d20c628	0.039251477
58	0xbe1a655b	-0.15077727
59	0x3e0bd878	0.13656795
60	0x3d87070a	0.065931395
61	0xbe1c0a1c	-0.15238231
62	0x3e22dcf9	0.15904607
63	0xbd73d9e8	-0.059533983

vae_decoder.batch_norm.weight f4 [64]
0	0x3f800000	1.0
1	0x3f800000	1.0
2	0x3f800000	1.0
3	0x3f800000	1.0
4	0x3f800000	1.0
5	0x3f800000	1.0
6	0x3f800000	1.0
7	0x3f800000	1.0
8	0x3f800000	1.0
9	0x3f800000	1.0
10	0x3f800000	1.0
11	0x3f800000	1.0
12	0x3f800000	1.0
13	0x3f800000	1.0
14	0x3f800000	1.0
15	0x3f800000	1.0
16	0x3f800000	1.0
17	0x3f800000	1.0
18	0x3f800000	1.0
19	0x3f800000	1.0
20	0x3f800000	1.0
21	0x3f800000	1.0
22	0x3f800000	1.0
23	0x3f800000	1.0
24	0x3f800000	1.0
25	0x3f800000	1.0
26	0x3f800000	1.0
27	0x3f800000	1.0
28	0x3f800000	1.0
29	0x3f800000	1.0
30	0x3f800000	1.0
31	0x3f800000	1.0
32	0x3f800000	1.0
33	0x3f800000	1.0
34	0x3f800000	1.0
35	0x3f800000	1.0
36	0x3f800000	1.0
37	0x3f800000	1.0
38	0x3f800000	1.0
39	0x3f800000	1.0
40	0x3f800000	1.0
41	0x3f800000	1.0
42	0x3f800000	1.0
43	0x3f800000	1.0
44	0x3f800000	1.0
45	0x3f800000	1.0
46	0x3f800000	1.0
47	0x3f800000	1.0
48	0x3f800000	1.0
49	0x3f800000	1.0
50	0x3f800000	1.0
51	0x3f800000	1.0
52	0x3f800000	1.0
53	0x3f800000	1.0
54	0x3f800000	1.0
55	0x3f800000	1.0
56	0x3f800000	1.0
57	0x3f800000	1.0
58	0x3f800000	1.0
59	0x3f800000	1.0
60	0x3f800000	1.0
61	0x3f800000	1.0
62	0x3f800000	1.0
63	0x3f800000	1.0
