best_total_time_series.pt (torch, 463569 bytes, 114 tensors)

vae_encoder1.batch_norm.weight f4 [16]
0	0x3f7f346c	0.99689364
1	0x3f7c8fa3	0.9865667
2	0x3f750752	0.95714295
3	0x3f78f1b7	0.9724383
4	0x3f7a9b2a	0.9789301
5	0x3f75f908	0.96083117
6	0x3f747c9b	0.9550263
7	0x3f7b0bd9	0.98064953
8	0x3f6e800f	0.9316415
9	0x3f76360b	0.96176213
10	0x3f7bc2c6	0.98344076
11	0x3f86976f	1.0514964
12	0x3f7d68f0	0.98988247
13	0x3f780878	0.9688792
14	0x3f7bd8a7	0.9837746
15	0x3f7b5eb1	0.9819136

vae_encoder1.batch_norm.bias f4 [16]
0	0x3d14bf28	0.036315113
1	0xbdd3adad	-0.103358604
2	0xbcf645f5	-0.030062655
3	0x3d61b077	0.05509993
4	0xbdbdd648	-0.092693865
5	0xbd9b2722	-0.07575823
6	0xbda67684	-0.08128074
7	0xbdc385bf	-0.095469944
8	0x3d286956	0.04111608
9	0xbb9ab2a5	-0.004721003
10	0xbdcaa41c	-0.09894583
11	0xbda0c026	-0.078491494
12	0x3dac52ab	0.08414205
13	0x3cc4fe9e	0.024047192
14	0x3d660740	0.056159258
15	0xbd987be4	-0.07445505

vae_encoder1.batch_norm.running_mean f4 [16]
0	0xbc4d3520	-0.012524873
1	0xba41a01d	-0.00073862245
2	0x4046196e	3.095302
3	0xba9aa68f	-0.0011798906
4	0xbab65ddc	-0.001391347
5	0x404da5c3	3.2132423
6	0x3fdadf05	1.709931
7	0xba59d91d	-0.00083102455
8	0xbb77564f	-0.0037740653
9	0x402de271	2.716946
10	0xbcab620e	-0.02092078
11	0xbdbbae9c	-0.091641635
12	0xbc8bc47b	-0.017061463
13	0xbb80bc85	-0.0039287233
14	0xbad802e4	-0.0016480354
15	0x3fbdd82a	1.4831593

vae_encoder1.batch_norm.running_var f4 [16]
0	0x36270fe5	2.489419e-06
1	0x3476f905	2.3001128e-07
2	0x3dbb5eb6	0.09148924
3	0x352deaaf	6.478903e-07
4	0x34096ec0	1.279941e-07
5	0x3ddffe1c	0.109371394
6	0x3cb9d295	0.022683421
7	0x340d6300	1.3167664e-07
8	0x35828a23	9.725958e-07
9	0x3d9b0391	0.075690396
10	0x3694daae	4.4362014e-06
11	0x38932615	7.0165996e-05
12	0x363b4d52	2.7910178e-06
13	0x345a9ab3	2.0359111e-07
14	0x34e49f79	4.258434e-07
15	0x3cbd8e76	0.02313922

vae_encoder1.encoder1.0.0.weight f4 [16, 906]
0	0x3cd71f27	0.026259972
1	0x3d08e852	0.033424683
2	0x3c11a898	0.008890294
3	0x3cc457e5	0.023967693
4	0x3bb3cb1d	0.0054868595
5	0xbcd29af4	-0.025708653
6	0x3cc57132	0.024101827
7	0xbd5b1d20	-0.053494573
8	0xbd7de01a	-0.061981298
9	0x3da8f9b2	0.082507506
10	0x3d087927	0.033318665
11	0xbba6b83c	-0.0050878804
12	0x3c86ba38	0.016446218
13	0x3da13dfd	0.078731515
14	0x3d5700d3	0.05249102
15	0x3cc3233c	0.023820512
16	0x3c218807	0.009859092
17	0x3cf9a194	0.030472554
18	0x3d108aff	0.035288807
19	0x3d32849c	0.043583497
20	0x3d948708	0.07252318
21	0xbaaabeff	-0.0013026892
22	0x3ca6b5b5	0.020350317
23	0x3cf8ec93	0.030386245
24	0xba299a23	-0.00064698065
25	0xbd53282b	-0.05155198
26	0x3da6cbe6	0.08144359
27	0x3cda5edf	0.026656566
28	0xbce6d0fe	-0.028175827
29	0x3d5efdec	0.054441378
30	0x3c09aba5	0.00840274
31	0xbc1c34df	-0.00953409
32	0x3d2614fb	0.040547352
33	0x3cc17055	0.023613134
34	0x3c3cd5a7	0.011525548
35	0x3d60debd	0.05489992
36	0x3d2e6dfb	0.042585354
37	0x3bf8a0a2	0.0075875083
38	0x3d848bf1	0.06472004
39	0x3c0d85c6	0.008637851
40	0x3cc2f9c6	0.023800742
41	0x3d56661e	0.05234348
42	0xbc218ade	-0.009859769
43	0x3cbc84c3	0.023012524
44	0x3b9988b3	0.0046854853
45	0x3c227aa2	0.009916933
46	0x3b49da63	0.0030800335
47	0x3d6786f3	0.056525182
48	0xbbf4bd33	-0.0074688434
49	0x3d53f9bd	0.05175184
50	0xbcac56e8	-0.021037534
51	0x3d5bbaf7	0.0536451
52	0x3d3aab4a	0.04557351
53	0xbc827007	-0.01592256
54	0x3c382aa8	0.011240639
55	0x3cf317cb	0.029674431
56	0x3c44fa12	0.012022512
57	0x3d7d292f	0.061806854
58	0x3cc0d998	0.023541257
59	0x3a933f18	0.0011234013
60	0x3c940f53	0.018073713
61	0x3c96068c	0.018313669
62	0x3b9d4f30	0.0048006997
63	0xbcd98534	-0.026552774
64	0x3c852eee	0.01625773
65	0x3d978a3c	0.07399413
66	0x3c59a7e4	0.013284657
67	0x3d93960d	0.07206354
68	0xbd30f2de	-0.043200366
69	0x3d0aae33	0.033857536
70	0x3d2c3af7	0.04204842
71	0x3d717258	0.058946937
72	0xbb070b7c	-0.002060621
73	0x3d4bdf77	0.04977366
74	0x3c866c23	0.016408985
75	0x3d4c6c82	0.04990817
76	0xbd040b7b	-0.03223751
77	0xbcf39119	-0.029732274
78	0x3ce37339	0.027764903
79	0xb9c2ff96	-0.0003719299
80	0x3c1fef71	0.009761677
81	0x3d1f4876	0.038887464
82	0x3bacf499	0.0052781818
83	0x3d898e9a	0.06716652
84	0x3d106d87	0.035260703
85	0x3c0c94c3	0.008580389
86	0x3cc808c9	0.024418252
87	0x3d1de604	0.038549438
88	0x3cb87292	0.022515569
89	0x3c1ba5cf	0.009499981
90	0xbc57ddbe	-0.013175426
91	0x3d0582db	0.032595497
92	0x3d0947d6	0.033515774
93	0x3d68aaab	0.056803387
94	0x3d8b7102	0.06808664
95	0x3c89fbe9	0.016843753
96	0xbcb8c0d7	-0.02255289
97	0x3d366dbf	0.044538256
98	0x3c275ef9	0.010215514
99	0x3cc267c3	0.023731118
100	0xbcb4173f	-0.02198374
101	0x3b350aa5	0.0027624753
102	0x3a7f8a06	0.0009748045
103	0xbd2c45fc	-0.04205893
104	0x3d2793e2	0.040912516
105	0xbcf2346c	-0.029566012
106	0x3cb64749	0.022250788
107	0xbbc35744	-0.0059613306
108	0xbc00ee5a	-0.007869327
109	0x3d0e0c99	0.034679983
110	0x3cb2b43c	0.021814458
111	0x3d434bda	0.04767976
112	0x3c1ed1bb	0.009693558
113	0x3d460b31	0.048350517
114	0x3cbf4a6c	0.023350917
115	0x3d81f65d	0.06345818
116	0x3cc8a420	0.024492323
117	0xbb08fafb	-0.002090155
118	0x3c5ec263	0.01359615
119	0x3bffc138	0.007805016
120	0xbd858dfc	-0.06521222
121	0xbc78041a	-0.015137697
122	0x3d3a7123	0.04551805
123	0xbcf8b586	-0.030359995
124	0x3cecd93d	0.028912181
125	0xbc52b7dc	-0.012861218
126	0xbc93cb6b	-0.018041333
127	0xbd2a0d5f	-0.041516658
128	0xbcccb5a9	-0.024988966
129	0xb9770784	-0.00023558555
130	0xbb8b43ff	-0.004250049
131	0xbcb87b33	-0.022519683
132	0xbc645fea	-0.013938883
133	0x3d319386	0.04335358
134	0x3d20c89c	0.039253816
135	0x3c8b7cb5	0.017027238
136	0xbc6a45ae	-0.0142988395
137	0xbbffe2f6	-0.0078090383
138	0x3bf7c939	0.0075618294
139	0x3d47c644	0.048773065
140	0x3d4de8b6	0.05027076
141	0x3cacf77f	0.02111411
142	0x3cfc1aeb	0.030774554
143	0x3d1f62d7	0.03891262
144	0x3ce57538	0.028009996
145	0x3d1d4b4e	0.038401894
146	0x3c8afe61	0.016967
147	0x3d09dde5	0.03365888
148	0x3d943449	0.07236535
149	0x3d55dd1d	0.052212823
150	0x3d691f57	0.056914654
151	0x3d519ccb	0.05117492
152	0x3d36138e	0.044452243
153	0x3c4bea61	0.012446017
154	0x3bd80dc0	0.006593436
155	0x3ce7749b	0.028253844
156	0xbcf116f0	-0.029429883
157	0x3cbe7920	0.023251116
158	0x3cadc094	0.021209992
159	0xbce3acef	-0.027792422
160	0xbba38de0	-0.004991278
161	0x3cd212a0	0.025643647
162	0xbccabe48	-0.024748936
163	0x3cb7c987	0.022434963
164	0x3cb19e3f	0.021681903
165	0xbc4b1462	-0.012394996
166	0x3ca14e3b	0.019690624
167	0x3cdbbdd6	0.02682392
168	0xbc74f48a	-0.014950881
169	0x3c79a5fb	0.015237327
170	0xbccb720f	-0.02483466
171	0x3beed49c	0.0072885286
172	0x3bba91df	0.0056936587
173	0x3c17eddc	0.009273019
174	0x3cdffef2	0.027343247
175	0x3c4dbc29	0.012557068
176	0xbccd7115	-0.025078336
177	0xbcd34f2b	-0.025794586
178	0xbd04d2e8	-0.0324277
179	0x3c2c260d	0.010507119
180	0xbb138574	-0.0022509964
181	0xbb37897d	-0.0028005533
182	0xbc311c3c	-0.010809954
183	0xbb78ba4a	-0.0037952834
184	0xbc058b32	-0.0081508625
185	0x3ca933e3	0.020654624
186	0xbcfe1f10	-0.031020671
187	0x3b965e24	0.004588859
188	0xbc71bc24	-0.014754329
189	0xbce1757d	-0.027521843
190	0x3c5b9560	0.013402313
191	0x3d02e5ed	0.031957556
192	0x3ad707c2	0.001640551
193	0x39b329da	0.00034172722
194	0x3ab5a1d7	0.0013857436
195	0xbcf4d741	-0.029887797
196	0x3c6bb1e0	0.01438567
197	0xba433ecc	-0.0007448017
198	0x3ba5b814	0.005057344
199	0x3cc9f5ea	0.024653394
200	0x3cb005a9	0.021487074
201	0x3c6fe227	0.014641321
202	0x3cc3eed8	0.0239176
203	0x3cb0aa70	0.021565646
204	0x3d01d740	0.03169942
205	0x3cc9cd70	0.024634093
206	0x3ce553a9	0.027993994
207	0xbc126987	-0.0089362925
208	0x3cadec31	0.021230789
209	0x3ba6e9d3	0.005093792
210	0x3b20bc69	0.0024526364
211	0xbcb6669b	-0.022265723
212	0xbd06d4f7	-0.032917943
213	0xbcdf110d	-0.02722981
214	0x3cfefe46	0.031127106
215	0xbc4808d8	-0.01220914
216	0xbc2245fe	-0.009904383
217	0xbcb86ec3	-0.022513753
218	0xbca158c5	-0.019695649
219	0x3c726ec5	0.014796917
220	0x3c525601	0.012837888
221	0x3c4348a8	0.011919178
222	0x3c0a9eba	0.008460695
223	0xbb5e9756	-0.0033964715
224	0x3d006a30	0.03135127
225	0x3cb6270d	0.022235418
226	0xbc2e3ac0	-0.010634124
227	0xbca912cb	-0.020638844
228	0xbcfaf76e	-0.030635562
229	0xbca123ee	-0.019670453
230	0x3c7e120d	0.015507233
231	0xbbf96e6c	-0.0076120403
232	0x3c8d3d4c	0.017241143
233	0x3b1b13bd	0.0023662888
234	0x3cd045d1	0.025423916
235	0xbba14d4f	-0.004922546
236	0xbc540436	-0.012940457
237	0xbcc5a5ad	-0.024126852
238	0x3c80702a	0.015678484
239	0xbb7d5b25	-0.0038659063
240	0x3c792bb0	0.01520817
241	0x3c1c14da	0.009526456
242	0xbcda74d2	-0.026667032
243	0xba0d689a	-0.000539431
244	0x3ce221fb	0.027604094
245	0x3b5bbebb	0.0033530432
246	0x3a99aa7b	0.0011723781
247	0xbcfcd552	-0.030863438
248	0xbc0d0b15	-0.008608599
249	0xbcf781f9	-0.030213343
250	0x3c8e93c6	0.017404448
251	0x3cf5e31a	0.030015517
252	0x3c67b537	0.014142326
253	0x3c0953b4	0.008381773
254	0x3ad7e08f	0.0016470122
255	0x39f2cebb	0.00046311863

vae_encoder1.encoder1.0.0.bias f4 [16]
0	0x3bfb56ec	0.007670274
1	0x3ba93c9b	0.0051646954
2	0xbbaa0fd0	-0.0051898733
3	0xbcd60a04	-0.026127823
4	0xbca57318	-0.020196483
5	0xbcca213f	-0.024674056
6	0x3c47ea1c	0.012201812
7	0xbceb5c51	-0.028730543
8	0xbc80b6d3	-0.015712177
9	0xbc8c95bd	-0.017161245
10	0xbba68982	-0.00508231
11	0xbcae82a5	-0.02130253
12	0xbc7cc6be	-0.015428243
13	0xbcee2a44	-0.029072888
14	0xbcae6409	-0.021287935
15	0x3cf754c1	0.030191781

vae_encoder1.encoder2.0.0.weight f4 [32, 16]
0	0xbe4aecbe	-0.19816872
1	0x3defc41c	0.11707327
2	0xbda4bd00	-0.080438614
3	0xbe3904e2	-0.18068269
4	0x3e84454a	0.25834113
5	0x3d0f3bd0	0.03496915
6	0xbdecd665	-0.1156433
7	0xbd1572e2	-0.036486514
8	0x3e37bb73	0.179426
9	0x3e271fdf	0.16320752
10	0xbd8a7859	-0.06761236
11	0x3cc869dc	0.02446454
12	0x3d11153c	0.03542064
13	0x3ddc4240	0.10754824
14	0x3e5fb2ce	0.21845552
15	0x3d706efb	0.05869959
16	0xbd376388	-0.044772655
17	0x3dad588b	0.08464154
18	0x3d9a6b5b	0.07540008
19	0x3d86e96f	0.06587493
20	0x3cacdf3d	0.021102542
21	0x3d8990d8	0.0671708
22	0xbd8d1d05	-0.06890301
23	0x3bbe773d	0.005812554
24	0x3daf1b8f	0.08550178
25	0xbe52f8bc	-0.20602697
26	0xbdb21dc8	-0.086970866
27	0x3d884b31	0.066549666
28	0xbdb352da	-0.08756037
29	0xbe2a2f19	-0.16619529
30	0x3e412ba5	0.18864305
31	0x3e014266	0.12622985
32	0x3de34057	0.11096256
33	0xbdb24525	-0.087045945
34	0x3e497248	0.19672501
35	0xbdcd887c	-0.10035798
36	0xbe5fd0c0	-0.21856976
37	0xbe33cda0	-0.17558908
38	0x3e381539	0.17976846
39	0xbdb12b4e	-0.08650838
40	0xbdde529b	-0.108555995
41	0xbd6289c6	-0.055307172
42	0x3dde1847	0.10844474
43	0x3e219b5e	0.15781924
44	0x3d6a8c1c	0.057262525
45	0xbe25dab6	-0.16196713
46	0xbe454a3d	-0.19266601
47	0x3da670c2	0.081269756
48	0xbd158ed0	-0.03651315
49	0xbda708a0	-0.08155942
50	0x3c890039	0.016723739
51	0x3d6a04e3	0.057133567
52	0xbe37de30	-0.17955852
53	0x3d1cc77d	0.038276184
54	0x3d985d9f	0.07439732
55	0xbe38c669	-0.18044437
56	0xbe2a1323	-0.16608863
57	0xbd785190	-0.06062466
58	0xbdfa194c	-0.12211856
59	0x3da1267e	0.0786867
60	0x3e66bbd2	0.22532585
61	0x3d14cfbf	0.036330935
62	0xbe5284a7	-0.20558415
63	0x3c1712c6	0.0092207845
64	0xbe7fb8b3	-0.24972801
65	0x3d9613d4	0.07328001
66	0x3e36d515	0.17854722
67	0xbe79521c	-0.24347728
68	0x3e2164a7	0.15761052
69	0xbe4428ac	-0.1915614
70	0x3e320e0c	0.17388171
71	0x3e725441	0.23664953
72	0x3d929367	0.07157021
73	0x3d347b0f	0.04406267
74	0x3e45cf5e	0.19317386
75	0x3db76571	0.08954895
76	0x3dea541c	0.11441824
77	0x3e1668aa	0.14688364
78	0x3ddf4969	0.10902674
79	0xbd327580	-0.043569088
80	0xbd49e622	-0.049291737
81	0x3d9d2443	0.07672932
82	0xbd49b64e	-0.049246125
83	0x3e0be22a	0.13660493
84	0x3de00ff1	0.109405406
85	0xbd50272d	-0.05081861
86	0x3e804d55	0.25059
87	0xbe17af05	-0.14812858
88	0x3df165a4	0.117869645
89	0x3b9bcaf1	0.004754417
90	0x3e3b0631	0.1826408
91	0x3e3df191	0.18549182
92	0x3d59fcff	0.05321979
93	0xbe7bf003	-0.24603276
94	0xbe093d2b	-0.1340224
95	0x3e14ec02	0.14543155
96	0xbe1bb73b	-0.15206616
97	0x3e5f8e1a	0.21831551
98	0xbceea3c6	-0.029130828
99	0xbe25526e	-0.16144726
100	0xbdacae69	-0.084317036
101	0x3e22f5a8	0.15914023
102	0xbcfaf233	-0.030633068
103	0x3e846944	0.2586156
104	0x3d55f57b	0.05223606
105	0xbb941dd7	-0.0045201587
106	0x3e236ea2	0.15960172
107	0xbe6a1a1d	-0.22861524
108	0x3e5775fc	0.21041101
109	0x3de8c96a	0.11366542
110	0xbda1da51	-0.07902969
111	0xbe4abb07	-0.19797908
112	0xbe379aec	-0.17930192
113	0x3cd8c0e6	0.026459169
114	0xbe59938b	-0.2124769
115	0x3e07839d	0.132338
116	0x3da95d2a	0.08269723
117	0x3d968d1a	0.07351132
118	0x3db79afc	0.08965108
119	0x3d54489a	0.05182705
120	0xbe583caf	-0.21116899
121	0xbb1a35f9	-0.0023530705
122	0xbd650a8b	-0.055918258
123	0x3e251579	0.16121472
124	0xbe047fb4	-0.1293934
125	0x3e5c58d0	0.21518254
126	0xbe613544	-0.21992975
127	0x3c76de41	0.015067638
128	0xbde49ac6	-0.11162333
129	0x3e73a370	0.23792815
130	0xbe482fcd	-0.19549485
131	0x3e2cfb02	0.16892627
132	0x3dc25903	0.09489634
133	0xbd4311fc	-0.047624573
134	0x3e0eb85f	0.1393752
135	0xbe000cf8	-0.12504947
136	0x3d0ab4ed	0.03386395
137	0xbe0bfa95	-0.13669808
138	0x3acdd15a	0.001570265
139	0xbe1c5cc1	-0.15269758
140	0xbe0e15f0	-0.13875556
141	0x3d9b5f06	0.07586484
142	0x3ceda886	0.029011022
143	0x3d0fd513	0.035115313
144	0x3d0cc4a1	0.034367207
145	0xbda23c55	-0.07921664
146	0x3e4c08df	0.19925259
147	0xbe6f1a45	-0.23349865
148	0xbe480d5d	-0.19536348
149	0x3e559162	0.2085624
150	0xbcb640f2	-0.022247765
151	0xbd2889ec	-0.041147158
152	0x3c01544f	0.007893636
153	0xbe020fb3	-0.12701301
154	0x3e27fabd	0.16404243
155	0x3dd286b5	0.102795996
156	0x3e22049b	0.1582207
157	0xbe6aa181	-0.22913171
158	0x3e43fe70	0.19140029
159	0x3bc5f6e4	0.0060413945
160	0xbdf3796b	-0.11888393
161	0xbdc71d22	-0.097223535
162	0xbcadf304	-0.021234043
163	0xbc690425	-0.01422218
164	0xbcb5b301	-0.022180082
165	0xbc06dd77	-0.008231512
166	0xbd50d3f7	-0.050983395
167	0x3d79cdf8	0.060987443
168	0xbd85a734	-0.06526032
169	0xbe391a8a	-0.1807653
170	0xbe294d2e	-0.16533348
171	0x3ae4e546	0.0017463348
172	0xbcb61b5c	-0.022229843
173	0x3d195169	0.037431154
174	0xbdb95a90	-0.090504766
175	0x3d01d396	0.031695925
176	0x3db27bf7	0.08715051
177	0x3e648dc1	0.223197
178	0x3dd40e2b	0.10354265
179	0xbe2ea98f	-0.17056869
180	0x3dacca93	0.084370755
181	0xbdf033f8	-0.11728662
182	0x3d740647	0.0595763
183	0x3d69b85b	0.05706058
184	0xbe109c28	-0.14122069
185	0xbda27629	-0.079326935
186	0x3e1efa1c	0.15525097
187	0xbe3c717c	-0.18402666
188	0xbe375b2f	-0.17905878
189	0x3dbd6f91	0.09249795
190	0xbe452140	-0.19250965
191	0xbe283164	-0.16425091
192	0xbe85bf1b	-0.26122364
193	0x3d926c7a	0.071495965
194	0xbdf32bc6	-0.118735835
195	0xbe0c87fa	-0.13723746
196	0xbdfbcf91	-0.122954495
197	0x3e0be957	0.13663231
198	0x3cc55341	0.02408755
199	0xbdfe87ea	-0.12428267
200	0xbdd7a1ae	-0.10528885
201	0x3d8a903c	0.06765792
202	0x3df88bad	0.12136016
203	0xbcda2e93	-0.026633536
204	0xbc063279	-0.008190745
205	0x3dfbbf3b	0.12292334
206	0xbe107d6a	-0.14110342
207	0xbe61e202	-0.22058871
208	0x3b8bf883	0.0042715683
209	0xbe30ff9e	-0.1728501
210	0xbe016046	-0.12634382
211	0x3e173212	0.14765194
212	0x3e61ff87	0.22070132
213	0x3e4cc0de	0.19995448
214	0x3e2c04ac	0.16798657
215	0x3d27c69f	0.040960904
216	0x3e0afe37	0.13573538
217	0xbc8fb65a	-0.017543007
218	0x3cde2260	0.027116
219	0x3da06934	0.07832566
220	0xbe21739c	-0.15766758
221	0xbd1fbb0f	-0.038996752
222	0xbe6a2e9b	-0.22869341
223	0xbddd8eaf	-0.1081823
224	0xbdf8ba31	-0.12144888
225	0xbd3beafc	-0.045878395
226	0x3d6c2dd2	0.057660885
227	0x3cfaa607	0.030596746
228	0x3e074b75	0.13212378
229	0x3ce6ce8a	0.028174657
230	0x3de59f5b	0.11212035
231	0xbe117978	-0.14206493
232	0x3da3efc9	0.0800472
233	0x3e00fc29	0.12596191
234	0x3e06aac6	0.13151082
235	0x3e8107a3	0.2520114
236	0x3d8441ee	0.064578876
237	0xbe1621ea	-0.14661375
238	0xbe367a85	-0.17820175
239	0xbc956b4c	-0.01823964
240	0xbe5fcc3c	-0.21855253
241	0x3d7e66c9	0.062109742
242	0xbe0a03ca	-0.13478008
243	0x3df3c2ca	0.119023874
244	0x3e3f0f87	0.18658267
245	0xbd607c13	-0.054805826
246	0x3d3641f1	0.04449648
247	0x3d616257	0.055025425
248	0x3b92aca4	0.004476147
249	0xbe2d83c1	-0.16944791
250	0x3d926b73	0.071494006
251	0xbe725cb0	-0.2366817
252	0x3e30216b	0.17200248
253	0xbe818f1f	-0.25304505
254	0xbe23d932	-0.16000822
255	0xbb8a4fb3	-0.0042209267

vae_encoder1.encoder2.0.0.bias f4 [32]
0	0xbe34ba04	-0.17649084
1	0xbdb79c7e	-0.089653954
2	0xbd848298	-0.06470221
3	0xbd650058	-0.05590853
4	0xbc6fb99e	-0.014631657
5	0x3e0ccc06	0.13749704
6	0x3dd0998e	0.10185538
7	0x3c6fb913	0.0146315275
8	0xbe51fe0e	-0.2050707
9	0x3dae016b	0.08496364
10	0xbc5c092e	-0.013429923
11	0x3e2bc264	0.16773373
12	0x3dddc8d4	0.108293205
13	0xbe8db446	-0.276766
14	0x3e1c014f	0.15234874
15	0xbdfd2b67	-0.12361794
16	0x3dfeb8b2	0.124375716
17	0xbe162893	-0.14663915
18	0x3e25128d	0.16120358
19	0xbdb76e7f	-0.08956622
20	0xbb7c93c6	-0.0038540228
21	0x3e1d49e5	0.1536022
22	0xbe8945ff	-0.26811215
23	0x3d29e215	0.041475374
24	0x3dc212d4	0.094762474
25	0xbe0913d9	-0.13386478
26	0xbe84ef69	-0.25963905
27	0xbd342c2b	-0.043987434
28	0xbcc9daa3	-0.024640387
29	0xbe4798f5	-0.19491942
30	0xbe2aeab7	-0.16691099
31	0xbbaeec07	-0.0053381952

vae_encoder1.encoder2.1.0.weight f4 [64, 32]
0	0xbe014351	-0.12623335
1	0x3d226d00	0.03965473
2	0xbce6a96d	-0.02815696
3	0xbdcc5842	-0.09977771
4	0xbdf8db04	-0.12151149
5	0x3da835e7	0.08213406
6	0xbd1b6076	-0.03793379
7	0x3db233b1	0.087012656
8	0x3d92ce93	0.07168307
9	0xbdc5e977	-0.096636705
10	0xbc5122c2	-0.012764635
11	0x3c0175fb	0.007901664
12	0xbd8970da	-0.06710978
13	0x3daa23fd	0.083076455
14	0xbdcfcfaf	-0.101470344
15	0xbdbf74e6	-0.093484685
16	0xbda500ee	-0.08056818
17	0x3defab13	0.11702552
18	0xbd22708b	-0.03965811
19	0x3df5fb5e	0.12010835
20	0x3c47dbd9	0.012198412
21	0x3db27b57	0.087149315
22	0x3d99e195	0.075137295
23	0xbd9119d1	-0.07085002
24	0xbd6bc19d	-0.05755769
25	0xbd95dec4	-0.0731788
26	0xbd8588bf	-0.06520223
27	0xbe2a2b6c	-0.16618127
28	0x3d819c44	0.063286334
29	0xbdf91939	-0.12163014
30	0xbdee3012	-0.116302624
31	0x3ad9b189	0.0016608696
32	0xbd622a55	-0.055216152
33	0xbd222851	-0.03958923
34	0xbe2fe20d	-0.17176075
35	0x3d1a87db	0.037727218
36	0xbc959279	-0.01825832
37	0xbe039b58	-0.12852228
38	0x3def5f93	0.11688151
39	0xbdcf8823	-0.10133388
40	0x3e0994d5	0.13435681
41	0x3cfb58d3	0.030682003
42	0x3dacab12	0.084310666
43	0x3d33484e	0.043770127
44	0xbdad53a7	-0.08463221
45	0x3b6fe331	0.0036603922
46	0x3c880176	0.01660226
47	0xbe30905c	-0.17242569
48	0x3d74e613	0.05978973
49	0xbcec5b47	-0.028852118
50	0x3d871cf7	0.065973215
51	0xbdb17f37	-0.086668424
52	0x3de8b81d	0.11363242
53	0x3a2054c6	0.0006116148
54	0x3db292db	0.08719417
55	0x3c96384e	0.018337395
56	0xbe2ce8a6	-0.16885623
57	0x3db5a732	0.088697806
58	0x3db4a07a	0.08819671
59	0x3ddd8932	0.108171836
60	0x3e1f1156	0.15533957
61	0x3db16827	0.086624436
62	0xbe2c8591	-0.16847827
63	0xbe391b54	-0.18076831
64	0x3db542f6	0.088506624
65	0xbe258b5a	-0.1616644
66	0xbb2a61fd	-0.0025998347
67	0x3cc43a69	0.023953633
68	0xbe1e1c39	-0.15440454
69	0x3d6c79ed	0.057733465
70	0xbe127192	-0.14301136
71	0xbe3c8fec	-0.18414277
72	0x3dddbc94	0.10826984
73	0x3c8aa7be	0.016925689
74	0xbc33ad9e	-0.0109666865
75	0x3da7fee4	0.082029134
76	0xbdeb4b80	-0.1148901
77	0xbc1fa746	-0.009744471
78	0x3d15e92d	0.036599327
79	0xbd36dfc4	-0.044646993
80	0xbd3a1628	-0.045431286
81	0xbe170a60	-0.14750051
82	0xbdc4f6c2	-0.09617378
83	0x3d621010	0.0551911
84	0xbe433c2c	-0.19065922
85	0x3dd95ce5	0.10613421
86	0xbe24b974	-0.1608637
87	0xbb92ebe3	-0.0044836863
88	0x3ddd7ebf	0.108151905
89	0xbe2842f0	-0.16431785
90	0xbd44ee2c	-0.0480787
91	0x3e049163	0.12946086
92	0xbd5621eb	-0.05227844
93	0xbd14eb39	-0.03635714
94	0x3d240e23	0.040052544
95	0x3bb5b40c	0.005545145
96	0xbe2dc1e9	-0.16968502
97	0xbb92154a	-0.0044581043
98	0xbdf61418	-0.12015551
99	0xbdeba0b4	-0.11505261
100	0xbe211185	-0.1572934
101	0xbc919d27	-0.017775131
102	0x3ba56efd	0.005048631
103	0xbe1e2c78	-0.15446651
104	0x3e19afdf	0.15008496
105	0x3d954c8b	0.0728999
106	0xbdeb3ebb	-0.11486574
107	0xbe3d2180	-0.1846981
108	0x3d57c096	0.0526739
109	0x3e1456b6	0.14486203
110	0xbe1868a1	-0.14883663
111	0xbdf265bc	-0.118358105
112	0xbd115127	-0.035477784
113	0x3d9c6529	0.07636482
114	0xbdd9fdd6	-0.106441185
115	0x3d03c5e8	0.03217116
116	0xbd50dbae	-0.050990753
117	0xbd6f8040	-0.058471918
118	0xbdf27b81	-0.11839963
119	0xbdd93222	-0.10605265
120	0xbe2f6b9a	-0.1713089
121	0x3e1e2a43	0.15445809
122	0x3d5a17ae	0.05324524
123	0x3d9b01fe	0.07568739
124	0x3d007770	0.031363904
125	0x3d829647	0.063763194
126	0x3e13f2da	0.1444811
127	0x3df035ce	0.117290124
128	0x3d2cb689	0.042166267
129	0xbe347b7c	-0.1762523
130	0xbd1b960e	-0.0379849
131	0xbde5deff	-0.11224174
132	0x3d324a97	0.043528166
133	0x3d9a9a99	0.075490184
134	0xbd667894	-0.056267336
135	0x3ce5af84	0.028037794
136	0xbe168eb8	-0.1470288
137	0x3d8a94bb	0.06766649
138	0xbe0c6597	-0.13710628
139	0x3e0fa7e7	0.14028893
140	0xbd7b9668	-0.061422735
141	0xbe3057ab	-0.17220943
142	0x3e0424ba	0.12904635
143	0xbb8a142e	-0.0042138314
144	0xbcaedd51	-0.021345766
145	0xbd861a1a	-0.06547947
146	0x3bf9a12e	0.007618091
147	0xbcbe2585	-0.02321125
148	0xbcf4df5d	-0.029891664
149	0xbbf36050	-0.007427253
150	0xbe3238e7	-0.17404519
151	0x3e1e012e	0.15430138
152	0x3d11b4b6	0.03557273
153	0x3e059ef4	0.13048917
154	0xbda52aa0	-0.08064771
155	0x3ce1d1ea	0.027565915
156	0x3dc3d696	0.095624134
157	0x3d8966fa	0.06709094
158	0xbe2994d5	-0.16560681
159	0x3a2fac9d	0.00067014416
160	0xbdd33476	-0.103127405
161	0xbd888e50	-0.06667769
162	0xbd974abc	-0.07387301
163	0xbd376902	-0.044777878
164	0xbd36fae6	-0.04467287
165	0xbd8dcb7b	-0.069235764
166	0xbcd4e275	-0.02598689
167	0xbdaff4ac	-0.08591589
168	0x3df75bcb	0.12078055
169	0xbd979c58	-0.07402867
170	0x3d21eb22	0.03953088
171	0xbcff822b	-0.031189999
172	0xbbe36535	-0.006939555
173	0xbbaea28d	-0.005329436
174	0x3d6df185	0.05809166
175	0xbe038711	-0.12844492
176	0xbc48ac52	-0.012248116
177	0xbde69fec	-0.112609714
178	0x3d8b89ed	0.06813417
179	0x3d90c33d	0.07068489
180	0xbc21ec48	-0.009882994
181	0xbd9935fe	-0.07481001
182	0x3adcf7df	0.0016858539
183	0x3d646312	0.055758543
184	0x3d03a9f0	0.032144487
185	0x3dcfbfa3	0.10143974
186	0xbe229ee5	-0.15880926
187	0xbdb4cbbb	-0.08827921
188	0xbc6e8acd	-0.01455946
189	0xbd94dea1	-0.072690256
190	0x3da2f462	0.079567686
191	0x3ce11f05	0.027480612
192	0xbdc6ae83	-0.09701254
193	0x3df1b3a7	0.11801844
194	0x3e146158	0.14490259
195	0xbd3270b4	-0.043564513
196	0x3dff6643	0.12470677
197	0xbe138a50	-0.14408231
198	0x3d8f5858	0.06999272
199	0x3d59abf8	0.053142518
200	0xbdcca56b	-0.099924885
201	0x3d4b73ab	0.049670856
202	0xbe576a4d	-0.21036644
203	0xbe10c4cb	-0.1413757
204	0xbd9de7bb	-0.07710215
205	0xbe04b354	-0.12959033
206	0xbd411937	-0.047143187
207	0x3d8bd572	0.06827821
208	0xbd0b6be2	-0.034038432
209	0x3df3b56f	0.1189984
210	0xbc7c2880	-0.015390515
211	0xbc60cbc2	-0.013720455
212	0x3de74425	0.112922944
213	0x3d1f48f6	0.03888794
214	0x3da1c843	0.07899525
215	0xbe3d3f7a	-0.18481246
216	0xbe6787d3	-0.22610407
217	0xbc2997cb	-0.010351132
218	0xbd58e065	-0.052948374
219	0xbd170239	-0.036867354
220	0xbe04e21e	-0.12976882
221	0x3d1eca6b	0.03876726
222	0xbdcde9a6	-0.100543305
223	0xbe083e58	-0.13305032
224	0xbdc9860e	-0.09840022
225	0x3e15c062	0.1462417
226	0xbc5232d9	-0.012829506
227	0xbde05b10	-0.10954869
228	0xbdea6b99	-0.11446304
229	0xbe3d87a4	-0.18508774
230	0xbdbaeff4	-0.09127799
231	0x3d67d7c8	0.05660227
232	0xbd68da27	-0.05684867
233	0x3dbbbf02	0.09167291
234	0xbcbf5d0e	-0.023359802
235	0xbd288944	-0.04114653
236	0xbd7e053b	-0.062016707
237	0x3d6c530b	0.057696383
238	0xbc31760d	-0.010831368
239	0xbe09e232	-0.13465193
240	0xbe5849db	-0.21121924
241	0x3da2393d	0.079210736
242	0xbe1cc0e7	-0.15307961
243	0xbe1e07db	-0.15432684
244	0x3d7a813e	0.06115841
245	0xbe2173ae	-0.15766785
246	0xbcd8f509	-0.02648403
247	0xbd9a9298	-0.07547492
248	0x3dd3eeb8	0.10348266
249	0x3d9436bb	0.072370015
250	0x3d8391a7	0.06424265
251	0xbd6286df	-0.055304404
252	0x3da21249	0.07913644
253	0xbd485f30	-0.048918903
254	0x3c465e00	0.012107372
255	0x3c3fc33d	0.011704263

vae_encoder1.encoder2.1.0.bias f4 [64]
0	0xbde016a7	-0.109418206
1	0xbd9b481d	-0.07582114
2	0xbcc2a0c5	-0.023758302
3	0xbc391d94	-0.011298556
4	0xbe1d7e59	-0.15380229
5	0xbca93dde	-0.020659383
6	0x3c6252a4	0.013813648
7	0x3c9796b6	0.018504482
8	0xbd37560f	-0.044759806
9	0x3c81563a	0.015788186
10	0xbde63af5	-0.11241714
11	0xbe014c79	-0.12626828
12	0xbe088cbf	-0.1333494
13	0xbd5f890b	-0.054574054
14	0xbd0e7d7b	-0.034787636
15	0xbd875dfb	-0.06609722
16	0xbcfc0af0	-0.030766934
17	0xbd303a6a	-0.043024458
18	0xbe304412	-0.17213467
19	0xbd864937	-0.065569334
20	0xbdd208fc	-0.1025562
21	0xbe3cdbbf	-0.18443201
22	0xbd3fc7f9	-0.04682157
23	0xbe2e24d5	-0.17006238
24	0x3d79f385	0.061023254
25	0xbde5af9f	-0.11215138
26	0xbda7dfeb	-0.08197006
27	0xbd8dbb76	-0.06920521
28	0xbc2a3b8f	-0.010390176
29	0xbdee1d4b	-0.11626681
30	0x3d1125f6	0.035436593
31	0x3c79cc6a	0.01524649
32	0xbe3fad87	-0.18718539
33	0xbd9522d0	-0.072820306
34	0xbd9b4b1b	-0.075826846
35	0xbe45bc51	-0.19310118
36	0xbbe4d8bf	-0.006983846
37	0xbbb98f7e	-0.0056628576
38	0xbcbd5122	-0.023109976
39	0x3bd39b8a	0.0064577507
40	0xbd5501a4	-0.052003518
41	0x3c284a74	0.010271657
42	0xbcf2d369	-0.029641824
43	0xbe0eea7d	-0.13956638
44	0xbd99f6ee	-0.07517801
45	0xbba3b1b1	-0.0049955477
46	0xbd8576be	-0.06516789
47	0xbc6a534b	-0.014302085
48	0xbda9e738	-0.082960546
49	0xbda48dc5	-0.08034853
50	0xbdb0c056	-0.08630435
51	0xbe1d5d33	-0.15367584
52	0xbb74b964	-0.0037341947
53	0xbd4c3847	-0.049858358
54	0xbbd72053	-0.0065651326
55	0xbe2db530	-0.16963649
56	0xbdd8330b	-0.10556611
57	0x3cedb4dc	0.029016905
58	0xbbf5f9ac	-0.00750657
59	0xbe17a426	-0.14808711
60	0xbe04fa50	-0.12986112
61	0xbe3d4a58	-0.18485391
62	0xbac34eef	-0.0014900843
63	0x3c7f8225	0.015594994

vae_encoder1.fc_mu.weight f4 [28, 64]
0	0xbc9e9c64	-0.019361682
1	0xbdfd5e18	-0.123714626
2	0xbda3a40e	-0.07990275
3	0xbdabbffd	-0.08386228
4	0xbc54c802	-0.012987139
5	0xbd22933e	-0.039691202
6	0xbdabda28	-0.083912194
7	0xbd1f5d85	-0.038907547
8	0xbdde0f68	-0.10842782
9	0xbc335d97	-0.0109476065
10	0xbdb03036	-0.086029455
11	0x3dbb8e22	0.09157969
12	0xbc37068e	-0.011170996
13	0xbd861448	-0.06546837
14	0xbd5d9c92	-0.054104395
15	0x3cb193dd	0.021676952
16	0x3d47fbc7	0.048824098
17	0x3bf82061	0.0075722192
18	0x3d74b5d1	0.059743706
19	0x3d36817e	0.044557087
20	0x3dba2d8f	0.09090721
21	0x3cdb51b7	0.026772363
22	0xbd801166	-0.062533185
23	0xbd67086c	-0.056404516
24	0xbd8fdf1b	-0.07024976
25	0x3d99795a	0.07493849
26	0x3d7d3d84	0.061826244
27	0xbdef85bd	-0.116954304
28	0x3b78a41f	0.003793962
29	0xbcfae4d4	-0.030626692
30	0xbd7433af	-0.0596196
31	0x3d81a284	0.063298255
32	0x3be4832e	0.0069736456
33	0x3c6e29e1	0.014536352
34	0xbdbe5d22	-0.092951074
35	0xbda9e843	-0.082962535
36	0x3cf0939e	0.029367264
37	0x3d37fbd3	0.044917893
38	0x3d4bf3a0	0.049792886
39	0xbd0783a6	-0.033084534
40	0xbc1d5208	-0.009602077
41	0xbc1bee06	-0.009517198
42	0x3b6bde1b	0.003599054
43	0x3d54739f	0.051868077
44	0xbde830e3	-0.113374494
45	0xbd7a71c1	-0.06114364
46	0xbd207a85	-0.039179344
47	0x3c05e5ef	0.008172496
48	0xbdc056d3	-0.093915604
49	0xbcd4036f	-0.025880544
50	0xbd3614f8	-0.04445359
51	0x3e00f8ea	0.12594953
52	0xbd041c3b	-0.032253485
53	0x3dc5f5be	0.09666012
54	0xbd59259e	-0.05301439
55	0x3d54e58b	0.05197672
56	0x3ce47b78	0.027890906
57	0x3d32cdbc	0.043653235
58	0xbd69f5bf	-0.057119127
59	0xbd62ce58	-0.055372566
60	0xbdbf13a8	-0.09329921
61	0x3e645c88	0.22300923
62	0xbd9f9404	-0.077919036
63	0x3d8668d4	0.06562963
64	0x3d7bfbf2	0.06151957
65	0x3d7e68f7	0.06211182
66	0x3c62cfd8	0.013843499
67	0xbd01c93c	-0.031686053
68	0xbc5b50a9	-0.01338593
69	0x3be480d1	0.006973364
70	0xb9bf7b08	-0.00036522024
71	0x3b878246	0.004135403
72	0xbcf9e9bb	-0.03050696
73	0x3d25f157	0.040513363
74	0x3bc61444	0.0060448963
75	0xbd99d89a	-0.075120166
76	0x3dcc8ae7	0.09987431
77	0x3c8e34ab	0.017359098
78	0x3c0e2342	0.008675398
79	0x3d13ee9c	0.036116228
80	0x3db71591	0.0893966
81	0xbdd9305d	-0.10604928
82	0xbd2dd8eb	-0.042443197
83	0xbde7289e	-0.11287044
84	0xbcece984	-0.028919943
85	0xbd5b939f	-0.05360758
86	0xbddc3038	-0.107513845
87	0xbd936cda	-0.07198496
88	0xbbebce00	-0.007196188
89	0x3ceeb92c	0.029141031
90	0xbcd4bcd7	-0.025968952
91	0x3b65e132	0.0035076854
92	0xbd827343	-0.06369641
93	0x3d6065a8	0.054784447
94	0x3c2bab76	0.010477891
95	0xbc1f87ac	-0.009736937
96	0xbd878307	-0.06616788
97	0xbdbd3eaf	-0.092404716
98	0xbc4a3ae6	-0.012343144
99	0xbd5bfb2f	-0.053706344
100	0x3d8f002b	0.06982454
101	0x3c812e68	0.015769199
102	0xbd932bcc	-0.07186088
103	0x3d144d63	0.036206614
104	0x3d837d7b	0.06420418
105	0x3c98c38f	0.018647937
106	0x3da7672e	0.08173977
107	0xbce5fe8f	-0.028075485
108	0x3d6e2a1d	0.05814563
109	0xbd5bdd9e	-0.053678147
110	0xbd82577c	-0.063643426
111	0xbd669d95	-0.056302626
112	0x3d944287	0.072392516
113	0x3c1dfc47	0.009642667
114	0x3daaeb7e	0.08345698
115	0x3d7f7cf4	0.062375024
116	0xbd812b54	-0.06307092
117	0xbcdd4b45	-0.02701343
118	0xbd0e8069	-0.03479043
119	0xbd8c0750	-0.06837332
120	0x3bf89320	0.007585898
121	0x3c22f601	0.009946347
122	0x3ba98e25	0.0051744157
123	0xbd9a0956	-0.07521312
124	0xbd1abf80	-0.037780285
125	0xbc926574	-0.017870642
126	0x3c5d3a84	0.013502721
127	0x3cdfd36d	0.027322495
128	0x3d3c43c1	0.045963053
129	0xbd2acabb	-0.041697245
130	0x3aa69541	0.0012709276
131	0xbd630b1c	-0.055430517
132	0xbda3609f	-0.079774134
133	0x3c4dd5b7	0.012563161
134	0x3c400b4f	0.011721446
135	0x3cb95d6f	0.02262756
136	0xbdaace72	-0.083401576
137	0xbbb76db9	-0.0055977968
138	0xbcc49cef	-0.024000613
139	0x3deb324d	0.114842035
140	0x3d621223	0.055193078
141	0x3c9d5364	0.019204803
142	0xbb36c0b9	-0.0027885868
143	0x3c77e018	0.015129112
144	0x3dd22b5a	0.10262175
145	0xbd8d8a76	-0.06911175
146	0xbc34498b	-0.011003862
147	0xbd5e3471	-0.05424923
148	0xbc47af1b	-0.0121877445
149	0xbd7bccd9	-0.061474655
150	0x3d686761	0.056739215
151	0x3c3d2341	0.01154405
152	0xbcb7f8e4	-0.022457547
153	0x3cefa7e0	0.029254854
154	0xbc3534c6	-0.011059945
155	0xbc8876d3	-0.016658222
156	0x3d9336b8	0.07188171
157	0xbd6a0e06	-0.05714228
158	0xbbad5bbe	-0.0052904775
159	0x3d6952e7	0.056963827
160	0x3d630df0	0.055433214
161	0x3da75e40	0.08172274
162	0x3caef440	0.021356702
163	0x3dbe89d1	0.0930363
164	0xbd22ed2a	-0.03977696
165	0xbd5b5532	-0.053548045
166	0x3c2340dd	0.009964195
167	0xbd99d132	-0.07510604
168	0xbdc26167	-0.09491234
169	0xbb9cadb2	-0.0047814483
170	0xbdc20984	-0.09474471
171	0xbdd9274f	-0.10603201
172	0x3ca50189	0.020142334
173	0x3cf6b822	0.030117098
174	0x3d81794d	0.063219644
175	0x3bfc675a	0.00770275
176	0xbaab050c	-0.0013047769
177	0xbd05180a	-0.03249363
178	0xbd61fbe4	-0.055171862
179	0x3d72df8f	0.059295233
180	0x3b8b5c64	0.004252957
181	0xbd7b838b	-0.061404746
182	0x3d8ea256	0.06964557
183	0x3ca94936	0.020664793
184	0x3d6fa498	0.05850658
185	0xbc1a3e68	-0.009414293
186	0xba60972d	-0.0008567449
187	0x3c57d2c6	0.013172811
188	0x3dbf2aab	0.0933431
189	0x3db36690	0.087597966
190	0x3c40de96	0.011771819
191	0xbc9f65a0	-0.019457638
192	0xbd7860ed	-0.06063931
193	0x3c023a22	0.00794843
194	0x3d29b94d	0.041436482
195	0x3d9d15f4	0.07670203
196	0xbc7429b4	-0.014902521
197	0xbc2141ed	-0.009842378
198	0x3c10d44c	0.008839678
199	0x3d1ac625	0.03778662
200	0xbdbb520d	-0.09146509
201	0x3d4a78ec	0.049431726
202	0x3d4da4ab	0.050205868
203	0xbd3171e4	-0.043321505
204	0x3d36eea1	0.044661168
205	0x3d9005b7	0.0703234
206	0x3c85cdd7	0.016333504
207	0x3ddf3f3f	0.10900735
208	0xbd5a60e9	-0.053315077
209	0x3cac6c0f	0.02104762
210	0xbc8757bc	-0.016521327
211	0xbdac9bc2	-0.08428146
212	0x3ccb1e23	0.024794644
213	0x3dc9b115	0.09848229
214	0x3cfd9a50	0.030957371
215	0x3d710327	0.058840897
216	0xbd06a8a7	-0.032875683
217	0x3d860a4e	0.06544934
218	0xbd291bdc	-0.041286334
219	0x3da2dc9c	0.07952234
220	0x3d8f47ce	0.069961175
221	0x3dadddea	0.084895924
222	0x3cfae8fc	0.030628674
223	0x3c84d17c	0.016213171
224	0xbe0deb60	-0.1385932
225	0x3d50e97d	0.05100392
226	0xbc00173c	-0.0078180395
227	0x3da78a89	0.0818072
228	0x3d424765	0.04743137
229	0xbce4c7d5	-0.027927319
230	0xbcac9cbc	-0.02107083
231	0xbd5fcc53	-0.054638218
232	0xbcbc91b6	-0.0230187
233	0x3c5eae78	0.013591401
234	0xbd87d81a	-0.06633015
235	0x3dc84456	0.09778659
236	0xbd680aba	-0.056650855
237	0xbbdcf804	-0.006743433
238	0x3d64b6e7	0.05583849
239	0xbd09a620	-0.033605695
240	0xbd6bd22b	-0.05757348
241	0x3d17b18b	0.037034553
242	0xbd5c1750	-0.05373317
243	0x3b2a0569	0.0025943166
244	0x3ddf12ca	0.108922556
245	0x3be9207b	0.0071144677
246	0xbd044fbc	-0.032302603
247	0xbd3c9c55	-0.046047527
248	0x3c178a85	0.009249334
249	0x3c3e7588	0.011624701
250	0x3cff4545	0.03116096
251	0x3d5fdb73	0.054652642
252	0xbd8463dc	-0.06464359
253	0xbddfe3a5	-0.109320916
254	0x3d95e0a9	0.07318241
255	0x3c9c70f7	0.019096835

vae_encoder1.fc_mu.bias f4 [28]
0	0x3ab24ab2	0.0013602583
1	0xba69f90f	-0.0008925357
2	0x3a368cd5	0.00069637346
3	0xb9f64cf9	-0.00046978125
4	0xba01c62e	-0.00049504905
5	0xbaaaa531	-0.0013019202
6	0xb9fe9294	-0.00048555864
7	0x39ba9d3e	0.0003559384
8	0x38b93e7b	8.833125e-05
9	0x39982f88	0.00029027113
10	0xb7e6a993	-2.74971e-05
11	0xba9bc981	-0.0011885614
12	0xb89093ec	-6.894008e-05
13	0xb81bb220	-3.712077e-05
14	0x397eed4c	0.00024311728
15	0xba3837a5	-0.00070273347
16	0x3ab2ff5e	0.0013656428
17	0xb97da903	-0.00024190922
18	0x3a0261d8	0.00049736863
19	0x396fbf7a	0.00022864147
20	0x39bb15af	0.00035683575
21	0xbaa5bca9	-0.0012644726
22	0x391a4228	0.0001471123
23	0xb801be97	-3.0933497e-05
24	0x399171df	0.00027741396
25	0x3967c015	0.00022101433
26	0xb98d596f	-0.0002696025
27	0xba204499	-0.00061137375

vae_encoder1.fc_var.weight f4 [28, 64]
0	0xbe00c583	-0.12575345
1	0x3d4963ba	0.049167372
2	0xbcdff36e	-0.027337756
3	0x3d2dfe93	0.04247911
4	0x3dfcc353	0.12341943
5	0xbc820509	-0.015871542
6	0x3c4f1045	0.012638156
7	0xba57faea	-0.0008238988
8	0xbd58b22c	-0.052904293
9	0x3d9f5a57	0.07780903
10	0x3d521521	0.05128968
11	0xbbd8fc93	-0.006621906
12	0xbdbc0ec0	-0.09182501
13	0xbd86ac25	-0.06575803
14	0x3c3600e2	0.011108609
15	0x3d63abc1	0.05558372
16	0xbc61d788	-0.013784297
17	0xbdb6c9ba	-0.08925195
18	0x3ad9ba23	0.0016611259
19	0x3dd89f32	0.10577239
20	0xbd164c42	-0.03669382
21	0xbd4666ec	-0.048437998
22	0xbb80c55d	-0.0039297775
23	0x3d6418e8	0.055687815
24	0x3cd9feea	0.02661081
25	0xbcc114dc	-0.023569517
26	0xbc6f73ec	-0.01461504
27	0x3db4bd7e	0.08825205
28	0xbd9e9bf7	-0.07744592
29	0xbde442f2	-0.11145581
30	0x3ce7f7f5	0.028316477
31	0xbd7b202c	-0.06130998
32	0xbdb95e52	-0.09051193
33	0xbc8c9aaf	-0.017163603
34	0xbca6aa3c	-0.020344846
35	0xbddc03c7	-0.10742908
36	0x3b3eaac3	0.002909348
37	0x3d962374	0.07330981
38	0x3dd161bf	0.10223722
39	0xbcf2c015	-0.029632607
40	0x3e042106	0.12903222
41	0xbbe0d41d	-0.0068612234
42	0x3c7f8a91	0.015597002
43	0xbd337cb5	-0.0438201
44	0x3d2d5228	0.04231468
45	0xbca9785a	-0.02068727
46	0x3cfdacf0	0.030966252
47	0x3ca7b5ac	0.02047237
48	0xbdb4ed44	-0.08834317
49	0xbdaecb0f	-0.08534824
50	0x3ccd0ccf	0.025030522
51	0x3c2fb43e	0.010724125
52	0x3d9f6e38	0.077846944
53	0xbd22c181	-0.03973532
54	0x3daa6a1b	0.08321019
55	0x3d843f8c	0.06457433
56	0xbd879c00	-0.066215515
57	0xbd2af9f5	-0.041742284
58	0x3c592479	0.013253325
59	0x3d90ec41	0.07076312
60	0xbc0e2742	-0.008676352
61	0x3cce2c73	0.02516768
62	0x3d83f1e0	0.06442618
63	0xbd554491	-0.052067343
64	0xbda56557	-0.0807597
65	0x3da832b0	0.08212793
66	0xbcada394	-0.021196164
67	0xbc7a9e0b	-0.015296469
68	0xbc16b6ab	-0.009198825
69	0xbc2c7f26	-0.010528361
70	0x3cd06e88	0.02544333
71	0xbb6af02e	-0.0035848725
72	0x3d6d6814	0.057960585
73	0x3c950ac4	0.01819361
74	0xbd6c56c9	-0.057699952
75	0xbd02751e	-0.031849973
76	0xbd88db72	-0.06682481
77	0x3c2f843e	0.010712681
78	0x3bbdbbfe	0.0057902327
79	0x3cf737ca	0.03017797
80	0x3d520a8d	0.051279593
81	0x3d673224	0.056444302
82	0xbda8afcf	-0.08236658
83	0xbc66f221	-0.014095814
84	0xbda38989	-0.07985217
85	0x3d61eefd	0.055159558
86	0xbcbd67a1	-0.023120703
87	0x3ddc5779	0.107588716
88	0xbd19007e	-0.037353985
89	0x3d51ea33	0.05124874
90	0xbc388e0e	-0.011264337
91	0xbd3d3d5b	-0.04620109
92	0xbd417c33	-0.047237586
93	0x3ce4af5d	0.027915651
94	0xbd307ea3	-0.04308952
95	0x3d612c00	0.054973602
96	0xbb703b6b	-0.003665651
97	0xbd88c702	-0.06678583
98	0x3d0c175c	0.034201965
99	0x3d67e4a2	0.056614526
100	0x3cd18686	0.025576841
101	0x3d2683dd	0.0406531
102	0xbd779f66	-0.06045475
103	0x3da22943	0.07918026
104	0x3dc4e44d	0.096138574
105	0xbbba7915	-0.0056907036
106	0xbc82edd5	-0.015982548
107	0xbc941ee1	-0.01808113
108	0xbd18c409	-0.03729633
109	0xbd5ffd35	-0.054684836
110	0xbdae8b5d	-0.08522675
111	0x3d58a408	0.052890807
112	0x3d3922e9	0.04519931
113	0xbd0ec54b	-0.034856122
114	0xbd171108	-0.036881477
115	0x3d883b9c	0.066519946
116	0xbd8ebc1e	-0.06969474
117	0xbd403051	-0.046921078
118	0xbcefcf92	-0.029273782
119	0x3badf830	0.0053091273
120	0xbd6090c8	-0.054825574
121	0x3c284583	0.010270479
122	0x3c02906c	0.007969003
123	0x3dc5b2a8	0.096532166
124	0x3d51cce6	0.051220797
125	0x3de9bac2	0.11412574
126	0x3d7ed09d	0.062210668
127	0x3d59b42a	0.053150333
128	0x3d2e7529	0.0425922
129	0xbd1fe99d	-0.03904115
130	0xbd1920d6	-0.03738483
131	0xbd8dab1c	-0.06917402
132	0xbc13be44	-0.009017531
133	0xbd156b6f	-0.03647941
134	0xbcf51ed9	-0.029921936
135	0xbd4ecdf2	-0.050489374
136	0x3db1f307	0.08688932
137	0x3c42d252	0.011890965
138	0x3d8da1c1	0.06915618
139	0x3db65919	0.08903713
140	0xbcd6b65f	-0.026210008
141	0xbd4b536f	-0.049640115
142	0xb6e8fc13	-6.943484e-06
143	0xbc107b73	-0.008818495
144	0x3c9c3abc	0.019070975
145	0xbd3f1fd5	-0.046661217
146	0xbd1160bd	-0.035492647
147	0x3dae3995	0.08507077
148	0xbce80aa8	-0.028325394
149	0x3dbdc895	0.092667736
150	0x3e0186b1	0.12649037
151	0x3da997c7	0.08280902
152	0x3cffaca8	0.031210259
153	0x3d6c1aa7	0.057642605
154	0xbd8048df	-0.06263899
155	0xbd4c9d0a	-0.04995445
156	0x3d5f1d33	0.054471206
157	0x3deb0135	0.114748396
158	0x3a749acd	0.00093309284
159	0xbcc9ee51	-0.02464977
160	0x3ce4c469	0.027925687
161	0x3a6343db	0.0008669474
162	0xbd529ad1	-0.051417176
163	0x3d477430	0.04869479
164	0xbc977678	-0.018489107
165	0xbd57ce8d	-0.052687217
166	0x3dc30199	0.09521789
167	0x3da4bee7	0.08044224
168	0xbc787dcc	-0.015166711
169	0x3cae940d	0.02131083
170	0xbdbe961b	-0.09305974
171	0x3d48bc30	0.049007595
172	0x3e002cba	0.12517062
173	0x3d8f0308	0.06983
174	0xbd2fecf9	-0.042950604
175	0xbd55b1da	-0.052171566
176	0xbd50f08a	-0.051010646
177	0x3d437b48	0.047724992
178	0x3d97f699	0.07420082
179	0xbd0943a6	-0.03351178
180	0x3dfb14c8	0.12259823
181	0x3d6df0ff	0.05809116
182	0xbd62d8db	-0.05538259
183	0x3d98ad12	0.074548855
184	0xbd4e1009	-0.05030826
185	0x3bd2a841	0.006428749
186	0xbb3c8b37	-0.0028769502
187	0x3d3d9b8b	0.046290915
188	0xbdccdddd	-0.100032546
189	0xbe03cb8f	-0.1287062
190	0xbd8ea5b8	-0.06965202
191	0xbd0c3717	-0.034232225
192	0x3c167751	0.009183721
193	0xbba87f13	-0.0051421016
194	0xbbadcf1d	-0.005304231
195	0x3d45ef0b	0.048323672
196	0x3da6c262	0.08142544
197	0x3c881691	0.016612323
198	0xbd3af620	-0.04564488
199	0xbcf34a98	-0.029698655
200	0x3da21da2	0.07915808
201	0x3cc4f292	0.024041448
202	0xbca2bbcf	-0.019864945
203	0xbda144bd	-0.07874439
204	0x3cce59b7	0.025189264
205	0x3d1485b5	0.036260325
206	0xbb377f03	-0.002799929
207	0xbd88a104	-0.06671336
208	0x3d6d7910	0.057976782
209	0xbdc4c8a5	-0.096085824
210	0x3cdc7cc6	0.026914965
211	0xbcf71c4f	-0.030164866
212	0xbd208804	-0.039192215
213	0xbdac9895	-0.0842754
214	0x3d8ee584	0.069773704
215	0x3a519c12	0.00079959736
216	0xbd01c844	-0.03168513
217	0xbcedceb5	-0.02902923
218	0xbd6163e4	-0.055026904
219	0x3d3cf469	0.046131525
220	0x3d2290d7	0.03968891
221	0x3d92c780	0.07166958
222	0x3c510080	0.012756467
223	0xbb5570ca	-0.0032568448
224	0x3d297cd0	0.041378796
225	0xbd10f3f5	-0.035388906
226	0x3c970260	0.01843375
227	0xbd014ab6	-0.03156539
228	0xbd37ef19	-0.044905756
229	0xbd0abdb1	-0.03387231
230	0x3c908c93	0.017645156
231	0x3b44267a	0.002993016
232	0x3d74c102	0.05975438
233	0x3bbb7429	0.0057206345
234	0xbdc9b810	-0.0984956
235	0x3d738d79	0.05946109
236	0x3dca3ef6	0.0987529
237	0x3d0558f7	0.032555547
238	0x3bc5c0d8	0.0060349517
239	0xbb909437	-0.0044122
240	0xbc203f49	-0.009780713
241	0xbd609d8c	-0.05483775
242	0xbce75404	-0.028238304
243	0xbd9e994b	-0.07744082
244	0x3d073e5f	0.033018466
245	0xbdb67a60	-0.0891006
246	0x3d99b8bf	0.07505941
247	0xbd98630f	-0.07440769
248	0x3d470231	0.048586074
249	0x3ca8dece	0.020614054
250	0x3bba37f1	0.0056829383
251	0x3d58c107	0.05291846
252	0xbcf1f163	-0.029534047
253	0xbc779d63	-0.0151132075
254	0xbcd6aec7	-0.026206387
255	0x3d976f70	0.07394302

vae_encoder1.fc_var.bias f4 [28]
0	0xba306066	-0.00067282317
1	0x39f7b7c7	0.00047248436
2	0x3a0e8f82	0.00054382544
3	0xb9614b15	-0.00021485642
4	0x39c4af10	0.00037514465
5	0xba6219e8	-0.0008625076
6	0x39535a8d	0.00020156261
7	0x3a5b8279	0.0008373629
8	0x3902bcda	0.00012468119
9	0x3abf11bf	0.0014577432
10	0x39c03bd2	0.00036665663
11	0x39a4cd43	0.0003143345
12	0xb9b679e0	-0.0003480455
13	0x3a1173ac	0.00055485475
14	0xb97f1937	-0.00024328088
15	0x38eb8ff3	0.00011232486
16	0xba7aa80a	-0.0009561783
17	0xb9a2f9c2	-0.00031085132
18	0x39bff50d	0.00036612936
19	0xbab34b09	-0.0013678978
20	0x3a28a20d	0.0006432839
21	0x39c96dbc	0.00038419466
22	0xb9c2f1ea	-0.00037182803
23	0x39a62d88	0.0003169591
24	0x3b132ea9	0.0022458232
25	0x3a300cae	0.00067157566
26	0x38a1e6be	7.720057e-05
27	0x36b1d46e	5.299741e-06

vae_decoder1.decoder_input.weight f4 [64, 28]
0	0x3c25e0a3	0.010124358
1	0xbc36a57b	-0.011147852
2	0x3bce51b8	0.0062963627
3	0xbc74baee	-0.014937146
4	0x3cdc0a9d	0.02686053
5	0xbc91ea20	-0.017811835
6	0xbe76715f	-0.24066685
7	0x3e5494c9	0.20759882
8	0x3dd21890	0.10258591
9	0x3d5c5f05	0.053801555
10	0x3e0cb5d6	0.1374124
11	0xbe7440f6	-0.23852906
12	0x3e7808c0	0.24222088
13	0x3d97666e	0.07392584
14	0x3e80e7e3	0.25176916
15	0xbbe83830	-0.007086776
16	0xbe8a638b	-0.2702907
17	0x3e4dc79b	0.20095675
18	0xbdb1c50d	-0.086801626
19	0xbe3e56dd	-0.18587823
20	0x3e6af757	0.22945915
21	0xbe4ca6a8	-0.1998545
22	0x3d62550e	0.055256896
23	0x3e30afb1	0.17254521
24	0xbe5eb8eb	-0.21750228
25	0x3d978474	0.0739831
26	0xbd3139d7	-0.04326805
27	0xbe58e5b3	-0.21181373
28	0xbdf1f1d7	-0.118137054
29	0xbc0b98d7	-0.008520327
30	0xba62b325	-0.00086479104
31	0xbe45ce74	-0.19317037
32	0x3e0b858b	0.13625161
33	0x3de6b002	0.112640396
34	0xbd1347cc	-0.035957143
35	0xbda3c9b4	-0.07997456
36	0xbce9b7ad	-0.028529966
37	0x3e19bd64	0.15013653
38	0xbd5031f5	-0.050828893
39	0xbe5fe9c3	-0.21866517
40	0x3de9e72d	0.114210464
41	0xbe684f2f	-0.22686456
42	0x3dfe158b	0.12406453
43	0xbe014dd0	-0.1262734
44	0x3d62a4d4	0.055332974
45	0x3d97bcec	0.07409081
46	0xbcfa52c9	-0.030557053
47	0xbddcf916	-0.10789697
48	0xbc47cce5	-0.012194847
49	0xbe0ca30a	-0.1373407
50	0x3d83ee99	0.06441993
51	0xbce7dcc9	-0.02830352
52	0xbe2a9b20	-0.16660738
53	0xbcaaa6bf	-0.020831464
54	0x3df3b19b	0.1189911
55	0xbe702426	-0.2345129
56	0xbd9c5116	-0.076326534
57	0xbe845fdd	-0.25854388
58	0xbde07f2b	-0.10961755
59	0xbe6967b4	-0.22793466
60	0x3e30696d	0.17227717
61	0xbe771ac7	-0.24131308
62	0xbe5ee2ac	-0.21766156
63	0x3d8784c1	0.06617118
64	0x3e47be1e	0.19506118
65	0x3dbea217	0.0930826
66	0x3db07b0f	0.086172216
67	0x3c049121	0.008091242
68	0x3e0003c8	0.12501442
69	0xbe02851c	-0.1274609
70	0xbc7eabfa	-0.015543932
71	0x3d88f101	0.06686593
72	0xbe123317	-0.14277302
73	0xbd1fe9a6	-0.039041184
74	0x3d2652b3	0.040606212
75	0xbc81c4ea	-0.015840966
76	0x3dec57ea	0.11540206
77	0x3d5b66e1	0.05356491
78	0x3e04311b	0.12909357
79	0xbde64a93	-0.11244693
80	0xbe2b7906	-0.16745386
81	0x3e39a98f	0.18131088
82	0x3e62d3e6	0.22151145
83	0xbe41056a	-0.18849722
84	0x3e02e57c	0.12782854
85	0x3cb6dad4	0.022321142
86	0xbdae3d19	-0.08507747
87	0x3e90e6f7	0.28301212
88	0xbd6f12b8	-0.05836746
89	0x3e2ec3ec	0.17066926
90	0x3e02c30c	0.12769717
91	0x3a45428b	0.0007524869
92	0xbe84f428	-0.25967526
93	0xbe009983	-0.1255856
94	0x3c8bde4a	0.01707377
95	0x3e3eafe1	0.1862178
96	0xbcf3bccc	-0.029753111
97	0x3d537dc7	0.051633622
98	0x3dbf79af	0.09349381
99	0x3dc8004c	0.097656816
100	0xbb24a31f	-0.0025121642
101	0xbe797b1a	-0.24363366
102	0xbd2ab090	-0.04167229
103	0xbce5b589	-0.028040664
104	0xbd95d4ee	-0.07316004
105	0x3d05d3cc	0.03267269
106	0x3c7228ce	0.014780236
107	0xbe28c951	-0.16483046
108	0x3e495527	0.1966139
109	0xbda20778	-0.07911581
110	0xbe18a4d3	-0.14906625
111	0x3e735505	0.23762901
112	0x3d795ce9	0.06087962
113	0x3d8d45ac	0.068980545
114	0x3b349f8c	0.0027560918
115	0x3e3c44e5	0.18385656
116	0xbceff2e4	-0.029290624
117	0x3ce71c7a	0.02821182
118	0x3da4873d	0.08033607
119	0x3dd400a6	0.10351686
120	0xbc2615a1	-0.010136993
121	0xbd05dfba	-0.032684065
122	0xbc4a82cf	-0.012360289
123	0x3e82aac3	0.25520906
124	0xbe63b476	-0.22236809
125	0x3d8d3ba8	0.06896144
126	0xbe0dfe6b	-0.13866584
127	0x3e7f2060	0.24914694
128	0xbd60812b	-0.054810684
129	0xbc9c8425	-0.01910598
130	0xbdd226fd	-0.10261343
131	0x3e8eaa74	0.2786442
132	0x3dab40f4	0.08361998
133	0x3e19e3cd	0.15028305
134	0x3d9bcf63	0.07607915
135	0x3c44c799	0.012010478
136	0xbda8a2db	-0.08234187
137	0x3c2d36dd	0.010572162
138	0xbd281b61	-0.041041736
139	0x3e75d0ce	0.24005434
140	0xbe53fb94	-0.20701438
141	0xbe3ded60	-0.18547583
142	0x3d226fcd	0.039657403
143	0xbccff003	-0.025383001
144	0xbd8ee061	-0.06976391
145	0xbe4d5a0c	-0.20053881
146	0xbe31bb96	-0.17356715
147	0xbdc52af1	-0.09627331
148	0x3e1ad8c6	0.15121755
149	0x3d37f4ca	0.044911183
150	0xbc8c9111	-0.017159017
151	0x3dc032da	0.09384699
152	0x3e565bda	0.20933476
153	0x3e05ee07	0.13079081
154	0xbcc5da31	-0.024151893
155	0xbe70b3e3	-0.23506121
156	0x3d25e0e4	0.040497676
157	0x3e275821	0.16342212
158	0xbe3a1c07	-0.18174754
159	0xbcb7fc47	-0.022459162
160	0x3ddbe55b	0.107371055
161	0xbe29c225	-0.16577967
162	0xbe4e11e8	-0.20124018
163	0x3e700fc6	0.23443517
164	0x3cfd3c44	0.030912526
165	0x3e845e76	0.25853318
166	0x3c0952bb	0.008381541
167	0x3d63f447	0.055652883
168	0x3e428948	0.18997681
169	0x3e3237c3	0.17404084
170	0xbdef3b8c	-0.116812795
171	0x3e4a9a62	0.19785455
172	0xbc8a54a1	-0.016886057
173	0x3db47c9d	0.088128306
174	0x3e49f85e	0.19723651
175	0xbddcf11b	-0.10788175
176	0xbd42e221	-0.047578935
177	0xbe298ddf	-0.16558026
178	0x3d4afa64	0.049555197
179	0xbe09149b	-0.13386767
180	0x3e14de86	0.14538011
181	0x3e37f799	0.17965545
182	0xbbc4c9a9	-0.006005485
183	0x3e20df52	0.1571019
184	0x3e5c53ff	0.21516417
185	0xbd0115f4	-0.031515077
186	0x3d7adca3	0.06124557
187	0x3e6ecb5a	0.2331976
188	0x3ddd5acd	0.108083345
189	0x3d7dbbe3	0.06194676
190	0x3e5814b7	0.21101652
191	0xbe29093d	-0.1650743
192	0xbd1dcf39	-0.0385277
193	0xbce582e4	-0.028016515
194	0xbe2e6bb3	-0.17033271
195	0xbca8a544	-0.020586617
196	0xbd5683f1	-0.052371923
197	0xbdd0d711	-0.10197271
198	0xbd69fb1e	-0.05712425
199	0xbdae4610	-0.08509457
200	0xbce78c88	-0.028265253
201	0x3cf5770a	0.029963989
202	0xbe358d09	-0.17729582
203	0xbdf7f2b1	-0.121068366
204	0x3dbedbd7	0.09319275
205	0x3e20d419	0.15705909
206	0xbdaeae75	-0.08529369
207	0xbe48af3d	-0.19598098
208	0x3e3daf48	0.18523896
209	0xbe65db96	-0.22447047
210	0x3dbf9e7a	0.09356399
211	0xbe5dc05a	-0.21655408
212	0xbe88393a	-0.2660616
213	0x3e449855	0.19198735
214	0x3de81612	0.113323346
215	0x3da9452a	0.08265145
216	0x3d63be18	0.05560121
217	0xbdbf7f19	-0.09350414
218	0xbd9de4f7	-0.07709687
219	0xbddd3332	-0.1080078
220	0x3d956e08	0.072963774
221	0x3e93bc15	0.28854433
222	0x3d5893fb	0.0528755
223	0xbe7f5cf6	-0.24937806
224	0x3df36a54	0.11885515
225	0xbba1fcc5	-0.0049434626
226	0xbdd52b06	-0.10408597
227	0xbd87998b	-0.06621083
228	0xbdf95a7c	-0.12175462
229	0x3db9f73a	0.09080358
230	0x3e82324b	0.25428995
231	0xbdd698d3	-0.10478368
232	0xbcef2f44	-0.029197343
233	0xbe580a78	-0.21097744
234	0xbe130c76	-0.14360222
235	0xbd22729b	-0.039660078
236	0xbe210b9c	-0.15727085
237	0xbcecb2ba	-0.028893817
238	0xbdc6f087	-0.09713846
239	0x3e896904	0.26837933
240	0x3e432653	0.19057588
241	0xbc61b391	-0.013775722
242	0x3e723940	0.23654652
243	0x3e26be82	0.1628361
244	0xbe6115c9	-0.21980967
245	0x3d8eb677	0.06968396
246	0x3d09a634	0.03360577
247	0xbe7b263e	-0.24526307
248	0x3c43cd40	0.011950791
249	0xbd287f27	-0.041136887
250	0xbe089def	-0.13341497
251	0xbc116d6c	-0.008876186
252	0x3cc19e3e	0.023635026
253	0xbe1eeab0	-0.15519214
254	0x3e04bab5	0.12961848
255	0xbe829b20	-0.25508976

vae_decoder1.decoder_input.bias f4 [64]
0	0xbc52be4d	-0.012862754
1	0xbc5d1fed	-0.013496381
2	0x3e514891	0.20437838
3	0xbdd580cd	-0.104249574
4	0xbe206039	-0.15661706
5	0x3e732c46	0.23747358
6	0xbddbb917	-0.107286625
7	0x3e831b61	0.25606826
8	0xbe29def8	-0.16588962
9	0x3e3987df	0.18118237
10	0x3e0276ad	0.12740584
11	0xbe5dbbd9	-0.2165369
12	0xbd8f9b65	-0.07012061
13	0xbe3ef17d	-0.18646808
14	0xbda69f91	-0.081359036
15	0x3e6056c1	0.21908094
16	0x3d45128a	0.048113383
17	0x3dcd3067	0.10018998
18	0x3d694830	0.05695361
19	0x3d03f52d	0.03221624
20	0xbe4b0b5c	-0.19828552
21	0xbe3e0329	-0.18555893
22	0x3e78a628	0.24282134
23	0x3ddb5c2d	0.107109405
24	0xbd66d341	-0.05635381
25	0xbdc22126	-0.09478979
26	0xba7a0d75	-0.00095387484
27	0x3e3d925d	0.18512864
28	0xbc2a081e	-0.010377912
29	0xbda44de0	-0.08022666
30	0x3e0a3244	0.13495737
31	0xbe4e0634	-0.20119554
32	0x3e76dc82	0.24107555
33	0x3dae46c5	0.08509592
34	0x3e1750bb	0.1477689
35	0xbd6cfe14	-0.057859495
36	0xbb19c8a3	-0.0023465536
37	0x3d97a380	0.07404232
38	0x3e6a0410	0.22853112
39	0xbdeb5210	-0.114902616
40	0x3e389fdf	0.18029736
41	0x3d11af0d	0.035567332
42	0xbe81a38e	-0.25320095
43	0xbe34b654	-0.17647678
44	0x3e6dd606	0.23226175
45	0x3d85844d	0.06519375
46	0xbd3781ab	-0.044801395
47	0xbe0e2694	-0.13881904
48	0x3e677f92	0.22607258
49	0x3e6e7efc	0.23290628
50	0x3e0eb127	0.13934766
51	0x3e5e9469	0.21736301
52	0xbe6ebadb	-0.23313467
53	0xbd053755	-0.03252347
54	0xbe6c1aaf	-0.23057054
55	0xbcadd672	-0.02122042
56	0xbe44ec4f	-0.1923077
57	0xbe3bd9b0	-0.1834476
58	0x3d1a0f62	0.037612326
59	0xba9f7fad	-0.0012168788
60	0xbe746bb9	-0.23869218
61	0x3e726ba4	0.23673874
62	0xbba282da	-0.0049594464
63	0x3e396201	0.18103792

vae_decoder1.batch_norm.weight f4 [64]
0	0x3f800000	1.0
1	0x3f800000	1.0
2	0x3f800000	1.0
3	0x3f800000	1.0
4	0x3f800000	1.0
5	0x3f800000	1.0
6	0x3f800000	1.0
7	0x3f800000	1.0
8	0x3f800000	1.0
9	0x3f800000	1.0
10	0x3f800000	1.0
11	0x3f800000	1.0
12	0x3f800000	1.0
13	0x3f800000	1.0
14	0x3f800000	1.0
15	0x3f800000	1.0
16	0x3f800000	1.0
17	0x3f800000	1.0
18	0x3f800000	1.0
19	0x3f800000	1.0
20	0x3f800000	1.0
21	0x3f800000	1.0
22	0x3f800000	1.0
23	0x3f800000	1.0
24	0x3f800000	1.0
25	0x3f800000	1.0
26	0x3f800000	1.0
27	0x3f800000	1.0
28	0x3f800000	1.0
29	0x3f800000	1.0
30	0x3f800000	1.0
31	0x3f800000	1.0
32	0x3f800000	1.0
33	0x3f800000	1.0
34	0x3f800000	1.0
35	0x3f800000	1.0
36	0x3f800000	1.0
37	0x3f800000	1.0
38	0x3f800000	1.0
39	0x3f800000	1.0
40	0x3f800000	1.0
41	0x3f800000	1.0
42	0x3f800000	1.0
43	0x3f800000	1.0
44	0x3f800000	1.0
45	0x3f800000	1.0
46	0x3f800000	1.0
47	0x3f800000	1.0
48	0x3f800000	1.0
49	0x3f800000	1.0
50	0x3f800000	1.0
51	0x3f800000	1.0
52	0x3f800000	1.0
53	0x3f800000	1.0
54	0x3f800000	1.0
55	0x3f800000	1.0
56	0x3f800000	1.0
57	0x3f800000	1.0
58	0x3f800000	1.0
59	0x3f800000	1.0
60	0x3f800000	1.0
61	0x3f800000	1.0
62	0x3f800000	1.0
63	0x3f800000	1.0
