rvae.pt (torch, 475089 bytes, 114 tensors)

vae_encoder1.batch_norm.weight f4 [16]
0	0x3f7b655a	0.98201525
1	0x3f796333	0.9741699
2	0x3f7eddc7	0.99557155
3	0x3f726a4b	0.9469344
4	0x3f7bb634	0.98324895
5	0x3f71fb9c	0.9452455
6	0x3f6c0f34	0.922107
7	0x3f7e7289	0.99393517
8	0x3f7d71e0	0.99001884
9	0x3f81737d	1.0113369
10	0x3f6c826f	0.92386526
11	0x3f788197	0.9707274
12	0x3f77a026	0.9672874
13	0x3f765de5	0.9623702
14	0x3f813328	1.0093737
15	0x3f74d828	0.9564233

vae_encoder1.batch_norm.bias f4 [16]
0	0x3d6cbcd4	0.057797268
1	0x3af8b3ab	0.0018974444
2	0x3d4a87f3	0.049446058
3	0xbd68f1da	-0.056871273
4	0x3cd496de	0.025950845
5	0xbd790424	-0.060794964
6	0xbd2d872b	-0.042365234
7	0xbd1d2c7c	-0.0383725
8	0x3d71b3b6	0.059009276
9	0x3c41b421	0.011822731
10	0xbca468a7	-0.020069433
11	0x3d04aa79	0.032389138
12	0x3cb3cb34	0.02194748
13	0x3cea07c6	0.02856816
14	0xbd4e9a03	-0.050439846
15	0xbd4552f6	-0.04817482

vae_encoder1.batch_norm.running_mean f4 [16]
0	0xbbe2a67c	-0.006916819
1	0x40690498	3.6409054
2	0xbb48669b	-0.0030578736
3	0x3e99c1dc	0.30030715
4	0xbc32d0e6	-0.010914063
5	0x3e2e4e16	0.17021975
6	0x40682811	3.6274455
7	0xbb8761e7	-0.004131544
8	0xbb565bfb	-0.0032708633
9	0x3f9a1f90	1.2040882
10	0x3d21f249	0.0395377
11	0xbbea129e	-0.0071433326
12	0x3fecfc03	1.8514408
13	0x402c950b	2.6965969
14	0xbc8a48e1	-0.016880454
15	0x3fa8be20	1.3183022

vae_encoder1.batch_norm.running_var f4 [16]
0	0x354e91e9	7.695331e-07
1	0x3e5f22a5	0.2179056
2	0x36157c50	2.227509e-06
3	0x3c70152c	0.014653485
4	0x36809f92	3.8332737e-06
5	0x3c06ba52	0.008223133
6	0x3e239626	0.15975246
7	0x3581973e	9.655266e-07
8	0x34df1224	4.1550186e-07
9	0x3d1a5f5b	0.037688594
10	0x3c68fea9	0.014220872
11	0x367384ad	3.628705e-06
12	0x3da13afd	0.07872579
13	0x3e346bda	0.17619267
14	0x368c74ea	4.1859357e-06
15	0x3d3ec0d6	0.04657062

vae_encoder1.encoder1.0.0.weight f4 [16, 906]
0	0xbc4a8f92	-0.012363331
1	0x3ca47ac0	0.020078063
2	0x3b8b5c03	0.004252912
3	0x3c14e805	0.009088521
4	0xbd007d65	-0.031369586
5	0xbcb5a167	-0.02217169
6	0x3cabc49c	0.020967774
7	0x3cfd2c5d	0.030904943
8	0x3cc4170a	0.023936767
9	0xbcc94d58	-0.024573013
10	0xbcb5a19d	-0.02217179
11	0x3ceceb49	0.028920786
12	0x3c38786c	0.01125918
13	0xbd3184e3	-0.04333962
14	0x3aafa795	0.0013401384
15	0xbc697844	-0.014249865
16	0x3cdb18e2	0.026745263
17	0xbceb499b	-0.028721621
18	0xbb29e9ce	-0.0025926712
19	0x3c553ba8	0.013014711
20	0x3bd14801	0.0063867574
21	0xbb7d8b5d	-0.0038687803
22	0xbc4e53c4	-0.0125932135
23	0xbb851ef7	-0.004062529
24	0x3c4b5e96	0.012412688
25	0xbb88bdc9	-0.004173015
26	0x3cbdce17	0.02316956
27	0xbd38caf3	-0.045115422
28	0x3cb80b57	0.022466345
29	0x3caaa1ec	0.020829163
30	0xbc545da1	-0.012961776
31	0x3b0673ec	0.0020515872
32	0x3c0a79f2	0.008451926
33	0x3cfeb387	0.031091465
34	0x3c8e7a27	0.017392231
35	0xbd265309	-0.040606532
36	0xbcc3a838	-0.023883924
37	0xbaef7aac	-0.0018270812
38	0x3caf2b6e	0.021383014
39	0x3c58bc98	0.013228558
40	0x3d1e13a2	0.038592942
41	0xbaf318f7	-0.0018546869
42	0xbcc4060d	-0.023928666
43	0xbd33c82b	-0.043892067
44	0x3bb47e39	0.005508211
45	0xbd3ed6db	-0.04659162
46	0xb9ddd81b	-0.00042313416
47	0x3c83100a	0.015998859
48	0xbb3fe9d4	-0.002928366
49	0xbd12d5f7	-0.035848584
50	0x3d0ed0a7	0.034866955
51	0xbce6bbb8	-0.028165683
52	0xbc95edef	-0.018301932
53	0x3cd3b1b8	0.025841579
54	0xbcc097a8	-0.023509815
55	0x3bc101a6	0.005890089
56	0x3c250dfe	0.010074137
57	0xbcb8c65c	-0.022555523
58	0x3a1be92b	0.00059475255
59	0x3d1e9eeb	0.038725775
60	0xbc8c32fd	-0.017114157
61	0x3bb39152	0.00547997
62	0xbc8a9f58	-0.016921684
63	0xbb4897b5	-0.0030608003
64	0x3c3d6bd9	0.011561357
65	0x3c3364f7	0.010949365
66	0xbc7c1c9e	-0.015387682
67	0xbc53f861	-0.012937636
68	0x3ce043c6	0.027376067
69	0xbc94a562	-0.018145267
70	0xbc284dc1	-0.010272444
71	0x3c822b1c	0.015889697
72	0xbcc6c403	-0.024263388
73	0xbbac0635	-0.0052497634
74	0xbc8b0923	-0.01697213
75	0x3cb15595	0.021647254
76	0x3c40f350	0.01177676
77	0x3c345b06	0.01100803
78	0xbb7f89c5	-0.003899203
79	0x3cd1ee26	0.025626253
80	0x3c17d667	0.009267426
81	0x3c4ac0f7	0.012375108
82	0xbcb7b262	-0.022423927
83	0x3d7c3a04	0.061578766
84	0x3b3cefbc	0.0028829416
85	0x3c9466c6	0.018115412
86	0xbbf73453	-0.0075440793
87	0xbbcb0b99	-0.006196451
88	0xbc11f991	-0.008909599
89	0xbc467ebe	-0.012115179
90	0x3c964355	0.018342653
91	0xbd095d24	-0.03353609
92	0xbb45f751	-0.0030207227
93	0xba248a5f	-0.00062767224
94	0xbc18b0d1	-0.0093195
95	0x3c134514	0.0089886375
96	0x3cd5117e	0.026009317
97	0x3cbdd722	0.023173872
98	0x3b7ae3a4	0.0038282657
99	0xbd0d674a	-0.034522332
100	0xbb2ee612	-0.0026687426
101	0x3c094d38	0.008380227
102	0xbcc5a078	-0.024124369
103	0x3d1c0c71	0.038097803
104	0x3d4f8244	0.05066134
105	0x3b9d9cc9	0.00480995
106	0x3cb113f5	0.021615962
107	0x3ab231d5	0.0013595173
108	0x3a83e3a4	0.0010062349
109	0xbbbc7d76	-0.005752261
110	0x3cb357d0	0.021892458
111	0xbc9c6ae2	-0.019093934
112	0xbbf84600	-0.007576704
113	0x3c385e39	0.011252933
114	0x3c9d1a4d	0.01917758
115	0x3caabd1a	0.020842124
116	0xbc51a51d	-0.012795714
117	0x3ccb8694	0.024844445
118	0xbc9c6ed1	-0.01909581
119	0xbc963127	-0.018333985
120	0x3d7f0b48	0.062266618
121	0xbcf86a8d	-0.030324245
122	0x3cb1bab2	0.021695469
123	0x3d074d5e	0.033032767
124	0x3cfed043	0.031105166
125	0xbc12eaa1	-0.008967073
126	0xbb912c9f	-0.004430368
127	0xbcc3bdd6	-0.023894232
128	0x3d0f4b56	0.034983955
129	0xbcd90508	-0.026491657
130	0xbcaf8b49	-0.021428721
131	0x3bad80b1	0.005294882
132	0x3d0523fc	0.03250502
133	0xbb410aa2	-0.00294558
134	0x3d851d10	0.06499684
135	0x3bfc6bd6	0.0077032847
136	0x3c1f162d	0.009709877
137	0x3cf06615	0.029345552
138	0xbc2df361	-0.010617108
139	0xbcf60c21	-0.03003508
140	0xbc252200	-0.010078907
141	0x3b027f2b	0.0019912224
142	0xbcd2eb19	-0.025746869
143	0x3c93a949	0.018025057
144	0x3c05bed9	0.008163177
145	0xbcaad00a	-0.020851154
146	0xbd27b8b8	-0.040947646
147	0x3d2873ee	0.041126184
148	0xbcb8b148	-0.022545472
149	0xbbc39cd4	-0.005969623
150	0x3cbb8852	0.022892151
151	0x3a8c6861	0.001071226
152	0xbc8afa7f	-0.016965149
153	0xbb853ab6	-0.004065837
154	0x3c96425d	0.018342191
155	0xbc36bc4f	-0.011153295
156	0xbbf5f0fd	-0.0075055347
157	0x3b824ad0	0.0039762035
158	0xbc83c766	-0.016086292
159	0x3c951a83	0.018201118
160	0xbc3a4924	-0.011369977
161	0x3d044ecb	0.032301705
162	0x3c88996e	0.016674723
163	0xbc80691e	-0.015675124
164	0x3cf64bb9	0.030065404
165	0x3c3e3887	0.011610157
166	0x3c8a443b	0.016878238
167	0x3c590071	0.013244734
168	0xbbac1da1	-0.0052525555
169	0x3bccd3e2	0.0062508443
170	0xbbf3a53a	-0.007435468
171	0x3c7624c9	0.015023419
172	0xbbb1e022	-0.00542833
173	0x3c2faf03	0.010722878
174	0x3ca177df	0.01971048
175	0xbc91e92a	-0.017811377
176	0x3cecec31	0.028921219
177	0x3c7a283c	0.015268382
178	0xbca0b2a9	-0.019616442
179	0xbc38f662	-0.011289211
180	0xbc98329d	-0.018578822
181	0x3cad38cc	0.021145247
182	0x3c6eeecb	0.0145833
183	0xbc70435a	-0.014664495
184	0xbc71188b	-0.014715324
185	0x3c3d7283	0.011562946
186	0xbca265d6	-0.01982395
187	0xbc289ae9	-0.01029084
188	0xbcfa9626	-0.030589174
189	0xbcc8491a	-0.02444892
190	0x3cc637a2	0.02419645
191	0x3c4a276a	0.012338499
192	0x3c77fb26	0.015135562
193	0xbb804fd9	-0.0039157686
194	0xbced25e9	-0.028948741
195	0xbb85fdf3	-0.004089111
196	0xb9bcbdb7	-0.00035999503
197	0xbb8b1138	-0.004243996
198	0xbcdbf8a5	-0.026851961
199	0xbbbb3572	-0.0057131583
200	0xbcd7c496	-0.026338857
201	0x3b89a425	0.0042004758
202	0xbc1c77b5	-0.009550025
203	0x3bcb2ed8	0.0062006526
204	0x3c87ae92	0.016562734
205	0xbc1dbf6a	-0.009628156
206	0xbba4e2a2	-0.0050318995
207	0xbc015a24	-0.007895026
208	0xbcd049e2	-0.025425855
209	0xbb90313e	-0.0044004014
210	0x3cf4e05c	0.02989214
211	0x3b247814	0.0025095986
212	0xbcc05102	-0.023476128
213	0xbcb9a977	-0.022663815
214	0xbc796cfe	-0.01522374
215	0xbc3e01e7	-0.011597133
216	0x3c5fdc7b	0.0136634065
217	0xbcb05715	-0.021525899
218	0xbcab63f9	-0.020921694
219	0x3c3a7b25	0.011381899
220	0xbb486756	-0.003057917
221	0x3c67e5d8	0.01415392
222	0x3cd02f30	0.025413126
223	0x3cb7ae56	0.022421997
224	0x3c8e02bc	0.017335288
225	0xbc628697	-0.013826034
226	0x3ca19b7f	0.019727467
227	0xbbd4e4fe	-0.0064970246
228	0xbc2f7675	-0.010709395
229	0xbb640e85	-0.0034798693
230	0x3ca42325	0.02003629
231	0x3cbd9a5d	0.023144895
232	0x3c72cebc	0.014819797
233	0x3c182094	0.009285111
234	0xbcfb4650	-0.030673176
235	0x3ca2285c	0.019794635
236	0x3c6a6714	0.014306802
237	0xbc1402b3	-0.009033847
238	0x3cc1e879	0.023670422
239	0xbce90c19	-0.028448151
240	0x3b2a742b	0.0026009183
241	0x3cb75885	0.022381077
242	0x3bfb6b38	0.0076726936
243	0x3ae32d7c	0.0017332281
244	0xbcb3befe	-0.021941658
245	0xbcb47f53	-0.02203337
246	0xbcbc4cfc	-0.022985928
247	0x3c5d284f	0.01349838
248	0xbcbd5e5d	-0.023116285
249	0xbca26b2e	-0.019826498
250	0xbb7eff50	-0.0038909502
251	0x3c1a4fdc	0.009418454
252	0x3c9f12d1	0.019418152
253	0xbcefa330	-0.029252619
254	0xba6ce664	-0.00090370164
255	0xbc1ec4e0	-0.009690493

vae_encoder1.encoder1.0.0.bias f4 [16]
0	0xbbed0806	-0.0072336225
1	0xbc284a3c	-0.010271605
2	0x3cb4bce6	0.02206273
3	0x3c979d34	0.018507577
4	0x3c9e1463	0.01929683
5	0x3d3feda8	0.046857506
6	0xbd07099b	-0.032968145
7	0xbd0acece	-0.03388863
8	0xbcc7645a	-0.024339844
9	0xbbe0e152	-0.006862798
10	0xbbf3b3e2	-0.007437215
11	0xbb1aeb18	-0.0023638662
12	0xbba25da6	-0.0049550114
13	0xbccee6cd	-0.025256539
14	0x3c01177f	0.007879137
15	0x3cf5a0e4	0.029983945

vae_encoder1.encoder2.0.0.weight f4 [32, 16]
0	0x3b2216b1	0.0024732763
1	0x3d811c92	0.063042775
2	0xbdb25c11	-0.087089665
3	0xbdd84257	-0.10559528
4	0xbe01d0e5	-0.12677343
5	0x3df7cd06	0.12099652
6	0x3c8fbe77	0.017546875
7	0xbc79a5f1	-0.015237317
8	0x3bbc0ed1	0.005739071
9	0x3e679dc3	0.22618775
10	0xbd847d2a	-0.06469186
11	0xbb76183a	-0.0037551061
12	0xbd538c01	-0.05164719
13	0xbda30b7f	-0.07961177
14	0x3de057e2	0.10954262
15	0xbe49f2de	-0.19721553
16	0x3e5f0e6c	0.21782845
17	0xbe15c2dc	-0.14625114
18	0x3ddebabc	0.108754605
19	0x3e55c8fc	0.2087745
20	0xbd074025	-0.033020157
21	0xbe2197de	-0.15780589
22	0x3dce7af7	0.100820474
23	0xbe7639d5	-0.24045499
24	0x3e45c04d	0.19311638
25	0x3b99f4a1	0.0046983515
26	0x3e05a400	0.13050842
27	0xbc58ca0d	-0.013231766
28	0x3e471629	0.19442047
29	0x3e026a04	0.12735754
30	0x3dd06fbb	0.10177561
31	0xbe4f5465	-0.20247038
32	0xbe0d0d28	-0.1377455
33	0xbd152e3f	-0.036421057
34	0x3ddebaff	0.108755104
35	0x3e46acf0	0.19401908
36	0x3d1ed7f5	0.03878017
37	0xbd936a3f	-0.07197999
38	0xbd60bdda	-0.054868557
39	0x3e7139e3	0.23557238
40	0x3c14c2b5	0.009079625
41	0xbe665717	-0.2249416
42	0x3a8ab9fc	0.0010583992
43	0xbe655064	-0.22393948
44	0x3e6155a7	0.2200533
45	0x3da4380a	0.08018501
46	0x3e3f910f	0.18707679
47	0x3e3775e6	0.17916068
48	0xbdb69ef9	-0.089170404
49	0xbe5f41a6	-0.21802387
50	0xbe351cd3	-0.17686777
51	0x3dd3ea51	0.10347427
52	0xbdf4b2f0	-0.11948192
53	0x3dda681e	0.1066439
54	0x3e4fbf9c	0.20287937
55	0x3e076e42	0.13225654
56	0xbe569254	-0.20954257
57	0x3dad5324	0.084631234
58	0xbe2cc88d	-0.16873379
59	0xbd148263	-0.03625716
60	0xbe6f1952	-0.23349503
61	0xbd893261	-0.06699062
62	0x3df3780a	0.1188813
63	0x3e623307	0.22089778
64	0x3e5dd653	0.2166379
65	0xbe195d48	-0.1497699
66	0xbe3d41bd	-0.18482108
67	0x3e3168cf	0.17325138
68	0xbdf7e615	-0.121044315
69	0x3d5657bc	0.052329764
70	0xbdefb807	-0.11705022
71	0x3e75e97b	0.24014847
72	0xbe68928b	-0.22712152
73	0xbe4d66e7	-0.20058785
74	0x3dd05738	0.10172886
75	0xbe4b77d7	-0.19869934
76	0x3e48fdbd	0.19628043
77	0x3dbaafc9	0.091155596
78	0xbcbb1432	-0.022836778
79	0x3e38b3b9	0.18037309
80	0x3d6c01cc	0.0576189
81	0x3e2fe1ff	0.17176054
82	0x3c43831c	0.011933114
83	0x38c6de98	9.482837e-05
84	0x3e803797	0.25042412
85	0x3df95325	0.12174062
86	0x3db6bc92	0.08922686
87	0xbd609517	-0.054829683
88	0x3c8af435	0.01696215
89	0xbd812256	-0.06305377
90	0xbde1620f	-0.11005031
91	0x3b79dea1	0.0038127082
92	0xbcdd788d	-0.027035022
93	0x3d8a1c95	0.06743733
94	0x3d029a6f	0.03188556
95	0x3d05db62	0.032679923
96	0xbe055418	-0.1302036
97	0xbd4f8de4	-0.050672427
98	0xbe6160b5	-0.22009547
99	0x3e550f26	0.2080656
100	0x3c9e9e0d	0.019362474
101	0x3e4ba418	0.19886816
102	0x3dad6b67	0.08467751
103	0x3e7558db	0.23959677
104	0x3dfa4cd3	0.12221684
105	0x3e3231b1	0.17401768
106	0xbd8a967e	-0.06766985
107	0x3e7044a8	0.2346369
108	0x3db8457b	0.08997627
109	0xbe11d871	-0.14242722
110	0x3e09694e	0.13419077
111	0xbd88af39	-0.06674046
112	0x3e17a4ac	0.14808911
113	0x3b8ac41d	0.0042348043
114	0x3d9b1d8c	0.07573995
115	0x3db645d6	0.08900039
116	0x3d959419	0.07303638
117	0xbe31cae0	-0.17362547
118	0xbdb39900	-0.08769417
119	0x3e801aad	0.25020352
120	0x3e0f537f	0.13996695
121	0x3e33e592	0.17568043
122	0xbd3e0e68	-0.046400458
123	0xbe0e5d0a	-0.13902679
124	0xbd2385f3	-0.039922666
125	0xbde967e3	-0.11396768
126	0x3e1f19d3	0.15537195
127	0xbd1df75f	-0.03856599
128	0x3e19743e	0.14985749
129	0xbe884f25	-0.26622882
130	0x3da782e7	0.081792645
131	0x3e421917	0.18954884
132	0xbe0ed4a8	-0.1394831
133	0x3d809102	0.06277658
134	0x3e6ce3d9	0.23133792
135	0xbbed4e93	-0.007242033
136	0x3e53d8d8	0.20688188
137	0x3b9abefc	0.004722474
138	0xbcfe440f	-0.031038312
139	0x3e47da79	0.19516934
140	0x3d74e9c5	0.059793252
141	0x3df28f6b	0.11843761
142	0x3e548483	0.20753674
143	0x3e16c8a0	0.1472497
144	0x3e2f0bbb	0.17094319
145	0x3ddb5304	0.10709193
146	0xbe38abab	-0.18034236
147	0x3c9fc503	0.019503122
148	0xbe5867b9	-0.21133317
149	0x3e03ade4	0.12859303
150	0xbd928219	-0.071537204
151	0x3e49afe4	0.19696003
152	0xbbad890e	-0.005295879
153	0xbe377ef1	-0.17919518
154	0x3df2b41e	0.11850761
155	0xbe5ef552	-0.2177327
156	0x3e01c282	0.12671855
157	0xbdf42516	-0.11921136
158	0xbda58ab6	-0.08083098
159	0x3d5f9ef8	0.054594964
160	0xbda94837	-0.08265727
161	0x3d80b614	0.06284729
162	0xbd9429b4	-0.07234517
163	0x3df3f505	0.11911968
164	0x3e2bafa8	0.16766226
165	0x3e413ab0	0.18870044
166	0x3e1aa4dc	0.15101951
167	0xbd84d7ba	-0.06486459
168	0xbbab9de2	-0.005237327
169	0x3e2b9d15	0.16759141
170	0x3e70433a	0.23463145
171	0x3d4a42fd	0.04938029
172	0xbb2c3dd1	-0.0026281963
173	0xbe4a219c	-0.19739383
174	0x3daceecc	0.084439844
175	0xbab1a6f9	-0.001355379
176	0xbcde71e3	-0.027153915
177	0x3e59b884	0.21261793
178	0x3e58ff57	0.21191154
179	0x3d86d4ba	0.06583543
180	0xbe43f063	-0.19134669
181	0x3da082cf	0.0783745
182	0xbe2d17d7	-0.16903625
183	0x3cf4f581	0.029902222
184	0x3dab8c07	0.083763175
185	0xbde2dc8d	-0.11077223
186	0xbd80332c	-0.0625976
187	0xbd285998	-0.04110107
188	0x3dcfdaa6	0.10149126
189	0xbd6893d2	-0.056781597
190	0x3e165907	0.14682399
191	0x3e4edd7e	0.2020168
192	0xbe87516f	-0.26429316
193	0xbde2e75a	-0.11079283
194	0xbe04f788	-0.1298505
195	0x3de07925	0.109606065
196	0x3d69965c	0.05702816
197	0x3dde1c25	0.10845212
198	0xbd9aa264	-0.07550505
199	0x3e3b9718	0.18319356
200	0xbc51ad04	-0.012797598
201	0x3c915171	0.01773903
202	0xbd302819	-0.04300699
203	0xbc75b771	-0.014997349
204	0x3e599f1e	0.21252105
205	0x3cca3208	0.02468206
206	0x3da2d36d	0.079504825
207	0xbdacf207	-0.084446006
208	0xbe3dad79	-0.18523206
209	0x3e07ef10	0.13274789
210	0x3e390715	0.18069108
211	0x3d38e6de	0.045142047
212	0x3df2e3a2	0.11859824
213	0xbe24985c	-0.16073745
214	0xbe833342	-0.25625044
215	0xbe46c7c6	-0.19412145
216	0x3ca419ee	0.020031895
217	0xbe20769b	-0.15670244
218	0x3e299c92	0.16563633
219	0x3ca658db	0.020306041
220	0xbc9e3591	-0.019312652
221	0x3dea1ac8	0.11430889
222	0xbe5effae	-0.21777222
223	0x3de22dc0	0.11043882
224	0x3e0ac654	0.13552219
225	0xbe09714a	-0.13422123
226	0x3ccb529c	0.024819665
227	0x3e128e02	0.14311984
228	0xbcee44da	-0.029085565
229	0xbe012f4e	-0.12615702
230	0xbe15129b	-0.14557879
231	0xbc2229d1	-0.009897665
232	0x3d941547	0.07230621
233	0xbd26fb3d	-0.040766943
234	0x3e441707	0.19149409
235	0x3e1d0160	0.15332556
236	0xbce5b9f7	-0.028042777
237	0x3dc57943	0.096422695
238	0xbe48e2c9	-0.19617762
239	0x3e190e5e	0.14946887
240	0x3d89afd0	0.06722987
241	0x3dcdc031	0.10046423
242	0xbe36b315	-0.17841752
243	0xbcefb86f	-0.02926275
244	0xbe05cac5	-0.13065632
245	0x3cc2f192	0.02379683
246	0x3cec8634	0.028872587
247	0x3e58bb7e	0.21165273
248	0xbe3093e0	-0.1724391
249	0xbe6ff97f	-0.23435019
250	0x3d9a81f2	0.07544316
251	0xbe60290d	-0.2189066
252	0x3e2b689e	0.16739127
253	0xbdf7819f	-0.1208527
254	0x3e69ed8d	0.22844525
255	0xbda34c28	-0.0797351

vae_encoder1.encoder2.0.0.bias f4 [32]
0	0xbe111a25	-0.1417013
1	0xbe3833e0	-0.17988539
2	0xbe576ed1	-0.21038367
3	0x3d9f21cf	0.0777012
4	0x3e2dc52d	0.16969748
5	0x3dc5148b	0.09623059
6	0xbe198b92	-0.14994648
7	0x3dec8755	0.1154925
8	0x3dca9daa	0.09893353
9	0x3d67d312	0.056597777
10	0xbd5223c5	-0.051303644
11	0xbe501f67	-0.20324479
12	0x3b8cf061	0.0043011163
13	0xbe4469d3	-0.19180994
14	0x3d7b993d	0.061425436
15	0xbdd1f35a	-0.10251494
16	0xbe5bcbbc	-0.21464437
17	0xbe8a49ae	-0.27009338
18	0xbc636870	-0.01387988
19	0x3de587e8	0.11207563
20	0x3d9177b3	0.07102909
21	0x3e2de200	0.16980743
22	0x3e27c3f1	0.1638334
23	0x3c7e1dfa	0.015510077
24	0x3dc0326b	0.093846165
25	0xbd9fa4a9	-0.07795078
26	0xbdd85966	-0.105639264
27	0x3d67cdf7	0.056592908
28	0x3e008763	0.12551646
29	0x3e03527d	0.12824436
30	0xbe742893	-0.23843603
31	0xbe8fd68a	-0.28093368

vae_encoder1.encoder2.1.0.weight f4 [64, 32]
0	0xbdbedeb4	-0.09319821
1	0xbcf7b121	-0.030235829
2	0x3e18513e	0.14874741
3	0xbe196d60	-0.1498313
4	0xb96eea0d	-0.0002278464
5	0x3e026db5	0.12737162
6	0xbe0d053e	-0.13771531
7	0xbd9caa35	-0.07649652
8	0xbc2cc17a	-0.010544175
9	0xbdb8130d	-0.08988009
10	0x3dff67f8	0.12471002
11	0xbe11e253	-0.14246492
12	0xbc8168da	-0.015797067
13	0x3d7230e0	0.059128642
14	0xbbab4050	-0.0052261725
15	0x3dafb9e0	0.08580375
16	0x3dccc98f	0.09999382
17	0x3daee9d3	0.08540692
18	0xbd9dc155	-0.07702891
19	0xbd9604c9	-0.073251314
20	0xbc96694a	-0.018360753
21	0xbc437235	-0.011929085
22	0xbe35372e	-0.1769683
23	0xbe1556e8	-0.14583933
24	0xbe213a2c	-0.15744847
25	0x3e19b9cc	0.15012282
26	0xbe0158ac	-0.12631482
27	0x3e12557a	0.14290419
28	0xbdcfe4da	-0.10151072
29	0xbdbd7fd8	-0.092529
30	0x3cb8fe48	0.022582188
31	0x3d4fdf7b	0.050750237
32	0x3db9f481	0.090798385
33	0x3da64261	0.081181295
34	0x3e14a00c	0.14514178
35	0x3d0da2e6	0.03457918
36	0x3ce27e88	0.027648225
37	0x3bc9297b	0.006138978
38	0x3d71b3b5	0.059009273
39	0x3cd075ef	0.02544686
40	0x3d9978d3	0.074937485
41	0x3d3121c5	0.043245096
42	0xbdbb95c2	-0.091594234
43	0x3b29102a	0.0025796988
44	0x3e08cf14	0.13360244
45	0x3d69456d	0.056950975
46	0x3d89d532	0.06730117
47	0xbe080119	-0.13281669
48	0xbd202a14	-0.03910263
49	0xbd2360f1	-0.039887372
50	0x3deae80b	0.1147004
51	0x3dc86f6d	0.09786878
52	0x3d75b6d4	0.05998881
53	0xbe42bfb8	-0.19018447
54	0x3d868bec	0.06569657
55	0xbc91e7a7	-0.017810656
56	0xbd3b1675	-0.045675714
57	0xbda52c17	-0.0806505
58	0xbe1e95fd	-0.15486903
59	0x3da8bb00	0.082387924
60	0x3cbe173a	0.023204435
61	0x3d912bdf	0.07088446
62	0x3d21ac85	0.039471168
63	0x3e0d4ad9	0.13798083
64	0x3d65c9ca	0.056100644
65	0xbd0f5deb	-0.035001677
66	0xbdf5509b	-0.11978265
67	0x3e1a9aaf	0.1509807
68	0xbd618693	-0.05505998
69	0x3d2a20a5	0.04153504
70	0xbda78327	-0.08179312
71	0xbda230f1	-0.07919491
72	0x3d422a1e	0.047403447
73	0x3da81992	0.08208002
74	0xbc83fea2	-0.01611263
75	0xbe3b8d0e	-0.18315527
76	0x3c2d9821	0.010595352
77	0x3e0b671f	0.13613556
78	0x3e0393d6	0.12849364
79	0x3dffeb00	0.124959946
80	0x3d91baa0	0.07115674
81	0x3c510bf4	0.0127591975
82	0x3ce562c9	0.028001206
83	0x3cb5ed29	0.022207813
84	0x3deeb742	0.116560474
85	0x3e0e8598	0.1391815
86	0x3c582989	0.0131934965
87	0x3dd71ba3	0.10503318
88	0x3e04a64a	0.12954059
89	0xbdd55000	-0.104156494
90	0xbe00edea	-0.12590757
91	0x3e099aac	0.13437909
92	0xbe009281	-0.12555887
93	0x3df96546	0.121775195
94	0x3c44b940	0.012007058
95	0x3e154cf1	0.14580132
96	0xbe375522	-0.1790357
97	0x3d5f359c	0.054494485
98	0xbd910572	-0.07081117
99	0x3df513c6	0.11966662
100	0xbe00f7e1	-0.12594558
101	0xbdb9f9c8	-0.09080845
102	0xbde4bf6f	-0.111693256
103	0x3df95a01	0.1217537
104	0xbd0ea13f	-0.034821745
105	0xbe251e64	-0.16124874
106	0xbe383607	-0.1798936
107	0xbd9e03bc	-0.07715556
108	0x3c3f79d5	0.011686762
109	0x3e1b85a7	0.15187703
110	0xbd249bb5	-0.040187556
111	0x3c8ff47d	0.017572636
112	0xbc8074ba	-0.01568066
113	0x3e1288c4	0.14309984
114	0xbe2e73e8	-0.17036402
115	0xbd4aac4d	-0.049480725
116	0x3d9ad5c6	0.07560305
117	0x3e10fe8e	0.14159605
118	0xbcf8305c	-0.030296497
119	0x3dc479a6	0.09593515
120	0x3d6ce9aa	0.057840027
121	0x3dc6e2f3	0.09711256
122	0x3e0d8fb2	0.13824347
123	0x3c645c36	0.013938
124	0xbd82a633	-0.06379356
125	0xbddb23d1	-0.10700191
126	0xbd2b78bb	-0.041863184
127	0xbc483b33	-0.012221145
128	0xbe0c6d6b	-0.13713615
129	0x3e1e06a1	0.15432216
130	0x3d97aa25	0.07405499
131	0x3e051b69	0.12998737
132	0x3e020420	0.12696886
133	0x3db81395	0.0898811
134	0xbe3ac439	-0.18238916
135	0x3e00a593	0.12563162
136	0xbe1113e2	-0.14167741
137	0xbe2e87bd	-0.17043968
138	0x3d9efc7b	0.077630006
139	0x3df7d44a	0.12101038
140	0x3e00e936	0.12588963
141	0xbded4d92	-0.11587061
142	0xbd79ab97	-0.060954656
143	0x3e2263be	0.15858361
144	0xbdca7057	-0.098847084
145	0x3d753856	0.05986818
146	0x3db9bb44	0.09068921
147	0x3d08d35d	0.033404697
148	0x3d2e0932	0.042489238
149	0x3da59d7e	0.0808668
150	0xbe219986	-0.15781221
151	0x3c4a3d9a	0.0123437885
152	0x3d8b18c3	0.06791832
153	0xbe3e70c9	-0.18597712
154	0xbdee18aa	-0.11625798
155	0x3e09e5a4	0.13466507
156	0xbd644697	-0.055731382
157	0xbd7a4b36	-0.061106883
158	0xbc70ed80	-0.014705062
159	0x3e1de312	0.15418652
160	0x3cac5ed5	0.021041313
161	0xbe110652	-0.14162567
162	0xbceb6407	-0.02873422
163	0xbdacac98	-0.08431357
164	0xbd9ba5a6	-0.07599954
165	0xbd8672af	-0.06564843
166	0x3df6e041	0.12054492
167	0x3c926e53	0.017874872
168	0x3c186089	0.0093003595
169	0x3d300fbc	0.042983755
170	0xbe3bf2eb	-0.18354385
171	0x3e0855d2	0.13313988
172	0x3c465ab9	0.012106591
173	0xbd55960a	-0.05214504
174	0xbd430e57	-0.047621097
175	0x3c18f027	0.0093346005
176	0xbe24b87f	-0.16086005
177	0xbda1a15d	-0.07892106
178	0xbe336d7e	-0.17522237
179	0x3de12333	0.10993042
180	0x3d5e1322	0.054217465
181	0x3da085d2	0.07838024
182	0x3d723f99	0.059142683
183	0x3e1004d0	0.14064336
184	0xbe28cbee	-0.16484043
185	0xbe09d778	-0.13461101
186	0xbd73d723	-0.059531342
187	0x3d86ba90	0.06578553
188	0xbdfea076	-0.12432949
189	0xbe0774ba	-0.13228121
190	0xbb1a353b	-0.0023530263
191	0x3dbe9665	0.09306029
192	0x3dc3e3d2	0.09564938
193	0xbdc0e514	-0.09418693
194	0xbe1aa1b9	-0.15100755
195	0x3dcd17aa	0.10014279
196	0xbe3ce632	-0.18447188
197	0xbd28cb60	-0.04120958
198	0xbd9284aa	-0.0715421
199	0xbe3c3e95	-0.18383248
200	0xbe3e3856	-0.18576178
201	0xbd839d5c	-0.06426498
202	0x3ab7f7f8	0.0014035692
203	0x3df69f26	0.12042074
204	0xbdaa758a	-0.083232
205	0x3e0acdc5	0.13555057
206	0x3d6a897a	0.057260014
207	0xbcd75e76	-0.02629016
208	0xbd1df3b6	-0.0385625
209	0x3dd114b9	0.10209031
210	0x3e19e491	0.15028597
211	0x3d482c24	0.04887022
212	0xbdb05239	-0.08609433
213	0xbe3ecfd4	-0.18633968
214	0x3c9e3c6f	0.019315926
215	0xbe00cdd0	-0.12578511
216	0x3d763967	0.060113337
217	0x3d3ef909	0.046624217
218	0xbddce20f	-0.10785305
219	0xbe221e2b	-0.1583182
220	0xbd3d15f8	-0.04616353
221	0xb8db592d	-0.00010459344
222	0xbdeb12e7	-0.11478215
223	0x3de900bc	0.11377093
224	0x3e22462d	0.15847082
225	0x3e13f49a	0.14448777
226	0x3d8c7569	0.06858332
227	0xbd148b0c	-0.036265418
228	0xbe12be8c	-0.143305
229	0x3e275f66	0.16344985
230	0x3dffb34c	0.1248537
231	0xbdd55af4	-0.104177386
232	0xbe037d7f	-0.12840842
233	0xbde17497	-0.11008566
234	0xbe0763ae	-0.13221619
235	0x3d417bae	0.04723709
236	0x3d762d63	0.060101878
237	0x3d7cc215	0.06170853
238	0xbd946cdf	-0.07247328
239	0x3c16dff8	0.009208672
240	0x3c99c07d	0.018768543
241	0x3e04960b	0.12947862
242	0xbd1f335f	-0.03886735
243	0x3c0213f6	0.007939329
244	0xbcdea6ec	-0.027179204
245	0xbd26e984	-0.04075004
246	0xbc595006	-0.013263708
247	0x3e1ccfaa	0.15313593
248	0xbdbeeccb	-0.093225084
249	0x3cbbff17	0.022948785
250	0xbe011b74	-0.12608129
251	0x3cf278af	0.029598562
252	0x3d42ff34	0.047606662
253	0xbc58f93e	-0.013243018
254	0xbd792acd	-0.060831834
255	0x3c3ad98e	0.011404408

vae_encoder1.encoder2.1.0.bias f4 [64]
0	0xbd0231da	-0.031785823
1	0xbd83c355	-0.06433741
2	0xbe656947	-0.22403441
3	0xbe2c9e57	-0.16857277
4	0xbe14e257	-0.14539467
5	0xbdfdbf95	-0.12390057
6	0x3c5ee30d	0.013603938
7	0xbe2dc551	-0.16969801
8	0x3cd0a8ed	0.025471175
9	0x3da31ef2	0.07964887
10	0xbe2b5004	-0.16729742
11	0xbe3025c4	-0.17201906
12	0xbe446274	-0.19178182
13	0xbe4a18a3	-0.1973596
14	0x3d8e1299	0.06937141
15	0xbdfb22bb	-0.12262484
16	0xbd92c504	-0.07166484
17	0xbdca45fb	-0.09876629
18	0xbe1c06ae	-0.15236923
19	0x3d22ba1f	0.03972828
20	0xbc1d936c	-0.009617668
21	0xbde5bc0b	-0.11217507
22	0x3c30aa64	0.010782812
23	0xbdd2ff94	-0.10302654
24	0x3d07d18b	0.03315882
25	0xbe2428f1	-0.16031243
26	0xbba6cb72	-0.0050901705
27	0xbd140f20	-0.036147237
28	0xbaf3c4e1	-0.0018598103
29	0xbe2e3473	-0.17012195
30	0x3c16cfc3	0.009204808
31	0xbd8203bd	-0.06348369
32	0xbd87f03a	-0.066376165
33	0x3ce96f25	0.02849538
34	0x3da50316	0.08057229
35	0xbc25eb02	-0.010126831
36	0xbe07d576	-0.13265023
37	0xbc99875f	-0.018741308
38	0xbe292ef6	-0.1652182
39	0xbe1cda4b	-0.15317647
40	0xbdd419e3	-0.103565
41	0x3d730b53	0.05933697
42	0x3db73ddd	0.08947346
43	0x3cef8555	0.029238382
44	0xbe05b6e3	-0.13058047
45	0xbb199736	-0.0023436076
46	0xbd3f3bf4	-0.046688035
47	0xbc6662bd	-0.014061627
48	0x3da71e8f	0.081601255
49	0xbd937484	-0.07199958
50	0xbdf3f8ff	-0.119127266
51	0xbca83afe	-0.020535942
52	0x3bc8cc74	0.0061278883
53	0xbe248a05	-0.16068275
54	0xbe0ba333	-0.13636474
55	0x3aac6a00	0.0013154149
56	0x3d74c8f1	0.059761945
57	0xbd27cda6	-0.040967606
58	0xbd2e53a2	-0.042560227
59	0xbba71eb9	-0.005100098
60	0x3d936554	0.07197061
61	0x3d37ecb6	0.04490348
62	0xbd6f8f3b	-0.058486205
63	0x3da03c05	0.07823948

vae_encoder1.fc_mu.weight f4 [28, 64]
0	0xbadf2da4	-0.0017027152
1	0x3aa33691	0.0012452175
2	0x3d30db01	0.04317761
3	0xbcfddb02	-0.03098822
4	0xbdab1033	-0.08352699
5	0xbcfdb732	-0.030971143
6	0x3cb2b481	0.021814587
7	0xbc78621f	-0.015160113
8	0x3db2f0d3	0.0873734
9	0x3d1190e3	0.035538565
10	0xbdbb5e4c	-0.09148845
11	0x3dc13611	0.094341405
12	0xbd90f61d	-0.070781924
13	0x3db8ee5f	0.09029841
14	0x3bf61c3a	0.007510689
15	0x3d2e6c0c	0.04258351
16	0x3d599370	0.053119123
17	0xbd463f42	-0.04840017
18	0xbcb6245f	-0.02223414
19	0xbd0a0c31	-0.033703033
20	0x3d4020d0	0.046906292
21	0xbccc65c6	-0.024950873
22	0x3d9f539a	0.077796176
23	0xbddd0315	-0.107916035
24	0x3d231be6	0.039821528
25	0xbb0652a0	-0.0020496026
26	0x3d03c9a9	0.03217474
27	0xbd551b84	-0.052028194
28	0x3bbca768	0.005757261
29	0xbca63542	-0.020289067
30	0x3bfd9ec9	0.007739876
31	0xbbcd436f	-0.006264142
32	0xbdcad1b8	-0.09903282
33	0x3db986ea	0.09058936
34	0xbca4d44a	-0.020120759
35	0x3d3ebae4	0.04656495
36	0x3d8210b2	0.06350841
37	0xbcbcdf33	-0.023055648
38	0x3d2ed5d3	0.042684387
39	0x3dcc9d86	0.09990983
40	0x3d42ab15	0.047526438
41	0xbda698e4	-0.0813463
42	0xbd1cebfd	-0.038310993
43	0x3dc823e1	0.09772468
44	0xbb9ba3c6	-0.004749748
45	0x3d95e8eb	0.07319816
46	0xbda14e76	-0.07876293
47	0x3d39455e	0.04523217
48	0x3d77f4d5	0.060536224
49	0x3da1e219	0.07904453
50	0xbe0689ad	-0.13138457
51	0x3d2afbd8	0.041744083
52	0x3cd8fa85	0.026486645
53	0xbd46acf1	-0.048504774
54	0xbde30b8b	-0.11086186
55	0xbcb79aca	-0.022412676
56	0x3d57b029	0.052658234
57	0x3d9cfd76	0.07665531
58	0x3db22bbd	0.08699749
59	0x3aaad71b	0.0013034077
60	0xbbc835e1	-0.0061099385
61	0xbd45cc04	-0.048290268
62	0x3d6ed794	0.05831106
63	0x3c92f4b3	0.017938947
64	0xbbac0195	-0.005249212
65	0xbdb86ce8	-0.09005147
66	0xbdb075a6	-0.0861619
67	0x3cd2a4bd	0.025713319
68	0x3d04a2a7	0.03238168
69	0xbd7a4c3c	-0.06110786
70	0xbdd16440	-0.10224199
71	0xbd97cbc7	-0.07411914
72	0xbd89bbb2	-0.06725253
73	0x3d4925a9	0.04910818
74	0x3d9a1be4	0.07524851
75	0xbd8448cb	-0.06459197
76	0xbb2e2ef0	-0.002657827
77	0x3c2ebe38	0.010665469
78	0xbda70843	-0.08155873
79	0xbc46b723	-0.012128624
80	0x3d8027b2	0.06257571
81	0xbb8b1a4e	-0.004245079
82	0xbce3a55a	-0.027788807
83	0x3d8b5e62	0.068051115
84	0xbc83a424	-0.01606948
85	0x3dfb7cee	0.12279688
86	0xbd8a8078	-0.06762785
87	0xbddd8a25	-0.108173646
88	0x3c86c622	0.016451899
89	0x3b350fed	0.00276279
90	0x3d66b3df	0.056323882
91	0x3cea0145	0.028565058
92	0xbd9d2884	-0.07673743
93	0x3da1744e	0.078835115
94	0x3dbf5cda	0.09343882
95	0x3d091768	0.033469588
96	0x3cbc5522	0.022989813
97	0x3cdeaf81	0.027183296
98	0x3c7a07c1	0.015260638
99	0x3c92e942	0.017933492
100	0x3dae2680	0.08503437
101	0xbd810ebb	-0.06301638
102	0xbdc019eb	-0.093799435
103	0xbcbf6986	-0.023365747
104	0xbdb0356b	-0.08603939
105	0x3dbe9c08	0.09307104
106	0xbd98e42a	-0.07465394
107	0xbdd6898e	-0.10475455
108	0x3d3a0a5b	0.045420032
109	0xbb9a9073	-0.0047169267
110	0xbd126a46	-0.03574588
111	0x3cc35ee6	0.023848962
112	0xba9ffd99	-0.0012206315
113	0xbc6bb2a8	-0.014385857
114	0xbd661f61	-0.05618227
115	0xbd3cdcf9	-0.046109173
116	0xbd3c55f4	-0.04598041
117	0x3dc53dd1	0.09630931
118	0x3dd14f84	0.102202445
119	0xbdd45d12	-0.10369314
120	0xbdb5b676	-0.08872692
121	0x3cc5e07e	0.024154898
122	0xbc87a54d	-0.016558314
123	0x3bcd8157	0.006271522
124	0x3d866fea	0.06564315
125	0x3d78d574	0.06075044
126	0x3d87f29b	0.0663807
127	0xbc1c413a	-0.009537036
128	0xbdd6119b	-0.10452577
129	0xbd5c4d04	-0.053784385
130	0xbc06448a	-0.008195052
131	0x3c5b34f3	0.013379323
132	0xbbdbb3d8	-0.0067047887
133	0x3dbf992e	0.093553886
134	0xbc3f7bf9	-0.011687272
135	0xbde795eb	-0.113078915
136	0xbdf410f7	-0.11917298
137	0xbcccf735	-0.025020221
138	0x3d0e8adb	0.03480039
139	0xbc16ab65	-0.009196137
140	0x3dd37eaf	0.10326897
141	0xbd8fe746	-0.07026534
142	0xbc927937	-0.017880065
143	0xbde112a8	-0.109898865
144	0x3d6acd72	0.057324834
145	0xbd3a87e7	-0.045539763
146	0x3da69cec	0.08135399
147	0xbda8fcd5	-0.08251349
148	0x3cb2e228	0.021836355
149	0x3db7bb54	0.08971277
150	0xbc736512	-0.01485564
151	0xbc47b45f	-0.012189
152	0xbc670355	-0.0140999155
153	0x3d019d05	0.031643886
154	0xbe064b3a	-0.13114634
155	0xbd988107	-0.07446485
156	0x3cd133c7	0.025537385
157	0xbd42a476	-0.047520123
158	0xbca185b4	-0.019717075
159	0xbd9018b1	-0.070359595
160	0xbd6d444b	-0.057926457
161	0x3d9b4545	0.075815715
162	0xbdaa79a5	-0.08323983
163	0xbdaf2e80	-0.08553791
164	0x3ca9b27e	0.020714995
165	0xbbe46fa3	-0.006971316
166	0xbde842a7	-0.11340838
167	0xbcedcf03	-0.029029375
168	0xbdc3a068	-0.095520794
169	0xbdbca2de	-0.09210752
170	0x3a2efd85	0.00066753506
171	0x3d78d784	0.060752407
172	0x3bf62e94	0.0075128768
173	0x3d8013dd	0.062537886
174	0xbe068041	-0.13134862
175	0xbd93248b	-0.071847044
176	0xbcc40901	-0.023930075
177	0xbd8fb134	-0.07016221
178	0xbd9a603a	-0.07537885
179	0xbd2875d3	-0.04112799
180	0xbdb2b6fc	-0.08726308
181	0x3c82b67e	0.01595616
182	0x3d19a94e	0.037514977
183	0x3dbebfce	0.093139276
184	0xba9cd414	-0.001196506
185	0x3c794dcb	0.015216301
186	0xbd24d775	-0.04024454
187	0xba592be1	-0.00082844315
188	0x3d249ba6	0.0401875
189	0xbc76d3b5	-0.015065123
190	0x3a3d2e0d	0.000721664
191	0xbd8cb314	-0.06870094
192	0x3dd82438	0.10553783
193	0x3cf3cd92	0.02976111
194	0xbd0c13fa	-0.03419874
195	0x3db7425a	0.089482024
196	0xbcaef774	-0.02135823
197	0x3da00067	0.07812577
198	0x3d3240a8	0.043518692
199	0xbb900a83	-0.0043957843
200	0xbdacc7f0	-0.084365726
201	0xbd8d817f	-0.06909465
202	0x3c11c4cd	0.008897019
203	0x3d977a51	0.07396377
204	0x3df2f4e5	0.11863116
205	0x3dcff1f8	0.10153574
206	0x3db183c7	0.08667713
207	0xbd65bfed	-0.056091238
208	0x3d66296d	0.05619185
209	0x3da6cba3	0.08144309
210	0x3d9f3df1	0.07775486
211	0xbd2a2e9b	-0.041548353
212	0xbcbb912a	-0.022896368
213	0xbb13fe2c	-0.0022581918
214	0x3c93415d	0.017975504
215	0xbd489398	-0.04896888
216	0x3dc6b321	0.09702135
217	0xbc67900d	-0.0141334655
218	0x3d97c9b8	0.07411522
219	0xbd9cd6a7	-0.07658129
220	0xbb8e2427	-0.004337806
221	0xbda9a08e	-0.082825765
222	0x3cb071b4	0.021538593
223	0x3dbc8901	0.09205819
224	0x3d0b9b92	0.03408391
225	0x3dcfcc59	0.10146398
226	0xbcdfb9e4	-0.02731032
227	0xbdad88bc	-0.08473346
228	0xbdd5bdb9	-0.10436577
229	0xbd38b11d	-0.045090783
230	0x3dc1bfce	0.09460412
231	0xbd144aab	-0.03620402
232	0x3d81c253	0.063358925
233	0xbdbffd25	-0.09374455
234	0xbd77cd97	-0.0604988
235	0x3e012f57	0.12615715
236	0xbd8abfb4	-0.06774846
237	0xbca12074	-0.019668795
238	0x3dce2f24	0.10067585
239	0x35fb4bd0	1.8723022e-06
240	0xbd718c5c	-0.058971748
241	0xbdbf3344	-0.0933595
242	0xbe09d48d	-0.13459988
243	0xbce39000	-0.027778625
244	0xbd58f8de	-0.052971713
245	0xbdc67cc7	-0.09691768
246	0x3dcf7ca0	0.10131192
247	0x3d065b0a	0.032801665
248	0xbd6dbf6c	-0.058043882
249	0x3d858383	0.065192245
250	0x3d0a8349	0.03381661
251	0xbd83fde7	-0.064449124
252	0x3ced0a3b	0.028935542
253	0xbb9b3732	-0.0047368044
254	0xbd91f20b	-0.07126244
255	0xbb741863	-0.003724598

vae_encoder1.fc_mu.bias f4 [28]
0	0xbc622bd7	-0.013804398
1	0x3b990e8d	0.004670924
2	0x3c612ee5	0.013744091
3	0xba2c55ca	-0.0006574063
4	0x3c6042fa	0.013687843
5	0xbc7111a3	-0.014713678
6	0xbcc9fba6	-0.024656128
7	0xbc38fcf5	-0.011290778
8	0x3c1b638d	0.009484184
9	0xbc4f9852	-0.012670593
10	0x3c75c4ce	0.015000535
11	0xbc45956a	-0.012059549
12	0x3c85f38b	0.016351482
13	0x3ccd5243	0.02506364
14	0x3c3af3e0	0.011410683
15	0xbc23b74d	-0.009992433
16	0xbc4c1ff2	-0.012458788
17	0x3c7eae9e	0.015544562
18	0xba66617f	-0.0008788332
19	0xbcb49e7b	-0.022048226
20	0x3c7010c2	0.014652433
21	0x3c886977	0.016651852
22	0x3b56b6db	0.00327628
23	0x3c2c5ecd	0.010520649
24	0x3bd0efca	0.0063762413
25	0x3cbe4c55	0.023229757
26	0x3c7b90b0	0.01535432
27	0x3a9afba0	0.0011824258

vae_encoder1.fc_var.weight f4 [28, 64]
0	0xbdd5b349	-0.104345866
1	0x3c7064ed	0.0146725
2	0xbc9255cf	-0.017863182
3	0x3c90657c	0.017626517
4	0xbd58a0c4	-0.052887693
5	0xbc96cb18	-0.01840739
6	0x3da73894	0.08165088
7	0xbd9cff35	-0.076658644
8	0x3db206d7	0.08692711
9	0xbcb4698c	-0.022022985
10	0xbaa460cb	-0.0012541054
11	0x3d39c47f	0.04535341
12	0xbda89be0	-0.08232856
13	0xbd0d5b8c	-0.034511134
14	0x3d88d762	0.06681706
15	0xbd46f196	-0.048570238
16	0xbda9c2c0	-0.08289099
17	0xbd49f5ac	-0.049306557
18	0xbd1d5a02	-0.038415916
19	0xbdf7b736	-0.120954916
20	0xbc75cd85	-0.015002613
21	0x3d9e201c	0.07720968
22	0xbd4dadff	-0.050214764
23	0xbd582c42	-0.052776583
24	0xbd0e39f7	-0.03472325
25	0xbbdfed47	-0.0068337056
26	0x3c7e32c1	0.01551503
27	0xbd728e63	-0.05921782
28	0xbd8ebd80	-0.06969738
29	0xbd672f5d	-0.056441654
30	0xbd204a16	-0.039133154
31	0x3c8215f5	0.01587961
32	0x3b79ff96	0.0038146726
33	0xbd1a769a	-0.037710764
34	0x3d5c5d7a	0.053800084
35	0x3c172fcd	0.009227705
36	0x3bb6f9d0	0.005583979
37	0xbd1f810f	-0.03894144
38	0xbcdedb04	-0.027204044
39	0xbc75cce6	-0.015002465
40	0x3d45c64c	0.048284814
41	0xbd803f9e	-0.06262134
42	0xbdc7a789	-0.09748752
43	0xbd4668f7	-0.048439946
44	0xbd1e63af	-0.038669284
45	0xbc99a390	-0.01875475
46	0x3ca04ba3	0.019567316
47	0xbd5b8af3	-0.05359931
48	0xbd2aa597	-0.041661825
49	0x3c79aa31	0.015238331
50	0x3d2d5fa9	0.042327557
51	0x3b91e19a	0.0044519426
52	0xbd7a2c40	-0.061077356
53	0x3da1ce5a	0.079006866
54	0xbd47656c	-0.048680708
55	0xbd08d0c0	-0.033402205
56	0xbbf62485	-0.0075116777
57	0xbc8261d6	-0.015915792
58	0x3d88b202	0.06674577
59	0xbdb39731	-0.08769072
60	0x3d366035	0.044525344
61	0x3d63ebf9	0.055644963
62	0xbdbf4166	-0.09338646
63	0xbd57f391	-0.052722517
64	0xbd29610c	-0.041352317
65	0x3c258643	0.010102811
66	0x3c18a247	0.009316034
67	0x3d383444	0.04497172
68	0xbdafab91	-0.085776456
69	0x3a686573	0.0008865215
70	0x3d88c83c	0.06678817
71	0x3d4a0b18	0.049326986
72	0xbdfbae0f	-0.122890584
73	0xbd955cc2	-0.07293083
74	0xbc694819	-0.014238381
75	0xbcc26086	-0.023727667
76	0x3cd29551	0.025705965
77	0x3db73ded	0.08947358
78	0x3d674362	0.056460746
79	0x3d613256	0.054979645
80	0x3dc63f48	0.09680039
81	0xbcc6c55f	-0.024264036
82	0xbd87934f	-0.06619894
83	0xb4aa547e	-3.1726444e-07
84	0x3dca914c	0.098909944
85	0xbdcf645d	-0.10126565
86	0xbd71571e	-0.058920972
87	0xbd833c4b	-0.06407984
88	0xbd98edee	-0.074672565
89	0xbcf4ee96	-0.029898923
90	0xbbe76c3a	-0.007062462
91	0xb8b3bd77	-8.570676e-05
92	0xbd619a66	-0.055078886
93	0xbd35e26a	-0.04440538
94	0xbc7526e0	-0.014962882
95	0x3dc525dc	0.09626362
96	0xbb792d5a	-0.0038021416
97	0x3ca68965	0.020329187
98	0x3c9a7e3e	0.018859025
99	0x3d981090	0.07425034
100	0xbda25475	-0.07926265
101	0xbdba3826	-0.09092741
102	0xbdcf8268	-0.10132295
103	0x3dc1b446	0.094582126
104	0x3d9fcbb3	0.078025244
105	0xbd9d6296	-0.076848194
106	0x3ce686eb	0.028140506
107	0xbd69ee6e	-0.05711215
108	0x3db04c01	0.086082466
109	0x3ce42854	0.027851261
110	0x3cb6a085	0.022293339
111	0xbdb77416	-0.089576885
112	0x3c6c17ba	0.014409954
113	0x3d31c2f7	0.043398824
114	0xbdad7165	-0.08468894
115	0x3d9d26dc	0.076734275
116	0xba349784	-0.00068890327
117	0xbd427cba	-0.04748223
118	0xbdf1df94	-0.11810222
119	0x3d46e363	0.048556697
120	0xbd96f856	-0.07371585
121	0x3cc65e87	0.024214996
122	0xbd8a47dd	-0.06751988
123	0x3d30b1a4	0.04313816
124	0x3d0adedd	0.033903945
125	0xbd778289	-0.060427222
126	0x3b2f50cd	0.0026751042
127	0x3d703626	0.05864539
128	0xbdbb7992	-0.09154047
129	0xbdc04c93	-0.093896054
130	0x3ccaeefe	0.024772163
131	0x3dd183ec	0.1023024
132	0xbdbd01b8	-0.092288435
133	0xbd1c1cfe	-0.038113587
134	0x3d87b2e1	0.06625915
135	0x3d682523	0.05667604
136	0x3d9d20c5	0.07672266
137	0xbd4de9df	-0.050271865
138	0x3d987bf2	0.07445516
139	0x3d297a3a	0.04137633
140	0x3d3692c9	0.04457358
141	0xbcdc8614	-0.026919402
142	0xbd354558	-0.044255584
143	0xbdabdcd1	-0.08391727
144	0xbde5bead	-0.11218009
145	0x3cdf6dca	0.027274031
146	0x3dbbcafd	0.09169576
147	0xbcaf4880	-0.021396875
148	0xbd857742	-0.06516887
149	0x3dc5df3a	0.09661718
150	0xbc88a272	-0.016679022
151	0xbdb73392	-0.08945383
152	0x3d27ccc2	0.040966757
153	0x3dc3c827	0.095596604
154	0xbc98d37d	-0.018655533
155	0xbcfa87af	-0.030582277
156	0x3d1d97fa	0.038475014
157	0x3d7aaca6	0.061199807
158	0xbdcc3d92	-0.09972681
159	0xbda87bfd	-0.08226774
160	0x3d5d754c	0.05406694
161	0xbcfcb344	-0.0308472
162	0xbd5a1ba7	-0.053249028
163	0xbc78e248	-0.015190668
164	0x3dbc43c1	0.091926105
165	0xbdc75ff8	-0.097351015
166	0xbd973cbb	-0.0738463
167	0x3dccd246	0.10001044
168	0xbd27d768	-0.04097691
169	0xbdb17065	-0.08664016
170	0x3d4a0c6f	0.049328264
171	0xbdd7c5dd	-0.10535786
172	0xbcc63856	-0.024196785
173	0x3d17c011	0.037048403
174	0x3c9e67ff	0.019336699
175	0xbd36e22f	-0.0446493
176	0xbc02c454	-0.007981379
177	0xbd510d58	-0.051038116
178	0x3d56a2fd	0.05240153
179	0x3d543ef8	0.051817864
180	0x3da17c15	0.07884995
181	0x3d4b7ae7	0.049677756
182	0x3d854a0c	0.06508264
183	0xbe0c1dac	-0.13683194
184	0x3c7faf9d	0.015605834
185	0x3bedf77b	0.007262168
186	0xbdd7b9af	-0.10533463
187	0xbcff3315	-0.031152287
188	0xbd6d2311	-0.05789477
189	0x3cb3bea5	0.021941492
190	0x3dc6735c	0.09689972
191	0xbd4ce2e3	-0.050021064
192	0xbd99a0bc	-0.07501361
193	0xbd9e6578	-0.077341974
194	0x3cd51c48	0.026014462
195	0xbdb5fc1d	-0.088859774
196	0xbd869ed2	-0.06573261
197	0x3df91573	0.12162294
198	0x3de8cb11	0.11366857
199	0x3d8eeaae	0.06978355
200	0xbd86db3b	-0.06584784
201	0xbba51007	-0.005037311
202	0x3d9e574f	0.077314965
203	0xbd971309	-0.073766775
204	0x3aa99bfa	0.0012940161
205	0x3d91bd21	0.071161516
206	0xbb01186e	-0.00196984
207	0xbdaf1284	-0.085484535
208	0x3d5cf762	0.05394686
209	0xbdb8da04	-0.09025958
210	0xbc4cb250	-0.012493685
211	0x3d3d6f5f	0.04624879
212	0xbd1c7772	-0.03819985
213	0x3d7d76ff	0.06188106
214	0x3bf57409	0.007490639
215	0xbdb66c53	-0.0890738
216	0xbd6afa15	-0.057367403
217	0x3d0a2392	0.03372533
218	0x3d85d1ce	0.06534158
219	0xbce93748	-0.028468743
220	0x3da8a274	0.082341105
221	0x3d1cbfaa	0.038268723
222	0x3d2baac9	0.04191092
223	0xbd123e2a	-0.035703816
224	0xbd5f527c	-0.054522023
225	0xbcb08cc4	-0.021551497
226	0x3cdc1a64	0.026868053
227	0x3dbf5e93	0.093442105
228	0xbdb14a47	-0.086567454
229	0x3d7e8d91	0.062146727
230	0xbd83a1b2	-0.06427325
231	0x3dc7a0ef	0.097474925
232	0x3d2bf4b1	0.041981403
233	0x3d87e68a	0.06635769
234	0xbd12b790	-0.03581959
235	0x3cdd900d	0.027046228
236	0x3dfe25c9	0.12409551
237	0x3dc404e4	0.09571245
238	0x3dc1c1b9	0.09460778
239	0x3dc15451	0.0943991
240	0xbd24458e	-0.040105395
241	0xbdeafd33	-0.11474075
242	0xbdfad9c7	-0.12248569
243	0xbd6ec5fd	-0.058294285
244	0xbdd15ca9	-0.10222752
245	0x3d04b8fc	0.032402977
246	0x3dd01c75	0.10161678
247	0x3d34aa9c	0.04410802
248	0xbd23bcec	-0.03997509
249	0xbda636e2	-0.08115937
250	0xbd16bd8c	-0.03680186
251	0xbd2441cf	-0.040101822
252	0x3b497102	0.0030737524
253	0xbdb5cfcc	-0.08877525
254	0xbd12ef34	-0.035872653
255	0x3cd1dffd	0.025619501

vae_encoder1.fc_var.bias f4 [28]
0	0x3c6eff6b	0.014587264
1	0xbb67f57a	-0.0035394118
2	0x3caec22d	0.021332825
3	0x3a386c14	0.0007035148
4	0xbc87dc77	-0.016584618
5	0x3c533986	0.012892133
6	0x3c3ecc3b	0.011645372
7	0x3c6bdefb	0.014396424
8	0x3aead9be	0.0017917675
9	0xbc09a0f5	-0.008400192
10	0xbb222b21	-0.0024744945
11	0xbc9d221a	-0.0191813
12	0x3bc16ab6	0.0059026135
13	0xbc02fa65	-0.007994269
14	0xbbf8254a	-0.0075728046
15	0x3cdc7a97	0.026913924
16	0xb9824fe3	-0.00024855052
17	0x3cddcc40	0.027074933
18	0xbc60505b	-0.013691033
19	0x3c693404	0.014233593
20	0xbcb31330	-0.021859735
21	0xbcc0b9ca	-0.023526091
22	0xbc3637ba	-0.011121685
23	0x3c0e7d08	0.008696802
24	0x3c569b12	0.013098495
25	0xbc5bbe93	-0.013412136
26	0xbb2e05bc	-0.002655371
27	0xbbb5d8ea	-0.00554954

vae_decoder1.decoder_input.weight f4 [64, 28]
0	0xbd53f161	-0.05174387
1	0x3da773f4	0.08176413
2	0xbe49b3dd	-0.19697519
3	0x3e28ab6c	0.16471642
4	0xbd24bbcf	-0.04021817
5	0x3e173c6e	0.14769146
6	0x3db67a0e	0.08909999
7	0xbc91e851	-0.017810972
8	0x3d995e57	0.07488697
9	0x3e05d3c2	0.1306906
10	0xbd0d7d8f	-0.03454357
11	0x3e11a24b	0.14222066
12	0xbe1d195d	-0.15341707
13	0xbdc7d326	-0.0975707
14	0x3d74b9dc	0.05974756
15	0x3d49ae18	0.049238294
16	0x3dd9a197	0.10626524
17	0xbdd050b2	-0.101716414
18	0x3c3eabcf	0.011637642
19	0xbd11bb76	-0.035579167
20	0xbc636737	-0.013879589
21	0xbe1d2e6b	-0.15349738
22	0x3e000f99	0.1250595
23	0x3e39833c	0.18116468
24	0xbd619c27	-0.05508056
25	0xbe2bb8b8	-0.16769683
26	0x3e07bcd9	0.13255633
27	0xbd412967	-0.047158625
28	0x3d8f3109	0.069917746
29	0x3e3b4e47	0.18291579
30	0x3e2c0660	0.16799307
31	0x3dc35aaf	0.09538781
32	0x3dbff896	0.09373586
33	0x3d0bb6a3	0.034109723
34	0x3e42dd77	0.19029795
35	0xbd938b4a	-0.07204302
36	0xbe197350	-0.14985394
37	0xbce89c1f	-0.028394757
38	0xbdba3842	-0.090927616
39	0xbd410aeb	-0.047129553
40	0x3d8c3c88	0.06847483
41	0x3c414e35	0.011798431
42	0xbe30b098	-0.17254865
43	0x3dd97e69	0.10619814
44	0xbe12707d	-0.14300723
45	0x3dbf16a0	0.09330487
46	0xbd883e14	-0.066524655
47	0xbce500a4	-0.027954407
48	0x3b89364e	0.004187382
49	0xbe3799a5	-0.17929704
50	0x3e2b1057	0.16705452
51	0xbe013681	-0.12618448
52	0xbde84a00	-0.113422394
53	0x3e28f8f8	0.16501224
54	0x3d7d3998	0.061822504
55	0xbca0d098	-0.019630715
56	0x3db37aaa	0.08763631
57	0x3d93288e	0.071854696
58	0xbe4883c5	-0.19581516
59	0xbdf0dc08	-0.11760718
60	0x3db1ea50	0.0868727
61	0x3e18f37c	0.14936632
62	0x3dd78aa5	0.10524491
63	0x3dc126c4	0.09431222
64	0xbd01c175	-0.031678636
65	0xbe21a28d	-0.15784664
66	0x3b54b37f	0.003245562
67	0xbe10446e	-0.14088604
68	0x3d53652b	0.051610153
69	0x3cc5428d	0.024079585
70	0x3cab78f5	0.0209317
71	0xbd8ba8de	-0.06819318
72	0x3e11dfef	0.1424558
73	0xbba31493	-0.004976818
74	0x3d140bf6	0.03614422
75	0x3ca241b3	0.019806718
76	0x3d4c3ee7	0.049864676
77	0xbdff7206	-0.1247292
78	0xbdd51a13	-0.10405364
79	0x3c1af3c4	0.009457532
80	0x3e386cdc	0.18010277
81	0x3c94c4b5	0.018160203
82	0xbe01e2e6	-0.12684211
83	0x3b80f5fa	0.0039355727
84	0x3dd6be4d	0.10485516
85	0x3dca2e82	0.09872152
86	0x3d353e58	0.04424891
87	0xbe605237	-0.21906362
88	0x3d9f6a9b	0.07784005
89	0x3ca2bca1	0.019865336
90	0xbd9335cd	-0.07187996
91	0x3dad9770	0.0847615
92	0xbe07a912	-0.13248089
93	0xbc5701da	-0.013123
94	0xbdbd2417	-0.09235399
95	0xbd17d6a1	-0.03706992
96	0xbdd8cf57	-0.10586422
97	0x3d687da7	0.056760456
98	0xbe082e76	-0.13298973
99	0xbdf89782	-0.12138273
100	0x3d6497a1	0.055808667
101	0x3d08c7b5	0.03339358
102	0xbc755f2e	-0.014976306
103	0x3db01608	0.08597952
104	0x3d7270ff	0.059189793
105	0x3beb4e26	0.007180947
106	0xbdd41765	-0.10356025
107	0x3d612fb9	0.054977152
108	0xbdea96eb	-0.114545666
109	0xbdafa911	-0.08577169
110	0x3e110a39	0.14164056
111	0xbe3887ca	-0.1802055
112	0xbe05ee44	-0.13079172
113	0xbe238963	-0.15970378
114	0x3d9cf3e4	0.07663706
115	0xbc02c640	-0.007981837
116	0xbe2ec900	-0.17068863
117	0x3c0efd8b	0.008727442
118	0xbdd6bb05	-0.1048489
119	0xbe57605c	-0.21032852
120	0xbd94e175	-0.07269565
121	0x3da056e7	0.07829075
122	0x3e194b90	0.14970231
123	0xbc689074	-0.014194597
124	0x3e1440a9	0.14477791
125	0xbd8edc71	-0.069756396
126	0x3dba966f	0.09110724
127	0xbe2d131f	-0.16901825
128	0x3dfd0dff	0.12356185
129	0x3d79626b	0.060884874
130	0xbe322c0d	-0.17399617
131	0xbd3b2695	-0.04569109
132	0x3df36ef8	0.118864
133	0xbd823296	-0.06357305
134	0xbe0566b2	-0.13027456
135	0x3de1d113	0.11026206
136	0x3deb205d	0.11480782
137	0x3cc4dba9	0.024030523
138	0xbd5d617d	-0.05404805
139	0x3e4752c6	0.1946517
140	0xbd240b1d	-0.04004966
141	0xbe21b25c	-0.15790695
142	0xbdcfecd5	-0.10152594
143	0xbe417006	-0.1889039
144	0xbdf091ad	-0.117465355
145	0x3c450c21	0.012026818
146	0x3e1d255c	0.15346283
147	0x3decabd1	0.11556209
148	0x3d900711	0.07032598
149	0xbe1a16f7	-0.15047823
150	0xbac7bbc8	-0.0015238458
151	0xbceb1347	-0.028695716
152	0x3ccea52f	0.02522525
153	0xbe07a5fc	-0.13246912
154	0xbdbbd3ca	-0.09171255
155	0x3d69b5d2	0.057058163
156	0x3e569993	0.20957021
157	0xbd99e922	-0.0751517
158	0x3d8fa0ef	0.070131175
159	0x3d393bd0	0.045223057
160	0x3cb977ec	0.022640191
161	0x3d657026	0.056015156
162	0x3dc19234	0.09451714
163	0x3dc5d90c	0.09660539
164	0x3d809d78	0.06280035
165	0x3e3a63e9	0.18202175
166	0xbe3a4e93	-0.18194036
167	0x3caa8156	0.020813625
168	0xbe006f62	-0.12542489
169	0x3dcba730	0.09943998
170	0xbd4dff24	-0.05029215
171	0x3e540277	0.20704065
172	0xbd91bec3	-0.07116463
173	0x3d57fead	0.052733112
174	0x3e2d0ab2	0.16898611
175	0xbdeaa983	-0.11458113
176	0xbdc88bd9	-0.09792299
177	0x3cc6351e	0.02419525
178	0xbd0181c9	-0.031617913
179	0x3cf2283b	0.029560199
180	0x3d9fae71	0.07796944
181	0xbd8b926b	-0.068150364
182	0x39cc3e6a	0.00038956414
183	0xbe4036f8	-0.18770969
184	0x3c51d9ad	0.012808246
185	0xbdb503a3	-0.08838584
186	0x3ca01ffd	0.019546503
187	0xbdb9f752	-0.09080376
188	0x3de8049a	0.11329003
189	0xbddf34dd	-0.10898755
190	0xbe1a4a30	-0.15067363
191	0xbe1892a5	-0.1489969
192	0xbb8e6175	-0.004345114
193	0xbd7a711e	-0.061143033
194	0xbe1a660f	-0.15077995
195	0x3da21eb8	0.079160154
196	0xbd0cdf6d	-0.034392763
197	0xbcb1e191	-0.021714004
198	0xbda63d8c	-0.08117208
199	0x3e2491e4	0.16071278
200	0xbe514d0e	-0.2043955
201	0x3e2741cc	0.16333693
202	0x3e31a326	0.17347392
203	0x3c8c8a35	0.017155746
204	0xbdf00def	-0.117214076
205	0xbe14268d	-0.14467831
206	0x3d982f90	0.07430947
207	0xbe0af8e2	-0.13571504
208	0x3d4b8e7e	0.049696438
209	0x3dae164f	0.08500349
210	0x3e1bb827	0.15206967
211	0xbd2760b2	-0.0408637
212	0xbd69e433	-0.057102393
213	0x3e018594	0.12648612
214	0x3d02ddb6	0.03194972
215	0x3d08ab65	0.03336658
216	0xbdd58214	-0.10425201
217	0xbc6ff1ae	-0.014645023
218	0xbd8abe61	-0.06774593
219	0xbdea07b8	-0.114272535
220	0x3e208090	0.15674043
221	0xbd0831bb	-0.03325055
222	0x3d948116	0.07251184
223	0xbda5e8ce	-0.081010446
224	0x3d30da5a	0.043176986
225	0xbd8f8982	-0.070086494
226	0xbc375688	-0.011190064
227	0xbd8452b9	-0.064610906
228	0xbd16182a	-0.03664414
229	0xbdb0aa22	-0.086262
230	0x3c8d2194	0.017227925
231	0x3e17721f	0.14789627
232	0xbd120986	-0.035653614
233	0x3e44302d	0.19159003
234	0x3daf89ef	0.085712306
235	0x3e15c32b	0.14625232
236	0xbe09809f	-0.13427971
237	0xbe1d4357	-0.1535772
238	0xbe4a34f9	-0.1974677
239	0x3daf9610	0.08573544
240	0x3d5e71fa	0.054307915
241	0xbd6891be	-0.056779616
242	0x3e1c6e92	0.15276554
243	0x3dba2a57	0.09090107
244	0x3c70b107	0.014690644
245	0x3db6a23d	0.08917663
246	0x3e360fd9	0.17779483
247	0xbc903463	-0.017603105
248	0x3dacf0b4	0.08444348
249	0x3e2f6792	0.17129353
250	0xbe03cb03	-0.12870412
251	0xbc24b26c	-0.010052305
252	0x3e24a486	0.16078386
253	0x3e2271d5	0.15863736
254	0x3da9ed44	0.08297208
255	0x3e1b766e	0.15181896

vae_decoder1.decoder_input.bias f4 [64]
0	0xbded3ea0	-0.115842104
1	0xbe3dc368	-0.18531573
2	0x3d9001e0	0.07031608
3	0xbccf26be	-0.025287028
4	0xbe0893f3	-0.13337688
5	0xbd28b2cb	-0.041186135
6	0x3e20d45e	0.15706012
7	0xbd8268d3	-0.0636765
8	0xbd4f3bd1	-0.050594155
9	0xbe1e9cf9	-0.15489568
10	0xbe0f5208	-0.13996136
11	0xbdc80454	-0.097664505
12	0x3dbf9057	0.093537025
13	0x3e38a774	0.18032628
14	0xbb8ff2cd	-0.004392958
15	0x3de86ea5	0.11349229
16	0x3cb94748	0.022616997
17	0x3df6dc01	0.12053681
18	0x3d44bf75	0.04803415
19	0xbd4a7afe	-0.0494337
20	0x3d68e358	0.056857437
21	0xbe010af1	-0.1260183
22	0x3d4c4526	0.049870633
23	0xbd78d2e2	-0.06074799
24	0x3de2e646	0.110790774
25	0x3e0eae66	0.13933715
26	0xbe1bde3b	-0.15221493
27	0x3de54fc8	0.11196858
28	0x3e072e28	0.13201201
29	0x3d926ad5	0.07149283
30	0x3e37be16	0.17943606
31	0x3d3c17aa	0.045921005
32	0xbd157439	-0.03648779
33	0x3e0ec4e3	0.13942294
34	0xbd67142e	-0.05641573
35	0x3d5a9983	0.053369056
36	0xbe3b0952	-0.18265274
37	0xbcc5534e	-0.024087574
38	0xbdbd95b9	-0.09257073
39	0x3d7a9dad	0.061185528
40	0xbdce1529	-0.1006263
41	0xbe0ec5c3	-0.13942628
42	0x3d94237a	0.07233329
43	0xbcf334e1	-0.0296883
44	0xbdd6c5a7	-0.10486918
45	0x3d86a0c9	0.06573636
46	0x3d762c67	0.06010094
47	0xbceabb75	-0.02865384
48	0xbdec31e5	-0.11532954
49	0x3e3a94ea	0.18220869
50	0x3e37cb6e	0.17948696
51	0x3cdd9415	0.02704815
52	0x3e1f4561	0.1555381
53	0xbcd37f15	-0.025817433
54	0xbe04142a	-0.12898317
55	0x3dcec0d0	0.1009537
56	0x3e125bbb	0.14292805
57	0x3d03a9d2	0.032144375
58	0xbdc77098	-0.097382724
59	0x3d26b9c3	0.0407045
60	0x3ce3310a	0.027733345
61	0xbda7cdf5	-0.0819358
62	0xb8fc2e72	-0.000120249475
63	0x3e201da6	0.1563631

vae_decoder1.batch_norm.weight f4 [64]
0	0x3f8f03d7	1.1173047
1	0x3f878e08	1.059022
2	0x3f8cf101	1.1011049
3	0x3f85deca	1.0458615
4	0x3f8e42db	1.1114153
5	0x3f8b58a4	1.0886426
6	0x3f8e8bf6	1.1136463
7	0x3f88b1ab	1.067922
8	0x3f8f7bfc	1.1209712
9	0x3f8c763f	1.0973586
10	0x3f9086d5	1.1291147
11	0x3f8c0929	1.0940295
12	0x3f89481f	1.0725135
13	0x3f8f05d0	1.1173649
14	0x3f8fbbd4	1.1229196
15	0x3f8ac94b	1.084268
16	0x3f884f95	1.0649287
17	0x3f8b5380	1.0884857
18	0x3f8aa402	1.0831301
19	0x3f8c2cc7	1.0951165
20	0x3f8e17bb	1.1100992
21	0x3f89f647	1.0778283
22	0x3f88a62e	1.0675714
23	0x3f887b18	1.0662565
24	0x3f8c1e42	1.0946734
25	0x3f8b724e	1.0894258
26	0x3f8ca686	1.0988319
27	0x3f85475d	1.0412403
28	0x3f8c1c25	1.0946089
29	0x3f8f4d63	1.1195492
30	0x3f875ff5	1.0576159
31	0x3f8db656	1.107127
32	0x3f8bd071	1.0922986
33	0x3f899a21	1.0750161
34	0x3f8e2968	1.1106386
35	0x3f889267	1.0669678
36	0x3f8a8d0f	1.0824298
37	0x3f81e6a2	1.0148509
38	0x3f8d7526	1.1051376
39	0x3f8a15b3	1.0787872
40	0x3f8d82da	1.1055558
41	0x3f8f2fd1	1.1186467
42	0x3f8c94f9	1.0982963
43	0x3f8f23e0	1.1182823
44	0x3f8effee	1.1171854
45	0x3f8c250f	1.0948809
46	0x3f8f1b9c	1.1180301
47	0x3f8d667d	1.1046902
48	0x3f8bd30b	1.092378
49	0x3f8a084e	1.0783784
50	0x3f8e45da	1.1115067
51	0x3f8a8459	1.0821639
52	0x3f82882c	1.0197806
53	0x3f8d7f31	1.1054441
54	0x3f89df77	1.0771321
55	0x3f8a15a7	1.0787858
56	0x3f8e843c	1.1134105
57	0x3f8d6bbe	1.1048505
58	0x3f8d3064	1.1030393
59	0x3f8b2f54	1.0873818
60	0x3f8c6e4d	1.0971161
61	0x3f8f5eb6	1.1200778
62	0x3f8f4e6a	1.1195805
63	0x3f8fddd2	1.1239569
